Model Results/GCN-GAFF/my_model.pth (torch, 693314 bytes, 40 tensors)

pre_lin_list.0.weight f4 [170, 117]
000000 1a 4e 6b 3d ed 81 b1 3d f8 35 d1 3c 23 3e 83 3c
       0.05744753 0.086673595 0.02553843 0.01602084
000010 71 ac 85 3d 35 da 23 bd c6 c5 1a 3d 1c b4 fa bc
       0.06527031 -0.04000302 0.037786268 -0.030603461
000020 83 4c 4d bc c1 c2 88 3d 16 b8 ac bd 70 06 8b 3c
       -0.012530449 0.06677771 -0.08433549 0.016970843
000030 2d 98 3b 3d 29 d0 4c bd b3 7c 8a 3d 42 17 2e 3d
       0.045799423 -0.050003204 0.06762066 0.04250265
000040 23 f5 dd bc 7d ca 98 3d fe 24 24 3d 33 65 4e bd
       -0.02709443 0.074604966 0.04007434 -0.05038948
000050 83 a8 82 bc f5 50 02 bd 61 d8 93 3d bc 2e 23 bb
       -0.015949493 -0.031815488 0.072190054 -0.0024899682
000060 f3 b7 80 3d f2 a7 8a 3d fa 3e 02 3d 14 23 3f 3d
       0.062850855 0.06770314 0.03179834 0.046664312
000070 98 55 41 3c 88 96 38 ba 83 dd a4 bd 7a db 05 bd
       0.011800192 -0.0007041474 -0.080500625 -0.032680012
000080 a9 27 6a bc 1d ff 88 3d e8 cd 93 3c 38 67 81 bc
       -0.014291682 0.06689284 0.01804252 -0.015796289
000090 70 7a c4 bc 0e 6d 59 3d fb 07 7c 3d fb 89 52 3d
       -0.023984164 0.05308252 0.06153105 0.05140112
0000a0 68 f8 b5 bd 32 85 7f 3c 3c 24 ef 3b 0e 7d 9c bd
       -0.0888527 0.015595721 0.0072980206 -0.0764104
0000b0 e0 c4 64 3d 2c a4 a5 bd 05 7c ed bb 5c ea ef 38
       0.055851817 -0.08087954 -0.0072474503 0.00011440061
0000c0 fe cf 5f 3d a8 f8 89 bc d7 52 87 bd 25 a1 b2 3d
       0.054641716 -0.016842201 -0.06607597 0.08722142
0000d0 8c d2 45 3b 3d 88 93 3d db 9b 3f bd cd 71 37 bd
       0.003018531 0.0720372 -0.046779495 -0.044786263
0000e0 4e 8d e9 3c 20 5e c2 3c 95 a3 ba 3d 4f 50 0f bc
       0.028509762 0.023726523 0.09113232 -0.008747174
0000f0 a3 ec 4e 3c e7 9c 90 3d 93 ca 02 bb e1 60 80 3d
       0.012629661 0.07061177 -0.001995717 0.06268478
000100 09 aa bc 3c 8a ae 88 bd fb 33 21 bc 42 54 49 3d
       0.023030298 -0.06673916 -0.009839053 0.04915262
000110 ac 32 82 bd 75 2e f5 ba 46 c5 a7 bd 55 6a 2e bd
       -0.06357321 -0.0018705862 -0.08191924 -0.042581875
000120 c1 d4 84 bd 29 02 9f 3d 8c c2 98 bd 0e 83 67 3d
       -0.06485892 0.07764084 -0.07458982 0.056521468
000130 2c e2 2c 3c 6d ff 6e bd 56 5c 7c 3d fd 7b 19 3d
       0.01055197 -0.05834906 0.061611496 0.03747176
000140 cd 2a 91 3d 22 9f 03 bd 8e c2 2a 3d 61 02 f1 bc
       0.07088242 -0.032134183 0.041689448 -0.02942008
000150 0b 03 21 bd 98 64 02 3b cd fc ae bd 3c 9f e7 3c
       -0.039309543 0.0019896384 -0.08544312 0.028274171
000160 a1 50 b2 bd 70 1e a3 bc 12 55 43 bd 6b 9e 21 bd
       -0.08706785 -0.019911975 -0.04768855 -0.03945772
000170 a6 2c 05 3d 56 c3 54 bd 08 81 fb 3a 7d e7 20 bc
       0.032513283 -0.0519441 0.0019188235 -0.009820816
000180 08 1e c7 bc 20 6b bb 3b 68 64 d5 3c 6e 7b 2f 3d
       -0.024306312 0.0057195574 0.026048854 0.04284232
000190 24 3b 89 bd a9 90 76 bd 89 de 9e 3d 87 8b 9b 3d
       -0.06700733 -0.060196552 0.07757289 0.07594972
0001a0 a2 7c 41 3d 70 99 a1 bd 88 d9 3f 3d 5d fe dd bc
       0.047238 -0.07890594 0.046838313 -0.027098829
0001b0 1b 29 8f 3d e8 f3 c9 ba 00 0f ba 3c 23 72 d2 bc
       0.06990262 -0.0015407773 0.02271223 -0.02568919
0001c0 5f c0 74 3d 46 49 33 3d 7d 49 8a bd 01 5d a9 bd
       0.059753772 0.04377105 -0.06752298 -0.08269692
0001d0 4d 9b 34 bd da 28 98 bd 05 63 af 3d ca cf 97 bd
       -0.04409342 -0.07429667 0.08563808 -0.074126795
0001e0 a6 d4 7a bd 18 55 8d 3c 39 2c 95 3d 5e 9b dd 3d
       -0.061237954 0.01725249 0.072838254 0.108206496
0001f0 db 45 e7 bc eb d7 06 3d 6a 38 4c 3d 13 9c 87 3d
       -0.028231552 0.03292076 0.04985849 0.06621566
000200 76 07 b5 bd 09 9a ca 3a 79 ac 08 3d 5a f0 71 3d
       -0.08839314 0.0015457283 0.033367608 0.059067108
000210 36 8e 62 bd bc ab da bc 5d b7 24 bc 68 15 e8 bc
       -0.055311404 -0.026693217 -0.010053483 -0.02833052
000220 e0 6c e8 bc ea fa 63 3d af de b0 3d d5 ec 8c 3d
       -0.028372228 0.055659212 0.086362235 0.068811096
000230 6e a1 fa bc 74 11 aa 3c 4c 18 af ba 5b 40 6d bc
       -0.030594554 0.020760275 -0.0013358681 -0.014480676
000240 c0 03 87 bc a8 52 8e 3d 11 87 a4 3d 40 91 3c bd
       -0.01648128 0.06949359 0.080335744 -0.04603696
000250 74 6a e7 3c 69 b5 74 bd be e2 76 3d fe c8 14 3b
       0.028249003 -0.05974332 0.060274832 0.0022702808
000260 05 9d ad 3d 02 4a 4c 3d e4 b4 76 3c 68 d4 0b bd
       0.08477215 0.049875267 0.015057776 -0.034138113
000270 ed 4e 9d 3d ee e4 ef 3c 5b 66 ad bd 43 29 8f bd
       0.076810695 0.029283967 -0.084667884 -0.06990292
000280 a5 61 8c bc 50 5f 93 bc 10 68 02 3c 57 49 a8 bd
       -0.017136404 -0.017989784 0.007959381 -0.082171135
000290 b1 eb 54 bd d1 f1 80 3d d7 d1 70 3d 35 9e 03 bd
       -0.051982585 0.06296123 0.05879387 -0.0321333
0002a0 8a 6c 64 bd da 83 99 3d 6b f2 93 bd 6b 7f 98 bd
       -0.055767573 0.07495852 -0.07223972 -0.07446178
0002b0 e3 c2 b1 3d 5f 5a a7 3d c9 e0 57 bc 60 90 e2 bc
       0.0867975 0.08171534 -0.013176152 -0.027656734
0002c0 26 06 72 3d 68 6c e4 3c 05 5a 22 bd 1c 35 dd 3c
       0.059087895 0.027883723 -0.03963663 0.027002864
0002d0 a4 39 a1 bd fe 03 48 3d 8d 06 13 bd b5 c7 07 bd
       -0.07872322 0.048831932 -0.03589492 -0.03314944
0002e0 84 f3 80 bc b3 c4 59 bd 61 90 80 3d d9 08 66 3c
       -0.015741117 -0.053166103 0.06277538 0.014040195
0002f0 96 89 3e 3d aa 9f 80 bd 4e 56 e5 3c d1 7e b5 3d
       0.04651793 -0.062804535 0.027995255 0.08862079
000300 8f 28 5e bd 49 55 15 bd e7 e6 50 bd c8 5a 32 bd
       -0.0542379 -0.036458287 -0.051001456 -0.043543607
000310 07 c9 d5 bb fd 49 5a bc 9f ce 19 bd cc 19 91 bc
       -0.0065242085 -0.013323304 -0.037550565 -0.017712496
000320 12 12 95 bd 24 82 b5 3c 74 39 bd bc 06 ac 49 3d
       -0.07278837 0.022156782 -0.023098685 0.04923632
000330 7f 8d 8a bd 70 a1 4b 3d 49 f0 5d bd 4b 51 b9 3d
       -0.067652695 0.049714506 -0.054184232 0.090487085
000340 dc f4 d1 3c 29 89 a7 3d 22 0b 26 3d 1c ea 9b bd
       0.025629453 0.08180458 0.04053796 -0.07613012
000350 f0 55 94 39 d5 45 86 3d f7 81 fc ba cc 23 84 3a
       0.00028292788 0.06556288 -0.0019264807 0.0010081469
000360 18 c4 35 bc fd 6f b2 3d 78 a6 63 bc a2 93 56 bd
       -0.011094116 0.08712766 -0.01389467 -0.052386887
000370 f4 4b dc bc 2c f3 1b bb 2f ea be bd 75 9d a7 3d
       -0.026891686 -0.0023796065 -0.09322011 0.081843294
000380 0c ff 92 bc 80 12 a2 3c 90 11 5b bd 2d d4 02 bd
       -0.017943881 0.019784212 -0.053483546 -0.031940628
000390 17 fc b6 3d 35 05 bb bc 3b 2c a9 3d 2b 8b 9d 3d
       0.08934801 -0.022829631 0.082603894 0.0769256
0003a0 4c 86 d8 3c 63 89 7d 3d 7f 06 cb bc d7 9a 9d bd
       0.026431225 0.0618986 -0.024783371 -0.07695549
0003b0 ad 98 b4 bd d1 b0 ff bb 3e 7d 64 3d ae 99 ad 3d
       -0.08818183 -0.0078030606 0.055783503 0.08476578
0003c0 15 eb 91 39 24 28 3e 3c 54 ca d0 bc 07 e1 ad 3d
       0.00027831705 0.01160625 -0.025487103 0.08490186
0003d0 96 c5 d1 3c 61 5c 2d bd 38 5c b6 bc d1 be 19 3d
       0.025606912 -0.042324428 -0.02226077 0.037535492
0003e0 cf f7 24 bd fb 21 b8 3d a0 f9 02 3d f8 4d d8 bc
       -0.04027539 0.08990856 0.031976342 -0.026404366
0003f0 6a 8c 63 3d ba 1e 68 bd 4e 06 a9 bd 92 91 42 bd
       0.05555383 -0.056669928 -0.08253156 -0.047502108

pre_lin_list.0.bias f4 [170]
000000 24 2c b2 bd 2d 1e 01 3c 3f d4 59 bd 19 aa 96 3d
       -0.086998254 0.00788073 -0.05318093 0.07356662
000010 1c c6 0e 3d 67 b9 95 3d 18 df 7c 3d a1 36 0e 3d
       0.0348569 0.07310753 0.061736196 0.034720067
000020 db f1 05 bc 49 e6 7e 3d 4c 7d ba bd e5 db 9a 3d
       -0.008175339 0.062231336 -0.0910593 0.07561473
000030 07 24 98 3d f7 79 b9 3d bf 0c 31 3d 55 ec a1 3d
       0.07428747 0.09056466 0.043225046 0.07906405
000040 bf a1 f0 ba 12 46 1b bd dc 70 9a bc 99 e9 8b bd
       -0.0018358751 -0.03790862 -0.018852644 -0.068316646
000050 98 c5 b0 3c e7 bf 7f 3d 9f 35 08 3d 30 30 d8 3c
       0.021578595 0.06243887 0.033254262 0.026390165
000060 fe 36 7c 3d d7 6f 9c 3d 34 e6 2c 3d 3a a2 a5 bd
       0.061575882 0.07638519 0.042211726 -0.08087583
000070 18 68 3e bd 16 5b 93 bc 16 2c 65 bc 2c 20 0c bc
       -0.04648599 -0.01798777 -0.013987562 -0.008552592
000080 34 5d 90 bc 95 59 05 bc 99 fc d4 bd 6f 82 33 bd
       -0.017622568 -0.008139034 -0.10399742 -0.043825563
000090 a3 c4 ef 3c e7 48 d3 3c 70 6e 9d 3d db 42 54 bd
       0.029268568 0.025791598 0.0768708 -0.05182157
0000a0 f3 6b 9f bc 1d 7f 8d 3d cd 99 35 bd e8 75 86 3d
       -0.019460654 0.069090106 -0.04433613 0.065654576
0000b0 55 39 a3 3c 86 b8 21 3d 65 d1 f0 bb 56 88 19 3d
       0.019924799 0.039482616 -0.0073491805 0.037483536
0000c0 b2 9e 20 3d 19 9f 62 bb a7 f7 9e bd 4d fe 90 bc
       0.039213844 -0.0034579693 -0.0776208 -0.017699385
0000d0 9b fe 59 bd 7d 32 57 bb 94 68 1a bd 44 6e 32 bd
       -0.053221326 -0.003283649 -0.03769739 -0.04356219
0000e0 a7 0a 24 3d cb 41 bb bd f6 88 aa bc ed 0b 67 bd
       0.04004922 -0.091434084 -0.020817261 -0.056407858
0000f0 16 dc c2 3d b2 72 28 3d 8d 7e 99 bd 0f a1 b3 3d
       0.09514634 0.041125007 -0.07494841 0.08770954
000100 84 28 82 3d 4a 62 b6 bd 05 67 50 bd 5c c8 cd bc
       0.06355384 -0.08905466 -0.050879497 -0.025119953
000110 67 31 a6 3d 95 76 d4 3c 0c dd c5 bd 9c 27 72 3d
       0.081148915 0.02593545 -0.09661302 0.059119806
000120 2b 18 90 bd a2 33 6c bc ca a6 af bd d7 9f 9d bd
       -0.0703586 -0.014416607 -0.08576734 -0.07696503
000130 00 7b 68 3d 34 f9 5e 3d 7c 05 8f 3d 09 08 f5 bb
       0.056757927 0.054436877 0.06983468 -0.0074777645
000140 e7 8f 95 3d ec ae 7e bc e9 e0 8c 3b e4 b4 55 3d
       0.07302838 -0.015544634 0.0042992723 0.052174464
000150 b0 53 b9 bd 1c 67 90 bd 78 a5 4d 3d 6a a6 06 3d
       -0.09049165 -0.070509166 0.05020663 0.03287355
000160 4a ed 8b 3d e6 99 36 3b 5e 08 9b bd 89 67 a0 3c
       0.06832369 0.0027862727 -0.07569955 0.01958062
000170 c0 8b a8 3d 89 36 b3 3c 5f b8 6a 3d 72 e2 aa 3d
       0.0822978 0.02187659 0.057304736 0.08343972
000180 7c 80 34 bd 88 bf 1f bd 7e 2b b4 3c f8 f4 80 3c
       -0.044067845 -0.039001018 0.021993395 0.01574181
000190 2c 58 97 3d 32 19 44 bd 40 0e 9b 3d fe 5d 9d 3d
       0.07389864 -0.04787559 0.07571077 0.07683943
0001a0 b1 3d 82 bd 35 e2 33 3d 2f e4 90 bc 7d 2a 16 3c
       -0.06359423 0.0439169 -0.017686931 0.009165403
0001b0 89 49 a2 bd 11 67 63 bd a7 1c 63 3d 99 50 83 bc
       -0.07924182 -0.055518214 0.055447247 -0.016029643
0001c0 d9 71 b3 bd 04 8c d5 bc 16 a3 b0 3c 2c 07 2b bd
       -0.08761949 -0.026067741 0.02156214 -0.041754887
0001d0 17 ab 11 3c 81 17 2c 3b 41 46 79 3d b5 bf 05 bd
       0.008890889 0.0026259127 0.060858015 -0.03265353
0001e0 a8 86 be bd 03 65 11 3d 67 d0 20 3d 2f 9d fa bc
       -0.093030274 0.035496723 0.039261248 -0.03059253
0001f0 c5 1a 14 3d 6e d4 83 bd 0c a9 1a bd e0 40 c3 bc
       0.036158342 -0.06437002 -0.037758872 -0.023834646
000200 0a b3 02 bd c4 de 88 bd 2e ba 6d 3d dd 2b 02 bd
       -0.031909026 -0.06683114 0.058038883 -0.031780113
000210 7a 5b b2 bc 53 09 15 bd 80 1c 61 3d 27 3f 80 bd
       -0.021772135 -0.036385845 0.05495882 -0.06262045
000220 0a 6a 07 3d aa 3d 51 3d fa 68 3a bd 48 bb 9e bd
       0.03306011 0.051084198 -0.04551027 -0.07750565
000230 0e 4b 82 bd e6 f7 c9 bc ef 88 5c 3d 8e f5 4d bd
       -0.06361972 -0.02465434 0.053841528 -0.050283007
000240 39 fd 2e 3d a0 10 12 3d 43 59 76 bc 9a ad 62 bd
       0.04272196 0.035660386 -0.01503593 -0.05534134
000250 cb 4a 9d 3d 91 91 76 bd f6 33 2f 3a ac 19 43 3d
       0.07680281 -0.060197417 0.0006683463 0.047631904
000260 3e 1d 02 3c c1 64 6d 3d 0a 1d 84 3c 41 3c 7e bd
       0.007941542 0.057957415 0.016127128 -0.06206918
000270 3b d6 af 3c ed 10 32 bd 29 83 ad bd b9 44 20 3b
       0.021464458 -0.043473173 -0.084722824 0.0024455024
000280 63 8b 8c bd 42 77 86 3d 45 ee bc 3d 99 b6 a4 3d
       -0.068625234 0.065657154 0.09225134 0.0804264
000290 86 ee 64 bd 37 59 39 bd 95 06 50 3d 9f a3 30 bd
       -0.055891536 -0.045251098 0.050787527 -0.04312479
0002a0 95 37 75 3d 9c e0 61 3b
       0.05986746 0.0034466153

conv_list.0.bias f4 [170]
000000 15 82 99 3c 56 1d a6 bb c3 71 aa 3b 82 02 5d bc
       0.018738786 -0.005069415 0.0052015497 -0.013489367
000010 43 c8 7c bb a3 ac 4d bc 72 e9 0b 3d ac 31 3b ba
       -0.0038571514 -0.012553367 0.034158178 -0.00071408856
000020 9f 8d 96 bb bc 47 bd bb de 7c 22 3c f9 bb e6 3c
       -0.0045945193 -0.0057763737 0.009917466 0.028165804
000030 bd 0b ae 3c 16 f2 64 ba 0d ea ce 3a b5 a1 91 bb
       0.021245832 -0.00087335834 0.0015786305 -0.004444326
000040 33 d6 c5 3c 85 c4 c2 bc 27 2c 64 3b 93 58 c6 3a
       0.02414999 -0.023775348 0.0034816356 0.0015132598
000050 e5 37 86 bc 1b cb e4 bb 82 67 cd bb 7f 3b 80 3b
       -0.016384074 -0.00698222 -0.0062684426 0.0039133425
000060 f1 82 8a bc 4f cc 9e 3c ca 7b c6 3c 59 46 8e bc
       -0.01690814 0.019384531 0.02422895 -0.017367529
000070 6b 4c 80 bc a9 8f 28 bc 3c 77 4e bc f5 f4 4c 3c
       -0.015661439 -0.0102881575 -0.01260167 0.012509574
000080 5a b1 aa bb 72 6f 0b 3c 01 21 e9 bc 2b 0b 78 bc
       -0.0052091302 0.008510457 -0.02845812 -0.015139381
000090 fe 04 67 bc b4 d3 4c bc 7c 77 e2 3c f9 ab 0d 3b
       -0.014100311 -0.012501646 0.027644865 0.0021617396
0000a0 75 c5 90 bc f1 92 50 3c 8e 94 61 3c 95 39 72 3b
       -0.01767228 0.012730346 0.013768328 0.003696059
0000b0 49 d3 79 3b 30 54 98 3c f9 34 10 3b af d3 90 3b
       0.003812032 0.018594831 0.002200423 0.004419766
0000c0 d0 a4 9e 38 83 76 ce 3b 3f 33 a4 bb 96 3e 93 3c
       7.564726e-05 0.006300749 -0.005010992 0.01797418
0000d0 e1 aa 65 ba 27 72 e2 3c e3 e8 55 bc 94 7d ae bb
       -0.00087611197 0.027642323 -0.013056013 -0.0053250287
0000e0 2a 4d a7 bb 9c 61 f9 ba f3 8b 8c ba 33 dd a7 bc
       -0.005105634 -0.0019026282 -0.001072286 -0.020491218
0000f0 83 20 b5 bc 49 ce 6d 3c a6 21 37 3d b9 30 25 bc
       -0.02211023 0.014514514 0.044709824 -0.010082417
000100 f3 6f cc bc cd 92 fc bb 6d 94 66 bb 0a ec b0 3c
       -0.024955725 -0.0077079297 -0.0035183684 0.021596927
000110 f2 05 b1 bc 4d bb f6 3c e1 0c 27 ba 5c 36 9f 3b
       -0.02160928 0.030118609 -0.00063724635 0.004858775
000120 c7 8a b5 bb 44 ee c6 bb d5 56 a0 bc c1 81 ec bc
       -0.005540225 -0.006070884 -0.019572655 -0.028870465
000130 3b d4 f0 3b a9 64 63 bc b3 98 d6 3b 99 03 c9 3c
       0.0073495186 -0.01387898 0.006548965 0.024537848
000140 ec bb de 3c 34 53 42 3c 3e a5 1e bc 8a 27 33 3c
       0.027189218 0.0118606575 -0.0096829515 0.01093472
000150 f2 23 84 3b da 07 50 3c 4b a5 c4 bc c8 32 a7 bb
       0.0040326053 0.012697184 -0.0240046 -0.005102489
000160 2d cd 63 bc cb c5 5e 3c ee 3f de 3b e5 42 76 bc
       -0.013903898 0.013596962 0.0067825234 -0.015030597
000170 0e d8 e1 bc 1e c7 46 3c 0e be 2c bd e2 32 09 bc
       -0.027568843 0.012132434 -0.042173438 -0.008373948
000180 08 9e 31 3c ed b9 f9 bb 6a 51 d4 3a 5b 76 0c bc
       0.0108409 -0.007621041 0.001619858 -0.00857314
000190 af 18 e0 3b d1 67 cc bc 8e 81 5a 3c 66 ab a5 bb
       0.00683888 -0.024951847 0.013336552 -0.0050558327
0001a0 cc 28 35 bb 4c 01 e0 bc 70 28 98 bc e9 2d 20 ba
       -0.0027642725 -0.027344368 -0.01857397 -0.0006110357
0001b0 9e d5 71 3b 93 04 db 3b 2d 4e 11 bd 12 4a 8c bc
       0.0036901007 0.006683895 -0.035474945 -0.017125163
0001c0 9c 32 68 3c 09 73 fd 3b 6b 22 91 3c db 70 86 bb
       0.014172222 0.0077346605 0.017716607 -0.004102809
0001d0 07 ce 94 bc 7f 80 93 b8 fd 8a b0 3b 04 d6 ad bc
       -0.018164648 -7.0334405e-05 0.0053876624 -0.021220215
0001e0 62 30 bd 38 f0 fe 6c bc a1 e4 67 bb 14 84 2e 3b
       9.021234e-05 -0.014465079 -0.0035384076 0.0026629018
0001f0 e3 6f 61 ba f7 e7 03 3a a2 eb f8 ba 74 87 05 3c
       -0.0008599741 0.0005031819 -0.0018991122 0.00814997
000200 b2 8a 97 3a a9 ad 89 3c 31 e5 f4 bb ff 3a 67 bc
       0.001156172 0.01680644 -0.007473611 -0.014113187
000210 97 9e 60 bc 77 f3 2a 3c 35 56 07 bc e7 8a ee 3c
       -0.013709686 0.010434023 -0.008260299 0.029118968
000220 aa c6 ab 3c 87 5a 84 bc 17 24 44 3c 5d 09 4a 3c
       0.020968754 -0.016156448 0.011971495 0.012331334
000230 9b cb dc bc 02 57 61 ba 1b 20 80 3c 94 82 fe 3c
       -0.026952555 -0.0008596034 0.01564031 0.031068124
000240 d2 8b 82 bb 53 45 fd 3c 16 d0 a6 3c dd 4e 1d 3c
       -0.003983953 0.030916845 0.020362895 0.009601322
000250 2e 54 fd bb 57 1a bc 3b 80 36 85 bb 82 3b 1f 3c
       -0.0077309823 0.0057404446 -0.004065335 0.009718778
000260 f7 5d fe ba df c5 63 3b 21 e8 cd ba 83 ee 96 3c
       -0.0019406666 0.0034755392 -0.0015709439 0.018424278
000270 78 ea 24 bc ad 3b 14 3c d2 03 2d 3c 65 38 80 3c
       -0.010065667 0.009047431 0.010559993 0.015651891
000280 5f 19 2d bd cc 91 1b bb d4 77 6f bb 8a bc 5b 3c
       -0.042260524 -0.0023738025 -0.003653993 0.01341165
000290 2c 5f 38 bc b4 65 54 3c 6f a0 7f bc 1a 1f 62 3c
       -0.0112531595 0.012963701 -0.015602215 0.0138013605
0002a0 86 a5 9f 3c 6f ff 60 3c
       0.019488107 0.013732775

conv_list.0.lin.weight f4 [170, 170]
000000 5e e4 db 3d 1f 13 cd bd 70 b5 63 3d 71 0a a2 3d
       0.10736917 -0.10013413 0.055592954 0.07912148
000010 c5 db 10 3c ad 74 f5 bd 27 c3 e3 bd 4d da 12 3d
       0.00884146 -0.11985145 -0.11121207 0.03585272
000020 72 d7 0b be 9d f2 ea 3d 99 93 9a bd 56 d9 48 bd
       -0.13656405 0.11472056 -0.07547683 -0.049035393
000030 d6 b1 23 3d 9b aa cd bc c6 6a 99 bd 7e 95 cf 3d
       0.03996452 -0.025105765 -0.074910685 0.10135935
000040 2f 94 4b bd b4 96 33 bd bb 4e 8e 3d 04 4c a0 bd
       -0.049701866 -0.043844894 0.069486104 -0.07826999
000050 6a c8 07 3e b1 7d a7 bd bc 96 e3 3d e1 25 f7 bc
       0.13260046 -0.081782706 0.11112735 -0.03016943
000060 57 29 95 bd 5b df a2 3d c3 c2 66 bc 1e ed c1 bd
       -0.072832756 0.07952758 -0.014084521 -0.09469055
000070 ca 60 9f bd 0d 41 3c 3d 1f da 82 bd b7 1f 85 bd
       -0.07782133 0.045960475 -0.063892595 -0.0650019
000080 3f 2b 24 bd e4 8d 82 bd f3 84 d3 bc 4b 78 04 3d
       -0.040080305 -0.0637472 -0.025820231 0.032341283
000090 62 14 d5 3d 30 99 83 bd b2 92 ba 3d 3e 8a 53 bd
       0.10404278 -0.064257026 0.09110011 -0.05164551
0000a0 f1 11 e8 3d 4d 34 a8 3d 58 bd 99 bd 47 98 87 3d
       0.11331547 0.082131006 -0.075068176 0.066208415
0000b0 29 34 05 bd 0b 22 07 3d ef f5 4d 3d 6e af 71 bd
       -0.032520447 0.03299145 0.05028337 -0.059005193
0000c0 32 52 cc bc cc 74 9f 3c c5 57 40 3d 2a ff 70 bc
       -0.024941538 0.019464873 0.046958704 -0.014709273
0000d0 84 ef fa 3d 78 bd 1a 3d be 10 ca bd cb a5 4e 3d
       0.12252715 0.037778348 -0.098664746 0.05045108
0000e0 d5 3f 4a 3d 9b b5 08 3e 29 8e f7 bd 06 3d 6b 3b
       0.04937728 0.13350527 -0.12087662 0.0035894527
0000f0 d1 cc cf 3d 65 bb e8 bd d8 38 b5 bd f1 7f 27 bc
       0.101464875 -0.11363868 -0.08848733 -0.010223375
000100 8f 89 09 be 10 ba fb 3c d5 b5 04 3e 0e b3 ee 3d
       -0.1343138 0.03072837 0.12959988 0.11655246
000110 49 e5 49 3a 93 93 cc 39 93 84 ab bc de 9d 99 bd
       0.00077017077 0.00039019863 -0.02093724 -0.07500814
000120 5b f7 4b 3d a9 28 f8 3d 7d e9 20 3c 5e bc 98 3d
       0.049796443 0.1211713 0.009821293 0.07457803
000130 48 dc 01 3e 3b 91 95 bc ee ed 8c 3d 45 57 02 3e
       0.12681687 -0.018257728 0.06881319 0.12728603
000140 72 74 0c 3d 39 01 c2 ba 04 0c f0 bb 03 71 d5 bd
       0.03429074 -0.001480139 -0.007325651 -0.10421946
000150 ed 03 e1 bc 8a f1 15 3e c9 4e 96 bd ad 0d fc 3d
       -0.027467692 0.14642921 -0.07339246 0.12307296
000160 c4 38 bd 3d d1 19 b7 3d 7e 98 cc 3d dc 15 05 be
       0.09239343 0.08940471 0.09990023 -0.1299662
000170 e6 6e 9b bd 81 c7 04 be 63 61 26 bc b1 c2 65 bc
       -0.075895116 -0.1296673 -0.010155055 -0.014023469
000180 e3 55 0a 3d ad 18 50 b8 d6 2a 89 bd d8 69 9b bd
       0.033773314 -4.9614046e-05 -0.066976234 -0.075885475
000190 c2 ca f3 3d 97 8e ac ba 4a d0 8b bd 1f 43 42 3c
       0.11903907 -0.0013165054 -0.06826837 0.011856823
0001a0 f5 cd 57 bc 6a ff ba 3d 48 14 ce 3c 57 34 a2 bb
       -0.013171663 0.091307476 0.025156155 -0.004950087
0001b0 90 fc d9 bd c6 4d 72 3d 2c 37 05 3e 56 45 d8 bb
       -0.106438756 0.0591562 0.13009328 -0.0066000624
0001c0 bd e2 fe 3d 22 b2 be 3d e1 2a a2 3d d9 64 92 3d
       0.12445591 0.0931132 0.07918335 0.071481414
0001d0 1e 64 b4 bd 12 81 ad 3d ce ed ec 3d 92 e0 42 bd
       -0.08808158 0.08471884 0.11568795 -0.04757745
0001e0 70 03 0f bc c0 9e 9f 3d 1a 7d 5a 3d 24 27 94 3b
       -0.008728847 0.07793951 0.053341962 0.0045212675
0001f0 ce df 85 bc 36 46 bc bb 2c 90 76 bd 0a a9 82 3d
       -0.01634207 -0.0057456745 -0.060196087 0.06379898
000200 cb 82 b0 3d ef 66 21 3d 0d 6d f7 bc 9c 7a 76 3d
       0.08618697 0.039404806 -0.030203367 0.060175523
000210 c1 68 74 3d 49 07 ea bd 89 9b 40 bd 62 32 80 bd
       0.059670214 -0.11427171 -0.04702333 -0.0625961
000220 4b eb b1 3d c3 04 76 3c f8 89 08 3d dd c3 fc bd
       0.08687457 0.015015784 0.033334702 -0.123420455
000230 7b 6e 62 bd d7 22 0c 3c 33 7b 05 be 9c 0d 2c be
       -0.055281144 0.008553228 -0.13035278 -0.16802067
000240 e9 19 78 3d 43 ea 76 bd ed 2e 05 3d dd 6e 0f 3c
       0.060571585 -0.060282003 0.032515455 0.008754459
000250 2c be ef 3c b8 1b f5 bd 69 31 80 3c 1c a2 ce bb
       0.029265486 -0.119681776 0.01564856 -0.006305946
000260 e9 ce 00 bd 41 ed f0 3c 87 b1 05 3e d5 47 c2 3d
       -0.031447325 0.029410006 0.13056003 0.09486357
000270 ba ef 08 bc f0 e6 b6 bc bb ae a6 3d aa 46 69 3d
       -0.0083579365 -0.022326916 0.08138796 0.056952156
000280 65 b0 df bb 1b a8 d8 bd 4f 5e 94 bd 93 d3 d5 3d
       -0.006826448 -0.105789386 -0.072445504 0.10440745
000290 8e f5 eb bb d6 0f 4f bc 97 bb e4 3d a4 6f a6 3d
       -0.0072009033 -0.012638053 0.111685924 0.081267625
0002a0 b3 3e ea bd d0 78 17 3d c1 fb 9d 3d 0f 80 7b bd
       -0.1143774 0.03698045 0.07714034 -0.061401423
0002b0 ee 98 69 3d 90 91 6f 3c 74 48 09 3c 08 9d 44 bb
       0.05703061 0.014622107 0.008379091 -0.0030000824
0002c0 19 d5 c5 3d 7f 12 9c bd 11 2f 1e bb f7 95 86 bd
       0.09659786 -0.07620715 -0.002413694 -0.06571572
0002d0 66 ff d3 3d 59 50 a4 bd 04 3a d0 bc df 96 5b bd
       0.10351448 -0.080231376 -0.025418289 -0.05361068
0002e0 51 44 7f bd c6 03 d2 3d b4 a4 e2 3d 68 a7 e9 3d
       -0.06232101 0.10254626 0.11066571 0.11408883
0002f0 72 c6 05 3e 5c f0 a6 bd 7c 9b b6 3c 5e 17 27 bd
       0.13063982 -0.08151314 0.022290938 -0.04079377
000300 47 d1 7e 3d 8d d1 ca 3d 56 6b 88 bc b1 8b 25 3d
       0.0622113 0.0990325 -0.016652744 0.040416423
000310 ce b6 02 bd 90 3c a6 3d 9a 57 c2 3d d5 e0 f2 3d
       -0.031912617 0.0811702 0.09489365 0.118592896
000320 78 e3 03 bd a3 59 62 bd 9d d5 ed 3d a0 b9 9d 3d
       -0.032199353 -0.055261265 0.11613009 0.07701421
000330 63 d6 fe 3d 8d 11 d8 3d d8 55 b1 3c d2 c4 f4 bc
       0.12443235 0.105502225 0.021647379 -0.029879007
000340 24 c1 e7 bd ae c0 03 be c6 8b 03 3e 0f 3d 02 3e
       -0.113161355 -0.1286647 0.12846288 0.12718605
000350 e9 08 21 3d 23 0c df 3d c2 54 18 3d 91 0e d7 bd
       0.039315138 0.10890987 0.037190206 -0.10500825
000360 55 ff 8e 3d ae 8b 3a bd 51 47 9f 3b eb 67 68 bd
       0.069822945 -0.045543365 0.0048607965 -0.05673973
000370 3a 90 bb 3d 06 6f 05 3d 1a 9f e9 3c ff d5 82 3d
       0.091583684 0.032576583 0.028518248 0.06388473
000380 35 b0 4a 3d 8a b8 b5 3d 6d 47 78 3d 4e db fe b9
       0.04948445 0.08873089 0.060614992 -0.0004861005
000390 34 db ea 3d 2d 5f b2 bc d9 40 dc bc e8 08 65 bd
       0.11467591 -0.021773899 -0.02688639 -0.055916697
0003a0 34 5c 6b ba 15 80 2b bd 69 74 8d bd 3e bc 14 bd
       -0.0008978278 -0.041870195 -0.06906969 -0.036312334
0003b0 4a 21 f5 3b fd 6b 6c 3d ae f5 9f bd a9 5b 97 bd
       0.007480775 0.057720173 -0.078105316 -0.0739053
0003c0 4f f6 76 3d 3c aa ba bd 27 b2 a0 3d 51 a1 e7 3c
       0.060293492 -0.09114501 0.0784648 0.028275164
0003d0 1c d2 3b bd ba de 90 3d 1c 46 bb bd 66 4e 1d 3b
       -0.045854673 0.07073732 -0.09144232 0.0024003028
0003e0 2a f5 a5 bd 93 76 c1 3d 70 23 74 bd ff 6d a8 3b
       -0.08103402 0.09446444 -0.05960411 0.0051400657
0003f0 95 07 f0 3c 18 5a bd 3d f2 8e 80 bd 82 11 a8 bd
       0.02930049 0.092457 -0.06277265 -0.08206464

bn_list.0.weight f4 [170]
000000 6e 48 7c 3f 9c e7 7b 3f 23 47 7c 3f e0 65 7b 3f
       0.9854802 0.9840028 0.98546046 0.98202324
000010 51 5a 7c 3f 95 00 7a 3f bc 70 7c 3f ee 04 80 3f
       0.9857531 0.9765714 0.9860952 1.0001504
000020 d9 0e 80 3f 20 e7 79 3f fd ed 7f 3f cb 1a 7c 3f
       1.0004531 0.97618294 0.99972516 0.9847838
000030 38 ed 7c 3f ab 8a 7d 3f 3a 05 7d 3f 79 22 81 3f
       0.9879947 0.99039716 0.988361 1.0088645
000040 ee 18 7b 3f 67 8c 7e 3f 99 3a 80 3f 40 c4 79 3f
       0.98084915 0.99432987 1.0017883 0.9756508
000050 93 24 7a 3f d5 4e 80 3f 91 21 7a 3f b1 a2 80 3f
       0.9771206 1.0024058 0.9770747 1.004965
000060 35 33 81 3f 1d ff 7b 3f 49 10 7c 3f 58 7a 77 3f
       1.0093752 0.98436147 0.9846235 0.96671057
000070 26 33 7c 3f 92 18 80 3f 54 ed 81 3f be 89 7d 3f
       0.98515546 1.0007498 1.0150552 0.990383
000080 e5 dd 78 3f 8a 25 7e 3f ed 76 7b 3f b9 3a 80 3f
       0.97213584 0.9927603 0.9822834 1.0017921
000090 74 1c 7c 3f 29 a4 7d 3f b9 07 80 3f 3f 76 7e 3f
       0.98480916 0.99078614 1.0002357 0.9939918
0000a0 03 67 83 3f ab 6c 7c 3f 80 61 7d 3f 86 8e 7d 3f
       1.0265812 0.98603314 0.989769 0.990456
0000b0 54 87 7b 3f 7c 0b 7f 3f 85 fe 75 3f d7 80 7e 3f
       0.9825337 0.996269 0.9609149 0.99415344
0000c0 7c 56 80 3f be 74 7a 3f e6 c8 7b 3f c9 42 7a 3f
       1.0026393 0.97834384 0.9835342 0.97758156
0000d0 a0 41 7f 3f 3b cd 7f 3f a8 93 7c 3f 76 48 7c 3f
       0.9970951 0.9992253 0.98662806 0.98548067
0000e0 bc 47 7e 3f 09 0b 7b 3f 25 0f 79 3f fa a2 75 3f
       0.9932821 0.98063713 0.97288734 0.9595181
0000f0 87 5e 79 3f 2e 98 7a 3f ad 78 7a 3f 8d e2 7d 3f
       0.9740986 0.9788846 0.97840387 0.99173814
000100 6b 73 7e 3f bb b5 7b 3f e1 31 7b 3f eb ed 7c 3f
       0.99394864 0.98324174 0.98122984 0.98800534
000110 8f 14 77 3f 03 26 79 3f c6 54 77 3f ce 00 7a 3f
       0.96515745 0.97323626 0.9661373 0.9765748
000120 db 62 76 3f dc fd 80 3f 40 35 7c 3f 12 44 7e 3f
       0.9624459 1.0077472 0.98518753 0.9932262
000130 7c 43 7d 3f 47 3c 81 3f d3 74 74 3f 7c eb 7e 3f
       0.989311 1.009652 0.9549076 0.9957807
000140 4b 66 81 3f 93 0b 7d 3f 0e 84 80 3f 2f 2d 76 3f
       1.0109342 0.98845786 1.00403 0.96162695
000150 56 a4 7d 3f b4 97 7b 3f a8 2b 7d 3f 61 14 7b 3f
       0.9907888 0.98278356 0.9889474 0.9807797
000160 7a cc 7c 3f 3d 2e 7f 3f f7 8a 76 3f 21 bc 78 3f
       0.98749506 0.9967993 0.96305794 0.9716206
000170 0e 73 87 3f ac df 80 3f a4 7a 7f 3f 2e 20 78 3f
       1.0581987 1.0068259 0.9979651 0.969241
000180 93 5f 79 3f 12 17 7e 3f 90 d7 7a 3f 92 da 79 3f
       0.9741146 0.9925395 0.9798517 0.97599137
000190 d3 17 81 3f 45 e4 7c 3f f8 f5 7b 3f 1d d8 81 3f
       1.0085396 0.9878581 0.98422194 1.0144078
0001a0 90 c0 7a 3f 22 ca 7d 3f 99 b3 7c 3f cd 2f 7e 3f
       0.9795008 0.99136555 0.98711544 0.9929169
0001b0 e9 28 7b 3f d5 e5 78 3f 0d 08 80 3f ac 15 7f 3f
       0.981093 0.97225696 1.0002457 0.99642444
0001c0 54 c6 7d 3f aa 4d 81 3f 9a 82 7a 3f 52 e8 7a 3f
       0.9913075 1.0101826 0.9785553 0.9801074
0001d0 92 40 7c 3f 8d 3a 7b 3f 31 03 7f 3f 38 a4 7c 3f
       0.98536026 0.98136216 0.99614245 0.9868808
0001e0 9c 21 83 3f 3b 59 7a 3f 89 e8 7e 3f 34 7d 7b 3f
       1.0244632 0.97792405 0.9957357 0.9823792
0001f0 e9 3b 7f 3f 18 77 7d 3f c2 a2 7b 3f 57 4f 7d 3f
       0.9970079 0.9900985 0.98295224 0.9894919
000200 9e f3 7d 3f 35 c4 7f 3f 66 62 7e 3f ac ea 7f 3f
       0.99199855 0.99908763 0.99368894 0.99967456
000210 ae 5b 7e 3f f8 6b 78 3f 73 06 83 3f 2b bc 7b 3f
       0.9935864 0.9703975 1.0236343 0.98333997
000220 c4 15 78 3f 10 15 77 3f af af 7e 3f 05 32 7b 3f
       0.9690821 0.96516514 0.9948682 0.981232
000230 b6 ad 7b 3f 2a 86 79 3f 4e 1c 79 3f 2e 9c 76 3f
       0.98311937 0.97470343 0.97308815 0.9633206
000240 0f 4c 7b 3f 91 8d 80 3f 0a 17 7e 3f 37 99 82 3f
       0.9816293 1.0043203 0.99253905 1.0203007
000250 ae a6 7d 3f ce 30 76 3f 5e ae 7c 3f 41 43 7b 3f
       0.9908246 0.9616822 0.98703563 0.98149496
000260 d7 1e 7d 3f 99 9e 7b 3f db 90 7e 3f b7 82 7c 3f
       0.9887518 0.98288876 0.9943978 0.98636955
000270 21 cd 7a 3f ba a3 84 3f 66 d2 7c 3f a9 30 7d 3f
       0.9796925 1.0362465 0.9875854 0.98902375
000280 5d f9 76 3f 0a ae 81 3f 1a c9 77 3f 13 7e 7a 3f
       0.9647425 1.0131238 0.9679123 0.97848624
000290 ef 30 7f 3f 38 12 7c 3f 35 27 7d 3f 6a 86 7c 3f
       0.9968404 0.984653 0.9888795 0.986426
0002a0 bc a5 7d 3f 57 21 76 3f
       0.99081016 0.9614462

bn_list.0.bias f4 [170]
000000 83 0c ce 3c 7a 1c 5b bd cc fe 80 3b 79 80 26 3d
       0.02515245 -0.053493954 0.003936624 0.040649865
000010 c4 7c b8 3c c6 7c 13 3d e4 ca a3 bb 9f 09 3e 3d
       0.02252043 0.036007665 -0.0049985517 0.046395894
000020 98 79 b8 bc 2d ae 6c 3d b9 b4 56 3d fe f0 89 bd
       -0.022518918 0.057783294 0.052418444 -0.06735419
000030 2c 3c 75 bd a3 65 93 bc b0 60 85 bd 95 82 5e 3c
       -0.059871837 -0.0179928 -0.06512582 0.013580938
000040 89 1a 5a bd 12 ad f5 bc fd 85 f4 bb 5b cc 81 3c
       -0.053247962 -0.029989753 -0.0074622617 0.015844515
000050 fa 07 ec bc aa 2d 83 bc 89 a3 36 bd 6e fc a7 3d
       -0.028812397 -0.016012985 -0.044589553 0.08202444
000060 f4 0f 38 3c 31 73 a6 bd 9e b8 58 bd 7e dc dd 3c
       0.011234272 -0.0812744 -0.05291044 0.027082678
000070 83 75 22 bd 81 e4 72 bd 9d ec 81 3c 04 ec 3c 3d
       -0.03966285 -0.05929995 0.015859896 0.04612352
000080 17 56 22 3c ff 30 8b bd 5b 26 44 3d ac 93 20 3d
       0.009908221 -0.06796455 0.04788814 0.03920333
000090 d1 d0 8e bd 52 5d 80 3d b1 f5 d1 bc d5 b5 3a 3d
       -0.06973422 0.062677994 -0.02562985 0.045583565
0000a0 1c cd a3 3b 3f d6 f8 bc 51 57 4c 3c 27 b9 f8 bc
       0.004998816 -0.030375598 0.01247199 -0.030361725
0000b0 d3 c8 4a 3d ab db 67 3d 52 50 ea 3c 9a 2a 2e bd
       0.049507927 0.056605976 0.028602753 -0.042521097
0000c0 24 e3 66 3d ea b4 80 bd cd c3 85 bd 24 0f 1c bd
       0.056368962 -0.062845066 -0.06531487 -0.038100377
0000d0 a5 5f 52 bd 0a 5b 11 3d 91 e6 62 3d 54 34 41 3d
       -0.051360745 0.035487212 0.055395667 0.047169045
0000e0 51 b7 8b 3c cf 34 d1 bc 1a c1 33 3b 71 2b 9f bd
       0.017055186 -0.025537876 0.002742833 -0.07771958
0000f0 a9 8b 3d bd eb 8b 8b bd 5e 42 f1 bc fc fe 99 3d
       -0.04627577 -0.068137966 -0.029450592 0.075193375
000100 6f 61 59 bd e4 61 0f bd c9 76 20 bd 49 94 80 3d
       -0.053071436 -0.035005465 -0.039175782 0.06278283
000110 dc e4 43 bd 65 2d 98 3c ab a4 39 3c d6 ac a6 3a
       -0.04782568 0.018576333 0.011330764 0.0012716304
000120 43 db 99 3b 6f 87 68 bc 33 19 36 bc c3 32 9b 3d
       0.0046953275 -0.014192446 -0.011114406 0.075780414
000130 67 4c 8b 3d 30 a6 98 3d e2 57 38 bd a0 ab 86 3d
       0.06801682 0.07453573 -0.045005687 0.065757036
000140 4c 79 b4 3d 40 de 5f bd f2 91 83 bd 3f 46 2b 3d
       0.08812198 -0.054655313 -0.06424321 0.04181504
000150 a6 5c 08 3d 20 b5 6e 3b 69 61 6f 3d e3 11 97 bd
       0.03329148 0.0036423877 0.058442507 -0.073764585
000160 79 61 11 3d 1c ed 77 3d 81 c3 01 3d 65 9f 1f 3d
       0.035493348 0.06052886 0.031680588 0.03897037
000170 09 c0 bf bc 19 89 b0 bd a4 b4 82 3d d8 dc 27 bd
       -0.023407 -0.08619899 0.06382111 -0.040982097
000180 82 4c b0 3c de 64 1a 3c 86 17 7d 3d 3e 2f 98 bd
       0.021520857 0.009423463 0.06179001 -0.07430886
000190 cf 50 99 3d 80 db ef 3c a2 f5 e1 bc c0 2b f2 bc
       0.07486116 0.02927947 -0.027582947 -0.029561877
0001a0 5c e2 85 3c 54 2d 88 bd de bf 4d bd f8 39 3e 3b
       0.016343288 -0.06649271 -0.050231807 0.0029026251
0001b0 9e a5 7e 3d b8 46 e0 3c 8f f3 94 3d 95 67 4b bd
       0.062169664 0.027377471 0.072730176 -0.04965933
0001c0 18 3f 86 3c 00 6d 2a bc 1a dd 52 bd 58 73 68 3d
       0.016387507 -0.010401964 -0.05148039 0.056750625
0001d0 25 f5 4a bd 3a 1e bf bc 71 a6 8b 3d 93 de 1e 3d
       -0.049550194 -0.023329843 0.068188556 0.038786482
0001e0 dd 22 34 3d ac c6 65 bd 76 23 87 ba 25 0c 64 bd
       0.04397856 -0.05609767 -0.0010310251 -0.055675644
0001f0 2b 31 92 3d 9a eb 2e 3d e5 5b 58 bd ee 52 10 3d
       0.07138284 0.042705156 -0.052822012 0.035235338
000200 43 87 55 bd e2 d5 63 bd cc 2c ad bb f4 2b 83 bd
       -0.05213095 -0.055623896 -0.005284881 -0.06404868
000210 47 ba a7 3c 62 ed 28 3d 5e 3a 97 3c fd 4a 8a 3d
       0.020474566 0.04124201 0.018460449 0.06752584
000220 3b 29 ce bb fc c8 a4 bc 9e 89 94 3d 94 96 2b bd
       -0.006291536 -0.020115368 0.07252811 -0.04189165
000230 c6 9b 91 bd 05 12 cf ba d3 0b 70 3d c7 0c a9 3b
       -0.071097896 -0.0015798217 0.058605026 0.005158994
000240 00 1d 86 3d 61 43 42 bd f8 af 0c 3d c2 77 2f bc
       0.065485 -0.04742754 0.034347504 -0.010709705
000250 57 90 82 3d b4 6e 8f bd 8e 46 4f bd d0 00 a3 bc
       0.06375187 -0.07003537 -0.050604396 -0.019897848
000260 65 e9 bf bc 6c c8 a7 bc 92 52 0d bd 2a 59 a1 3d
       -0.02342672 -0.02048131 -0.034502573 0.07878335
000270 33 ea 4d bd 7b 3d 09 bc 02 4b 6f bd b2 53 5c bd
       -0.050272178 -0.0083764745 -0.058421142 -0.053790756
000280 2d 5a dd bc 44 22 04 bc f6 c8 4c 3d d6 ab 65 bd
       -0.027020538 -0.00806481 0.04999634 -0.05607208
000290 d9 cc 59 3c 7b 85 81 3d f8 31 46 bd 18 e6 e8 3c
       0.013293468 0.063242875 -0.048387498 0.02843003
0002a0 db 00 dc bc 58 05 00 bd
       -0.026855877 -0.031255096

bn_list.0.running_mean f4 [170]
000000 96 74 8d 3d 28 11 60 bd 93 ca 29 bd 1d 68 a6 bd
       0.06907003 -0.05470386 -0.041452955 -0.08125327
000010 12 6f 59 3d 11 a9 33 3d d6 98 ee 3d ba a4 08 bd
       0.05308444 0.043862406 0.11650245 -0.03336022
000020 ec 50 23 3d 47 63 cd bd e6 ff b1 3d e9 4e 6a bd
       0.039872095 -0.10028701 0.08691387 -0.05720416
000030 f9 66 0e 3e e9 c4 d2 3d 04 49 a6 3d 3f 0e f0 3b
       0.13906468 0.10291464 0.081193954 0.007325917
000040 ac 01 6b 3c 07 34 08 3d 1e f5 26 3c 98 6c 83 bc
       0.01434366 0.033252742 0.010190276 -0.016042992
000050 c1 5e b4 bd 6a 46 73 3c 47 0b 08 be f7 73 b8 3b
       -0.088071354 0.014848331 -0.13285552 0.0056290585
000060 10 84 01 bc a4 fd e1 3d 34 4c 80 bd 6a 82 59 3d
       -0.007905021 0.11034706 -0.062645346 0.05310289
000070 4d 05 98 3d 8f 29 64 3d 66 ef 6b bb 2b 8e cf bd
       0.07422886 0.055703696 -0.0036000847 -0.10134538
000080 f9 36 42 bd d4 dc d2 3d d8 84 3e 3d 95 0f 6d 3d
       -0.047415707 0.10296026 0.04651341 0.05787619
000090 b2 e3 e4 3d 0d b1 b9 bd c4 85 00 3d 62 9c 95 bd
       0.11176242 -0.09066973 0.03137757 -0.07305218
0000a0 93 8b 05 bc 99 6e 01 3e 2a f0 88 3d e0 f7 41 3c
       -0.008150953 0.12639846 0.06686433 0.011838883
0000b0 e5 ff a9 bd c5 6c 2e 3d c5 e4 e0 3b 3b 52 2e bc
       -0.08300761 0.0425842 0.006863209 -0.010639722
0000c0 53 cc ac 3c 4b 67 2f 3e 85 f4 9d bd 82 be ef bd
       0.021093523 0.17129247 -0.07712654 -0.11706258
0000d0 9c 02 3e 3d 54 2f 1b 3d b5 d9 a2 bd b2 e4 15 be
       0.046389207 0.037886932 -0.079516806 -0.14638022
0000e0 c6 96 c7 3d f3 f4 e9 bd 20 f5 82 bd b5 9f f8 bd
       0.097455546 -0.114236735 -0.0639441 -0.12139837
0000f0 e6 cd 06 3d 37 1c 06 bc d8 a5 56 3d 4a b2 bd bd
       0.032911204 -0.008185438 0.052404255 -0.092625216
000100 fe 2f d7 3d 7f 1e a2 3d 1c 76 8d 3d 0d a0 8e bd
       0.10507201 0.07915973 0.06907293 -0.06964121
000110 1e cb 80 bd cb aa 83 3d 38 2e 08 bd ec 89 10 3d
       -0.062887415 0.064290605 -0.033247203 0.035287783
000120 5c ee b9 bd 14 3e b4 3b 4b 60 1b be 14 01 db bd
       -0.090786666 0.0055005644 -0.15173452 -0.10693565
000130 05 03 99 bd d4 09 5c bb f8 55 1f be db 18 34 3d
       -0.07471279 -0.0033575194 -0.15560138 0.043969017
000140 3a 8d 13 3d d1 c8 1c 3e bf fd 00 3e 72 13 79 bd
       0.036023356 0.1531098 0.12596796 -0.06080956
000150 89 90 72 3d 17 42 14 be 96 9d f9 bd 2f ee f1 bd
       0.05921987 -0.14478336 -0.1218826 -0.11813008
000160 4f 61 55 3d 72 83 89 bd a7 9f e2 bd fb 4e 39 be
       0.052094754 -0.06714524 -0.110656075 -0.18096535
000170 a4 32 a2 bc fe 6c 4a 3d 07 00 8f bc 99 5a b6 bd
       -0.019799538 0.04942035 -0.017456068 -0.08903999
000180 ef 09 d1 3c a9 2d 7b 3d 26 e5 9e bd 9e 85 d2 3d
       0.025517432 0.06132284 -0.0775855 0.10279392
000190 a9 76 c8 3c 9c 57 09 bd e1 e6 cc bc 0f 5e f2 bc
       0.024470644 -0.033530816 -0.025012435 -0.029585866
0001a0 6d e6 1a 3d 71 8c 50 3d bb 90 81 bd 43 ef 0d bd
       0.037817407 0.050915185 -0.06326433 -0.034652006
0001b0 04 63 fe bd 6e 16 66 3d eb ca 93 bd c0 c9 e3 3d
       -0.124212295 0.056173734 -0.07216438 0.11122465
0001c0 fc 00 ca 3d 47 7e 91 3c 62 c2 30 bd 64 bf 1c be
       0.09863469 0.017760409 -0.043154128 -0.15307385
0001d0 9e 22 4b 3d 44 0a e7 3b 20 06 6f bd 59 91 9c 3c
       0.04959356 0.0070507843 -0.05835545 0.019112276
0001e0 16 c7 c1 3b c2 7e 36 be 96 77 af bc 13 46 89 bd
       0.0059136255 -0.17821792 -0.021419328 -0.06702819
0001f0 d7 e8 52 3c 3e b0 24 be eb 03 a9 3d ca 5c 4d bc
       0.012872896 -0.16082856 0.082527004 -0.01253433
000200 29 54 1c 3d 66 14 07 3e 1e d8 af 3d a3 24 b2 3d
       0.0381662 0.13191375 0.08586143 0.08698394
000210 da b2 b7 3d 80 6d 0a bd 38 e0 aa bb 97 e5 63 bd
       0.0896966 -0.033795834 -0.0052147172 -0.055638876
000220 f6 bd c9 3c f4 b5 f0 bd 95 fc 86 bd aa ed c3 3d
       0.024626713 -0.11753455 -0.06591145 0.09566815
000230 46 a6 a8 bd 05 3b 3f 3c dd 92 01 be d9 fa f3 bc
       -0.08234839 0.011671786 -0.1265368 -0.0297827
000240 96 fb 08 be ac af fd 3d 8c ee 08 bd 0c f0 1d 3c
       -0.13377222 0.123870224 -0.03343062 0.009639751
000250 1a ff 8a bd 6c f9 b2 3d bf 7d f8 3d 41 b9 ff bd
       -0.06786938 0.0873898 0.12133359 -0.12486506
000260 b8 b5 74 3d 3e cf 91 3d a9 0e bf 3d db d4 2e bd
       0.059743613 0.071196064 0.09328968 -0.042683464
000270 7f a7 50 be 92 ed 82 3c 27 d4 64 bc f5 72 f8 3d
       -0.20376395 0.015982423 -0.013966597 0.12131301
000280 d7 f2 90 3d b5 9f 52 ba b6 19 95 bd f9 dd bc bd
       0.07077568 -0.00080346625 -0.072802946 -0.092220254
000290 24 c5 1b 3d 75 54 86 bd 30 57 cb 3d e4 82 fa 3d
       0.038029805 -0.06559078 0.09928739 0.12231997
0002a0 00 5c 4a 3d 43 d9 6b bd
       0.049404144 -0.057580244

bn_list.0.running_var f4 [170]
000000 a9 e5 04 3a 43 d5 45 39 2b 26 50 39 09 f8 e8 39
       0.00050696224 0.0001886683 0.00019850644 0.0004443529
000010 ed 7b 08 3a b9 33 bb 39 79 23 05 3a 6d 05 91 39
       0.00052064547 0.00035705956 0.0005078833 0.00027660598
000020 69 59 9a 39 32 9b 30 3a f9 7e 0a 3a 9e 26 37 3a
       0.00029439785 0.0006736993 0.00052832026 0.00069866504
000030 b2 36 66 3a e0 06 3e 3a 7c 6e cb 39 0c 3a 82 39
       0.0008781954 0.0007248949 0.00038801495 0.0002483878
000040 e2 6e 22 39 c1 7b 94 39 e3 04 d2 38 8d ea 57 39
       0.00015490831 0.00028320964 0.000100144905 0.00020591375
000050 e3 ea b2 39 06 36 b7 38 82 2e b6 3a db a7 bd 39
       0.0003412581 8.736183e-05 0.0013899358 0.0003617395
000060 03 bc 56 39 56 f7 12 3a 42 36 15 3a 1d 7d d4 39
       0.0002047867 0.0005606314 0.0005691984 0.00040529008
000070 3b 45 41 3a 27 aa ce 39 36 8b 11 38 27 2c 77 3a
       0.0007372682 0.00039418155 3.4700344e-05 0.00094288815
000080 04 55 5f 39 62 1d 11 3a 31 83 39 3a 08 96 24 3a
       0.00021298608 0.00055356894 0.0007076739 0.000627846
000090 4a 27 89 3a 7e 71 f3 39 29 0e e7 38 8c 8b 03 3a
       0.001046398 0.0004643313 0.00011017576 0.00050180475
0000a0 bc b1 86 39 ee 12 76 3a e3 b1 a4 39 80 a7 27 39
       0.00025690894 0.0009386976 0.00031413054 0.0001598876
0000b0 fe b1 46 3a 5e 31 01 3a 5a 87 91 39 9d 15 42 39
       0.00075796235 0.0004928316 0.000277574 0.00018509333
0000c0 df 9d 98 39 71 19 d9 3a 96 39 e2 39 d3 61 a3 3a
       0.00029109322 0.0016563368 0.00043148984 0.0012465067
0000d0 a8 2a 7c 39 48 60 ab 38 bb f0 bf 39 64 9e a6 3a
       0.00024048483 8.171849e-05 0.00036609717 0.0012711999
0000e0 6a b6 56 3a b3 b3 78 3a 03 47 f6 39 cc 31 44 3a
       0.0008190634 0.00094872265 0.00046973684 0.0007484227
0000f0 2e fa 86 39 bf 30 fe 38 34 29 38 39 9d 36 13 3a
       0.0002574487 0.000121207435 0.00017562957 0.0005615743
000100 78 37 86 3a 32 c1 03 3a 9c f0 fc 39 89 db 67 3a
       0.001023992 0.0005026042 0.00048244454 0.0008844664
000110 83 dc 53 39 f5 e0 11 39 71 4a 6d 39 9f c5 0c 39
       0.00020204675 0.0001391208 0.00022629813 0.0001342506
000120 77 c1 58 3a ef 24 df 38 33 f4 94 3a 8f e1 0d 3a
       0.00082685746 0.00010640348 0.0011364281 0.0005412334
000130 c8 95 02 3a b4 bf eb 39 30 d2 d5 3a 00 82 ef 39
       0.00049814256 0.00044965523 0.0016313251 0.0004568249
000140 e1 a6 df 39 06 49 a3 3a 18 c8 b0 3a 50 8d da 39
       0.0004265821 0.0012457676 0.0013487367 0.00041685486
000150 44 94 a8 39 de b4 e4 3a ab 7b 1b 3a be b4 84 3a
       0.00032153924 0.0017448922 0.0005931209 0.0010124666
000160 10 1a 1b 3a bd 26 24 3a 0c 25 6c 3a 9a 58 e7 3a
       0.00059166644 0.0006261876 0.0009008206 0.0017650307
000170 ff d5 fa 38 a9 6a 1a 39 1f 81 b7 39 59 33 f6 39
       0.00011960789 0.00014726318 0.00035000683 0.00046959033
000180 67 bb 67 39 ff 87 b8 39 6a e9 17 3a 9f 0e 69 3a
       0.0002209969 0.0003519654 0.0005794974 0.00088904233
000190 a3 5c f4 39 0f 80 9d 38 a2 eb 63 39 0d aa 04 39
       0.00046608326 7.510196e-05 0.00021736187 0.0001265185
0001a0 43 99 3c 39 f2 99 f2 39 a4 e6 e4 39 e8 b8 39 39
       0.00017986172 0.00046272535 0.0004365939 0.00017711858
0001b0 81 27 9e 3a a4 b8 97 39 a1 71 4b 39 ef 71 a7 3a
       0.0012066216 0.00028938532 0.00019401919 0.0012775044
0001c0 48 47 11 3a ae 10 00 39 f6 9a a1 39 de a0 c5 3a
       0.0005541933 0.00012213245 0.00030823768 0.0015077849
0001d0 c4 0b a7 39 05 f8 8a 38 22 ff a1 39 f8 de 4f 39
       0.00031861488 6.62655e-05 0.00030898402 0.0001982412
0001e0 ab 17 48 39 b5 b9 d4 3a cd 7b 42 39 07 a7 b4 39
       0.00019082303 0.0016229661 0.00018547401 0.0003445672
0001f0 13 21 24 3a d5 7b d9 3a 6f 47 0c 3a d5 6c 5d 39
       0.0006261032 0.0016592691 0.00053512206 0.00021116745
000200 71 3a 3f 39 c9 03 62 3a 4d f8 0d 3a ad c4 48 3a
       0.0001823695 0.000862178 0.0005415723 0.00076587015
000210 16 94 3c 3a a9 92 29 39 2a 60 42 39 14 35 23 3a
       0.00071936974 0.00016171731 0.00018537106 0.0006225866
000220 23 d6 7e 39 27 68 73 3a 03 fe f8 39 cc 29 03 3a
       0.000243031 0.0009285234 0.000474915 0.00050034816
000230 14 ea 62 39 7c a6 ad 38 54 8b b2 3a 76 0a 93 39
       0.0002164024 8.280293e-05 0.0013621845 0.0002804582
000240 15 30 90 3a 5e 17 0a 3a e9 99 49 39 dd 15 6d 38
       0.0011000658 0.0005267764 0.0001922619 5.6525565e-05
000250 7c 1e a9 39 b6 87 e1 39 9b 67 81 3a 85 b2 9d 3a
       0.00032256905 0.00043016457 0.0009872796 0.0012031352
000260 20 25 9b 39 7f 41 c3 39 cd 70 15 3a b4 fb d2 39
       0.00029591564 0.00037242097 0.00057007076 0.00040241855
000270 bc b2 1d 3b b5 2b fc 38 4f 18 46 39 dc e7 52 3a
       0.0024062833 0.000120244375 0.00018891807 0.0008045414
000280 53 6b 50 3a cc 71 1b 39 4d d2 f4 39 bd 80 79 3a
       0.0007950563 0.00014824345 0.00046695993 0.00095177797
000290 48 dc 6a 39 71 9f 15 3a 3e 84 5c 3a ca 14 5a 3a
       0.0002239804 0.00057076575 0.00084120396 0.0008319138
0002a0 c3 c4 10 39 4c 25 a3 39
       0.0001380621 0.0003111757

post_lin_list.0.weight f4 [40, 170]
000000 4d a8 05 bd a4 9c 6a 3d fb fa fc 3b 87 94 a0 bd
       -0.032631207 0.05727829 0.007720349 -0.07840829
000010 06 a8 84 3d 86 87 5f 3d 44 36 9d 3b 54 36 b6 bd
       0.064773604 0.054572605 0.0047977287 -0.08897081
000020 29 e5 c3 3b f8 44 69 bd 80 15 24 3c 0a 1f c9 3c
       0.0059782458 -0.05695054 0.010014892 0.024550933
000030 7a 1f 23 3d d6 5c 24 3d f2 e6 b4 ba 9b 1a 9c 3c
       0.03982494 0.040127598 -0.0013801737 0.019055655
000040 29 cf 23 bd f6 0f 3e 3b 63 d8 3e bc af d9 e2 bb
       -0.039992485 0.0029001213 -0.01164827 -0.0069229226
000050 b9 5e 35 bd 3c f3 de bb d8 6b 19 bd 0c c4 8c bc
       -0.044279788 -0.006803898 -0.037456363 -0.017183326
000060 f9 e2 1d 3b 55 fa 8c 3d c8 78 41 3d 39 ee 6a bd
       0.0024091585 0.068836845 0.047234327 -0.057356093
000070 b7 eb 8a 3d 7f f5 8b 3d 39 f1 13 bd 1c df 78 3c
       0.0678324 0.06833934 -0.03611872 0.015189912
000080 59 1e 3d 3d a2 2f 7f 3c 02 6d 69 3d 27 15 ad bc
       0.04617152 0.015575321 0.056988724 -0.02112825
000090 62 49 5d 3d 74 cf 1b bd f0 ec 73 3d 26 c5 47 bd
       0.05402506 -0.03803964 0.059552133 -0.048772
0000a0 2a ee 26 3c f8 a5 f8 bb f0 02 92 3d d0 7b 9d bc
       0.010188619 -0.0075881444 0.071294665 -0.019224077
0000b0 8b 41 58 3b 20 41 8d bd ca 01 c0 3c 86 cd c5 bb
       0.003299805 -0.06897187 0.023438353 -0.006036463
0000c0 55 ee 15 3d 85 48 d5 bb b4 8d 97 3c 5b 38 6b 3b
       0.036604244 -0.006508889 0.018500187 0.0035891745
0000d0 b0 f3 85 3d 8a 4b 50 bd 97 76 9b bd 8d d1 0c 3c
       0.0654062 -0.05085329 -0.075909786 0.008594883
0000e0 49 0f c9 3b 38 c9 31 3d de 8d c7 3c 75 ad b9 bb
       0.0061358553 0.043404788 0.02435964 -0.0056664296
0000f0 02 8b 01 bd 73 91 86 bd 50 6f 4f 3c 0b b0 99 bb
       -0.03162671 -0.06570711 0.012660816 -0.0046901754
000100 5d 50 54 3d cb 75 fa 3c 75 95 43 3d d4 a5 ba bc
       0.051834453 0.030573746 0.047749955 -0.022784151
000110 fa 9a 3c bd af 99 5a bd 5e ed 29 3d e4 b1 9a 3c
       -0.046046235 -0.05336922 0.041486137 0.018883653
000120 0f cd 57 bc 75 38 41 bd 8e 81 b9 bc 44 a6 92 3a
       -0.013171448 -0.047172982 -0.022644784 0.0011188467
000130 70 d9 c9 bc d5 e8 1e bd a2 f0 7f 3d fc e1 94 bc
       -0.024639815 -0.038796265 0.062485345 -0.018174164
000140 c1 6c 12 bd a6 02 70 3c c7 56 80 3d 4c f6 8f bb
       -0.035748247 0.014649069 0.062665515 -0.0043933745
000150 08 4c 82 bd 3b 0e 0f 3b 61 07 36 3c 46 95 90 bd
       -0.06362158 0.002182855 0.011110158 -0.07059722
000160 d3 eb 24 3c 1c 62 2e 3d 5a d0 af bc 2c 1c f8 bc
       0.0100659905 0.042574033 -0.021461654 -0.03028687
000170 64 8e 6c 3c d4 3b 0d 3d b3 b4 46 3b 27 77 2e bd
       0.014438245 0.034480885 0.0030320107 -0.0425941
000180 70 71 5a 3d a2 86 73 ba 45 d5 58 3c d5 8c 37 3d
       0.05333084 -0.0009289776 0.013234441 0.044812042
000190 98 95 a1 bd 5a 24 6b 3d 26 2c 7f 3b 0d 32 05 3d
       -0.07889861 0.057407714 0.0038936227 0.032518435
0001a0 d5 7f 86 3d 0f 00 5a 3d bc c7 f5 bc 05 76 23 3d
       0.06567351 0.053222712 -0.030002467 0.039907474
0001b0 17 4e 61 3d c5 27 34 bd 0e ba 80 bd 3f 14 a3 3d
       0.055006113 -0.04398324 -0.06285487 0.07962846
0001c0 c0 d2 85 bd 61 ae ed 3c 45 38 84 bc 62 64 25 bd
       -0.06534338 0.029013814 -0.016140113 -0.040378936
0001d0 08 84 56 3c db 44 a1 bd ac 9b 82 3c 50 c4 ee bc
       0.013093002 -0.07874461 0.01594337 -0.029146343
0001e0 39 3c d3 3c 26 7e 84 bb fd 76 a1 3c 1a d6 6f 3d
       0.025785552 -0.0040433584 0.019710058 0.058553793
0001f0 98 08 d6 3c 88 89 98 bd db 82 4b 3d f2 d6 88 bc
       0.026127145 -0.07448107 0.04968534 -0.016704056
000200 07 a7 18 ba cd 01 55 3d 35 49 ee 3c b2 05 c4 3c
       -0.0005823229 0.05200367 0.029087642 0.023928497
000210 a7 10 04 3d 6a 9e 8e 3d 36 35 f9 bc 58 10 9d bc
       0.032242443 0.06963809 -0.03042088 -0.019172832
000220 3e 8b 13 3d cb 48 65 bd 70 7c 09 bd 72 d1 25 bd
       0.036021464 -0.055977624 -0.03356594 -0.040482946
000230 8c cf 79 3d 77 8f 82 bc e5 f1 3e bd 1e f2 f1 3b
       0.060988948 -0.01593755 -0.046617407 0.007383599
000240 04 d4 06 3d 05 c0 b6 bc e5 0d 92 3d d9 ea 89 bb
       0.032917038 -0.022308359 0.071315564 -0.004208904
000250 97 b2 45 bd 55 7f bf bb 8a 20 30 bd bc 50 00 bd
       -0.04826602 -0.0058440366 -0.04299978 -0.031326994
000260 75 ec 91 3d b3 00 7f bc 81 6a 4d bc ac e5 41 bd
       0.07125179 -0.015564132 -0.0125376 -0.047338173
000270 ef 73 a0 bc 01 38 25 bd bc a7 73 bd db 76 a6 3d
       -0.019586531 -0.040336613 -0.059486136 0.08128139
000280 5b 7c 78 bd 71 c3 6b bd 85 b9 32 3d 6b 54 1b bd
       -0.06066547 -0.057559434 0.043633956 -0.037922304
000290 0f ee bd bc 9a 49 4c bd 54 11 2f bd d8 1b cd 3c
       -0.023184804 -0.04987488 -0.042741135 0.025037691
0002a0 59 fd 23 3d bf 97 30 3d 4d b7 2d 3c a3 4e 90 3d
       0.040036533 0.043113466 0.010602784 0.07046249
0002b0 25 3b 8b 3d 67 75 a0 bd d1 f7 98 bd 73 bb d0 3c
       0.0679839 -0.07834893 -0.07469142 0.025480008
0002c0 df 4a 05 bb 3c 8c 54 bd 03 fa 5f bd da 2a a0 bb
       -0.0020338816 -0.05189155 -0.05468179 -0.004887921
0002d0 93 13 c9 3c 2e 07 b7 3c ae 9d 78 3d bc 31 60 bd
       0.024545467 0.02234229 0.06069725 -0.05473493
0002e0 11 10 87 3d 09 56 bb 3c 05 48 8d bd 06 fa 82 bb
       0.06594861 0.022868173 -0.06898502 -0.0039970903
0002f0 33 3d 83 bd 77 46 62 bd a9 87 0d bd 8f 64 22 3d
       -0.06408157 -0.05524298 -0.034553204 0.03964668
000300 4e de 85 3d 04 00 4c bd b1 c8 f2 3c 00 a8 d0 3a
       0.06536542 -0.049804702 0.029636713 0.0015919209
000310 e6 19 80 bc c2 50 09 bd c4 52 1d 3d f7 dc 08 bd
       -0.01563735 -0.033524282 0.03840901 -0.033413853
000320 77 c1 43 3d 02 5d 81 3c df a3 98 bd 8e 90 41 3d
       0.047791924 0.01579142 -0.07453131 0.047257
000330 3b 1a 18 bc f2 e5 10 bd a7 a8 9a 3c a5 d4 d3 3c
       -0.009283598 -0.035375543 0.018879248 0.025858233
000340 9d c1 0a b9 c8 18 94 bd 4b 46 d2 bb 81 24 a4 bc
       -0.00013232832 -0.07231289 -0.006417071 -0.020036938
000350 74 cd 6c bd d8 1b aa 3d 7b b4 8c bd 5f 1f 93 bb
       -0.057813123 0.08306092 -0.068703614 -0.0044898237
000360 77 c1 2e bc 0c c9 ac bd 40 2e b4 bb 82 f7 9c 3c
       -0.010666243 -0.08436784 -0.0054986775 0.01916099
000370 b5 cc 0e 3b d4 f1 f0 3c bb f9 33 3d ab e4 2e 3d
       0.0021789495 0.029412188 0.043939333 0.042698544
000380 91 f1 5a 38 aa f8 36 3d ce 06 18 3d 17 c9 41 bd
       5.2200226e-05 0.04467074 0.037115864 -0.047310915
000390 d3 61 87 bc 98 0a e2 bc c4 3e 8b 3d c5 16 13 bd
       -0.016526138 -0.027592942 0.06799081 -0.035910387
0003a0 7a 11 59 3d d1 93 2c bd 89 94 15 bd d1 a9 87 bd
       0.052995183 -0.042133156 -0.036518607 -0.06624187
0003b0 65 b7 a6 bc cc 70 2c 3c 6f 64 f7 bc 8d 66 06 3d
       -0.020351121 0.01052494 -0.030199258 0.032812644
0003c0 0e e6 8d 3d 37 eb 87 bc 2a dc 83 bb 99 5c d0 bc
       0.06928645 -0.016591651 -0.0040240483 -0.025434779
0003d0 13 6a f5 3c 85 d8 26 bd 88 e9 c6 3c bf d2 52 bd
       0.029957807 -0.040733833 0.024281278 -0.051470514
0003e0 b1 cc 57 3c 40 9d b3 bd d6 d1 a2 bd f2 e3 04 bd
       0.013171361 -0.087702274 -0.07950179 -0.032443948
0003f0 de 19 8e bd b7 01 04 3d fc ba 61 bc 20 b0 89 3d
       -0.069385275 0.032228198 -0.013777491 0.06723046
