Model Results/GCN-UnOp/my_model.pth (torch, 693314 bytes, 40 tensors)

pre_lin_list.0.weight f4 [170, 117]
000000 ae 37 82 bd 6c 72 74 bd e3 b0 9c 3d f1 f4 74 bd
       -0.06358276 -0.059679434 0.07650926 -0.059803907
000010 f5 8d 9f 3d 97 0b da bd 88 3d 95 3d 07 28 98 3d
       0.07790748 -0.10646742 0.07287127 0.074295096
000020 cc 8c 35 3b 2c 1b c0 bc 9e 43 18 3d 6e 11 4c 3d
       0.002770233 -0.023450457 0.03717386 0.04982131
000030 96 4c 6c 3d 82 78 3e 3d 84 c0 90 bd 46 8d 4a 3d
       0.057690226 0.046501644 -0.070679694 0.049451135
000040 54 d7 92 bd cf e3 98 3d a4 35 ed bc 53 e8 b7 3d
       -0.07169977 0.07465326 -0.028956242 0.08979859
000050 8e 98 20 3d db 26 7d 3d 0a cc 5f 3d 90 42 f0 bc
       0.039207987 0.061804634 0.054637946 -0.029328614
000060 df ed b8 bd 23 a4 17 bd 34 a5 c1 bc e6 b9 ad bd
       -0.09029745 -0.037021767 -0.023638345 -0.08482723
000070 7a cb 60 bd 63 64 94 3d 5d 9e 8a bd ec db 0d 3b
       -0.05488155 0.0724571 -0.06768487 0.0021645976
000080 f3 50 97 3d 6c a6 0b bd 04 6c c3 3d 44 23 a9 bd
       0.07388487 -0.03409426 0.09542087 -0.082586795
000090 5a c4 27 3d 7a 47 7e bd 70 d1 05 bc 40 20 9d bd
       0.04095874 -0.062079884 -0.00816761 -0.07672167
0000a0 96 32 2b 3d c3 a1 74 bd 4a 92 50 bd 6f cf 83 3d
       0.04179629 -0.05972458 -0.050920762 0.06436049
0000b0 ca c1 9f bd 80 7c d5 bc 2c 85 21 3b ae 83 83 bd
       -0.07800634 -0.026060343 0.0024646027 -0.064216
0000c0 82 fa 7c 3d e1 0f 81 3b 7b 87 a7 3d 15 ce ad bd
       0.06176234 0.0039386605 0.08180138 -0.08486573
0000d0 0a 90 3e 3d 58 60 ab bd d2 b6 ba 3d 19 9f 7a bd
       0.046524085 -0.083679855 0.091169015 -0.061186884
0000e0 fe ef 1e 3d be bb 50 bd ed 54 ad bd 86 e2 1a bd
       0.038803093 -0.050960295 -0.08463464 -0.037813686
0000f0 b4 da f1 ba 37 82 1f 3b 7c ca 44 bc 45 bd af 3d
       -0.001845202 0.0024339089 -0.012011167 0.08581022
000100 c2 d3 19 3d 86 66 a9 bd da 3a 08 3d 76 07 3a 3d
       0.037555464 -0.08271508 0.03325925 0.04541727
000110 10 ca 47 bc 1b 84 8c bd 5a 25 3f bd 66 1b a8 bd
       -0.012194172 -0.068611346 -0.04666648 -0.08208351
000120 8b b4 96 3d f0 c8 b2 bd 5c e8 f1 bb 70 ef b2 bd
       0.073586546 -0.08729732 -0.0073824357 -0.08737075
000130 69 79 98 3d 9e 8f a8 3d 8f 5b 95 3d 0b 81 89 bd
       0.07445032 0.08230518 0.07292854 -0.06714066
000140 11 eb 3d bd a4 fd b2 bc c1 35 83 3d 28 99 d3 3c
       -0.046366755 -0.02184946 0.06406737 0.025829867
000150 93 98 3b bd 74 3f 83 bb 75 21 b6 3c 79 c3 9b bd
       -0.045799803 -0.004005367 0.02223275 -0.07605643
000160 db 5a 85 3d 1a cb 6c 3d aa 41 14 3d 8a 69 15 bd
       0.0651147 0.05781088 0.036195435 -0.036477603
000170 ea c8 28 3d 4d 69 92 3d f5 6b 88 3d a0 67 bd bb
       0.04120723 0.07148991 0.06661216 -0.0057801753
000180 7b a0 b8 3d 59 97 84 3d 08 9b 91 bd 55 29 b8 3d
       0.09014984 0.0647418 -0.07109648 0.089922585
000190 3e cb b4 bd fa 61 2b bb 63 21 3f bd 8a 70 84 3c
       -0.08827828 -0.0026150928 -0.0466627 0.016166944
0001a0 a8 c1 87 3d db 4c a7 b9 95 19 d0 3c bb b8 3f bd
       0.06628734 -0.00031909984 0.025402823 -0.046807032
0001b0 18 e1 8c bd e0 4b a4 bd e9 c3 1c bd 91 58 aa 3d
       -0.06878871 -0.080222845 -0.038272772 0.08317674
0001c0 88 e9 b1 3d d1 97 0a 3d 60 33 13 3c 32 6a ed 3c
       0.08687121 0.03383619 0.008984417 0.028981302
0001d0 1f 2a ac 3d 8c bf d4 bc 08 82 fa bc d4 a8 2f 3c
       0.084064715 -0.025970243 -0.030579582 0.010721404
0001e0 ea bc 79 bd a8 92 48 bb 28 79 94 3d f8 4d 87 3c
       -0.060971178 -0.0030604992 0.07249671 0.01651667
0001f0 4d 6b ac bd 96 26 73 bd db ac 99 3d 62 8b 3d 3c
       -0.084189035 -0.05936297 0.07503673 0.011568876
000200 ad 65 ae 3d a5 90 3f bd 91 00 bb bd 5d 13 a4 3d
       0.08515487 -0.046768803 -0.091309674 0.08011506
000210 ef ae 76 3d 32 a5 32 3d 13 30 b8 bd 96 dd 7c 3d
       0.060225423 0.043614574 -0.089935444 0.06173476
000220 3c af 20 bc 9b d4 4e bd 22 02 8c bd 17 5d 9d bd
       -0.009807404 -0.050495725 -0.06836344 -0.07683771
000230 8f 8d 00 bd 29 6a 9c bc ce 7f 19 3d ce 59 16 3d
       -0.031385 -0.01909359 0.0374754 0.03670674
000240 4f 19 08 bd 6d 82 61 bd cd 9a 87 3d 6f 47 8f bd
       -0.03322726 -0.055056024 0.06621323 -0.06996047
000250 7c 32 94 bc 0a a6 13 3d 15 f2 a0 bd be 4d 65 bd
       -0.01809048 0.03604702 -0.078586735 -0.055982344
000260 63 d5 84 3d c5 e5 6c 3d a4 60 bf bc 5c b4 81 bc
       0.06486013 0.057836313 -0.023361512 -0.015833072
000270 18 a4 b9 3c 48 b2 81 bd 68 cb 6c bd 90 b0 e7 bc
       0.022661254 -0.063328326 -0.05781117 -0.028282434
000280 1e c2 22 3d 44 cd ee 3b 00 81 c7 bc 5c 01 e3 3c
       0.039735906 0.007287653 -0.024353504 0.02771061
000290 2f c4 6e bd a1 2b a2 bd b1 40 40 bd 9c ad a7 bd
       -0.058292564 -0.07918478 -0.046936695 -0.0818741
0002a0 47 80 83 3d 44 61 2a bd 29 19 99 bd 73 9e 8f 3d
       0.06420951 -0.041596666 -0.07475502 0.07012644
0002b0 31 5d 31 3d a2 e1 a4 bd 98 99 89 3a 5f ee 5f bd
       0.043301765 -0.080508485 0.0010498045 -0.054670688
0002c0 7e d3 69 3d c4 2a 46 bc 1c db dc bb 44 73 94 bc
       0.05708646 -0.012095157 -0.006739987 -0.01812137
0002d0 a9 b7 6a bd 13 43 e2 3c 0a 0d 8d bd 6a 1d cd 3c
       -0.05730406 0.027619874 -0.06887253 0.02503844
0002e0 94 73 55 bb b1 42 88 3d 5c 55 d1 ba 9a 4e 5d 3d
       -0.003257011 0.066533454 -0.0015970874 0.05403004
0002f0 21 0f b2 3d 96 0d 75 3d a8 62 81 bc 76 80 4e 3d
       0.08694292 0.05982741 -0.015794113 0.05041548
000300 90 47 fe 3b 9c 5a 11 bc 2a 99 c3 bb a8 5c 8e bc
       0.0077599958 -0.008871701 -0.0059691863 -0.017378166
000310 b6 b1 96 bd 5d fd 9c bd 1a 5a 15 3d fd 6d af 3d
       -0.073581144 -0.07665513 0.03646288 0.085659005
000320 d6 42 96 bd f1 db ae 3d f9 75 2b 3d bf a9 ac bd
       -0.07336967 0.08538044 0.041860554 -0.08430814
000330 36 e1 dd bc a4 60 5b bd da d0 14 3d 50 76 6f bd
       -0.027084928 -0.05355896 0.03633199 -0.05846244
000340 44 28 6b bd f7 60 a1 3d 66 37 6c 3d 8a 9c 41 3d
       -0.057411447 0.07879823 0.05767002 0.047268428
000350 b7 d5 bd bc 36 1f 36 3d ca 86 8b bd 62 d4 11 3d
       -0.023173196 0.04446336 -0.06812818 0.035602935
000360 2d 6f 9c bd 54 e2 d3 3c ad 7e a4 bd 68 65 0b 39
       -0.076383926 0.025864758 -0.08031974 0.0001329385
000370 32 69 8e 3d c8 0c da 3d 9d 5d 3f 3d c6 7f 16 bd
       0.06953658 0.10646969 0.046720136 -0.036742948
000380 f5 91 06 bd e6 20 aa bc ca e4 05 3d ff c7 9b 3c
       -0.03285404 -0.02076764 0.032688893 0.019016264
000390 1e 85 36 bd 6e 19 a7 bd 97 04 2e bd 1e 78 3c bd
       -0.044560544 -0.08159147 -0.042484846 -0.04601299
0003a0 ad 97 ee bc 00 99 ce bc 8e cc 54 bd 0c 4f 7e bd
       -0.029125059 -0.02521944 -0.05195289 -0.062087104
0003b0 3a c2 a1 bd 44 0f 60 bc 66 90 ab bd 5a ef 58 bb
       -0.07898374 -0.013675515 -0.08377151 -0.003310165
0003c0 72 87 c3 bc 56 90 3a bc 10 36 67 bd 1a e9 1e bd
       -0.023868296 -0.011386951 -0.056448042 -0.03879652
0003d0 11 ab 82 3d e2 43 3e 3d b3 ec 97 3d 20 47 e4 3d
       0.063802846 0.046451457 0.07418194 0.111463785
0003e0 57 8e a3 bd 6e ed 4a 3d 44 27 82 bd b0 d7 1c 3c
       -0.079861335 0.049542837 -0.063551456 0.009572908
0003f0 0b 53 9a bd a5 5c 35 bd 18 70 9e bc fc 70 04 bd
       -0.075353704 -0.044277806 -0.01934056 -0.032334313

pre_lin_list.0.bias f4 [170]
000000 45 2d 8f 3d 67 04 4d 3d 2b 9a 70 bd 3e c4 1b 3d
       0.06991056 0.050053027 -0.058740776 0.038028948
000010 3d 7c cd bb 55 65 7f 3d 6c f4 22 bd 68 c4 a9 3d
       -0.006270914 0.062352497 -0.03978388 0.08289415
000020 74 4f 50 3d a5 ad a9 ba d7 8f 2b 3d ae 3c 47 3d
       0.050857022 -0.0012945427 0.041885223 0.048641853
000030 3e b6 a9 3d d2 49 8c bd 7c c0 e1 bc 43 1c 4d 3c
       0.08286713 -0.068500176 -0.027557604 0.012518945
000040 85 0a 3b 3c fc 46 7d bc 4e 42 ed 3c 93 2d 14 3d
       0.011416082 -0.0154588185 0.02896228 0.036176275
000050 04 df 97 bd 16 a8 52 bd e7 57 c8 bc e5 78 24 bc
       -0.07415584 -0.05142983 -0.024455978 -0.010038589
000060 f3 f5 a0 3d c6 04 af 3c 17 a9 31 3a 88 9d 6c 3d
       0.07859411 0.02136458 0.00067772105 0.05776742
000070 de b5 50 3d ff 39 ba bc 98 9e ba 3c af 16 2d bd
       0.050954692 -0.022732733 0.022780702 -0.04225796
000080 0f e2 82 3d 84 3e d5 3c 22 1c cb bc 45 07 a9 3b
       0.063907735 0.026030786 -0.024793688 0.0051583373
000090 33 cc 80 3b 90 48 87 bd 7a 62 a8 bd f8 17 f3 bc
       0.0039305924 -0.06605637 -0.08221908 -0.029674515
0000a0 4c 8d 88 bd db 51 dd bc 21 61 9c bd cf 32 93 bd
       -0.06667575 -0.02701657 -0.07635713 -0.07187425
0000b0 39 fd 54 bd f9 c3 0f bd 70 05 9a bd f5 20 c7 3c
       -0.051999304 -0.035099003 -0.07520568 0.024307707
0000c0 8c d5 63 3d 4c c5 9e bd 0a 95 f2 3c 4b d7 a2 bd
       0.055623576 -0.07752475 0.029612083 -0.0795122
0000d0 2a 95 6a bd 93 c2 50 3c 9c fa 6f bc 82 e4 c8 3c
       -0.05727116 0.012741703 -0.014647152 0.024523024
0000e0 7d 0c a9 bd 02 55 ac bd 44 7f 53 bd f3 8c 03 bd
       -0.08254335 -0.084146515 -0.05163504 -0.03211684
0000f0 4d 88 88 bd 9c 34 df 3c ac 00 1f bd 93 f2 5e bd
       -0.06666622 0.027246766 -0.038819 -0.054430556
000100 42 31 7f bd 37 e2 2e bd d9 80 3d bd 37 5d a2 3d
       -0.062302835 -0.042696204 -0.046265457 0.079279356
000110 7e f6 1f 3b c8 df 23 bd 44 70 43 3d a8 8e 55 3d
       0.0024408395 -0.040008336 0.047714487 0.052138
000120 0e 33 85 bc ee a8 4e 3d fc 19 58 bd 2e cc a0 bd
       -0.016259696 0.050454073 -0.052759156 -0.07851444
000130 c6 59 8e 3c d0 16 96 bd 52 c5 61 bd 67 19 00 3d
       0.017376792 -0.0732857 -0.05511982 0.031274226
000140 06 a7 aa bd 54 43 6e bc 97 bc b3 bd 17 c7 b6 bd
       -0.083326384 -0.014542419 -0.08776205 -0.08924692
000150 05 68 09 3d 68 be 71 bd 9c 8d 32 3d 3d 12 b6 bd
       0.033546466 -0.059019476 0.04359208 -0.088901974
000160 96 31 aa 3d 37 5f 86 bd 8b e3 a3 bd ae e8 56 3d
       0.08310239 -0.065611295 -0.08002385 0.052467994
000170 c8 89 77 3c 6b 10 03 bc ad dd a9 bd 68 45 83 bd
       0.015108533 -0.00799952 -0.082942344 -0.064097226
000180 5a 54 9c 3d e6 1e 30 bc 95 64 d3 3d 13 38 20 bd
       0.07633276 -0.010749554 0.10321919 -0.039115977
000190 7f f3 39 bd 03 4f 81 bd 38 34 c4 bc d2 88 a7 3d
       -0.04539823 -0.063138984 -0.023950681 0.08180393
0001a0 df 7e 36 3d 46 6d 35 bc b1 5d 8b bc 75 e2 36 3d
       0.044554587 -0.011073416 -0.017012449 0.04464956
0001b0 08 c3 9f 3d cd 43 d3 bc 36 22 23 bd 38 ec 90 3d
       0.07800871 -0.025789166 -0.039827548 0.07076305
0001c0 b7 17 b9 3d 8b 73 a5 bd da 90 6f 3c 7b 64 c6 3c
       0.09037726 -0.08078679 0.014621938 0.024217835
0001d0 4b 07 13 3d 33 6b 9c bd 97 85 9d bc 16 b3 90 3d
       0.035895627 -0.07637634 -0.01922874 0.07065408
0001e0 79 d9 01 3d 4d 67 a1 3d d1 f3 27 bd 89 b5 f5 bc
       0.03170154 0.07881031 -0.041004006 -0.02999379
0001f0 77 dc 61 bd 44 c1 51 bd d9 d3 eb bb 7e 34 a7 3d
       -0.055141892 -0.051209703 -0.007196885 0.08164309
000200 47 11 12 3b 3f e4 cc bd 6b 0e a3 3c 11 8e 93 bb
       0.002228813 -0.10004472 0.019904336 -0.0045030196
000210 55 45 c1 bc 72 a3 a9 3c 4e 2f bb bd 86 64 34 bc
       -0.02359263 0.02070782 -0.09139882 -0.011010295
000220 4d 02 05 3c a2 7f 3b bd 80 18 c2 bc ec 54 aa bd
       0.008118224 -0.045776017 -0.023693323 -0.08316979
000230 67 56 31 bd 25 e8 31 bd 95 aa ac 3c 7c 88 b7 bd
       -0.04329529 -0.04343428 0.021077434 -0.08961579
000240 d8 ef 94 3d 1c f8 bb bd 3e a9 b4 bd 2c ea 1d 3d
       0.07272309 -0.091781825 -0.08821343 0.0385534
000250 7f 44 32 3d b9 e1 a3 bc 7d 25 cf bc a7 e7 24 3b
       0.043522354 -0.020005094 -0.02528643 0.002516249
000260 a8 1b d1 3d 46 1a a4 3d 40 89 69 bd cb 38 8f 3d
       0.10210353 0.08012824 -0.057015657 0.06993254
000270 49 ec b0 3d d0 37 35 bd 5a cb 04 b9 2c cf 49 3d
       0.08638818 -0.04424268 -0.00012664255 0.04926984
000280 2d 7d 95 bd 09 e0 3c bd 7c 22 62 bb 41 8e 57 bd
       -0.07299266 -0.046112094 -0.0034505418 -0.0526259
000290 4d e0 c1 3d bb fd 2e bb 16 f5 64 3d 33 e1 06 bc
       0.0946661 -0.0026701528 0.055897795 -0.008232403
0002a0 b3 8b 91 bd 5f 25 7a bd
       -0.07106724 -0.061070796

conv_list.0.bias f4 [170]
000000 b8 5b 64 bb 78 d1 34 3b dd 0e 03 bc d8 b3 6d bb
       -0.0034844708 0.0027590673 -0.007999149 -0.0036270525
000010 13 46 88 3a 90 81 ef ba 2e fb c0 3c ae 44 04 3c
       0.001039686 -0.0018272866 0.023557272 0.008073015
000020 67 ee 98 bb 9d 23 92 bc 18 30 17 3d 71 da 27 3c
       -0.0046670916 -0.017839247 0.0369111 0.010244952
000030 eb f6 c6 3b bc 1e 47 39 41 ad c3 3b 8f b5 6a bc
       0.0060719154 0.00018989568 0.005971581 -0.0143255135
000040 68 4e ff 3b 54 44 0e 3c f0 72 db 3b 7b a4 c9 bb
       0.007791329 0.008683283 0.006697051 -0.006153641
000050 42 92 af b8 02 50 69 bb 45 fe 61 3a 66 74 d0 3b
       -8.371893e-05 -0.0035600667 0.0008620958 0.006361532
000060 57 33 cf 3b 25 07 d1 b9 fb c1 19 bc f0 ed d2 3b
       0.006323259 -0.0003986891 -0.009384627 0.0064370558
000070 6e 4e 6f ba 4c 05 2a ba d7 35 70 3a ec e1 06 bc
       -0.00091288134 -0.00064857746 0.0009163296 -0.008232575
000080 79 aa ca bc e2 0e a3 3c de 38 84 bc fe be 1f 3a
       -0.02473949 0.019904558 -0.016140398 0.00060938287
000090 19 19 e1 3b 82 7e b3 3c 0a 2a 92 bc 88 89 5c bc
       0.006869447 0.02191091 -0.017842311 -0.013460524
0000a0 6b 7f 25 3c e5 4a 98 3c cc f3 8d 3c a8 03 af 3c
       0.01010118 0.0185904 0.017328165 0.021364048
0000b0 54 cf 9b 3b 28 ba 7c 3b 52 4d 7f ba 37 c0 93 3c
       0.00475494 0.0038563106 -0.00097389997 0.018035991
0000c0 a1 c8 87 bc a0 68 fe 3c 63 31 28 3c 7b e8 02 bc
       -0.01657516 0.031055748 0.010265681 -0.007989998
0000d0 94 cd 90 bb c5 0b 3d bc fa 30 81 bc 48 08 a6 3c
       -0.004419038 -0.011538451 -0.015770424 0.02026762
0000e0 c9 47 89 bc 25 75 97 3c 06 57 47 3a 7e fa 42 bb
       -0.016757863 0.018488476 0.0007604215 -0.0029751356
0000f0 ef 3c 5f ba d5 89 05 bb 4d 80 0b 3c 05 ac bd 3b
       -0.0008515855 -0.0020376344 0.008514476 0.0057883286
000100 28 4a 87 3b 76 96 e1 3a 70 d5 c0 3b d5 d5 1e bc
       0.004128713 0.0017210979 0.0058848187 -0.009694536
000110 69 ce 08 bc 10 6b 52 bb 50 fc 88 bb a6 ed 95 3c
       -0.008349993 -0.0032107271 -0.0041804686 0.018301796
000120 9b ef 8e bc 85 18 78 bc bf a9 05 bc 77 a2 0d bb
       -0.017448237 -0.015142565 -0.008158146 -0.002161173
000130 1e cc 81 3c 07 fc 38 bb e9 4b 37 3b 78 1f 24 bc
       0.015844401 -0.0028226392 0.002796883 -0.010017268
000140 93 c2 48 bc b7 90 44 bc b1 fa ed 3b 7e a9 31 bc
       -0.012253421 -0.011997393 0.0072625508 -0.010843633
000150 21 bd af 3b 1f 50 c6 bb 88 92 dc bb 04 0a 76 bc
       0.005363122 -0.0060520316 -0.006731335 -0.015017036
000160 bb ce e3 3b a8 e6 92 bc 37 a2 d3 bb 6b c9 7d 3c
       0.0069521344 -0.017932251 -0.0064585465 0.015489916
000170 c6 d7 8d 3c 37 f2 44 3b 9f 33 df 3c 1c 23 b7 3b
       0.017314803 0.0030051598 0.027246295 0.005588902
000180 9b f6 e0 3b 4b 71 b9 3b c8 05 80 3b d9 66 6e 3b
       0.006865335 0.0056592575 0.003906939 0.003637722
000190 29 af 90 3b f3 b3 2d bc 96 52 22 3d 20 72 b9 3b
       0.004415412 -0.010601985 0.03962954 0.0056593567
0001a0 2e 44 89 3c bc de 44 ba 03 3b e4 3b f8 92 de 3c
       0.016756143 -0.00075099966 0.0069650426 0.02716969
0001b0 65 5e 13 3b 6d c5 8f bc 5a d0 e6 3b 40 6d 76 3c
       0.0022486683 -0.017550195 0.0070438804 0.015040696
0001c0 cf 85 2d 3c 96 43 2e bb fe d3 0e bc 2d 6d 55 3c
       0.0105909845 -0.0026590577 -0.008717535 0.013026518
0001d0 40 04 08 3c be 1b a5 39 3c a7 c2 3b 65 6b 80 bb
       0.0083017945 0.00031491922 0.005940346 -0.0039190524
0001e0 23 da a3 3b 0b 63 72 3c 18 23 55 bb 74 ed 46 3c
       0.005000369 0.0147941215 -0.0032522138 0.012141574
0001f0 b3 c2 0b bd 2c fe 00 bd b9 87 a3 ba 25 89 d3 bc
       -0.034121227 -0.031492397 -0.0012476362 -0.025822232
000200 6c ef cf bc 09 c7 ed 3b 9a 8b be 3c eb dd 05 3c
       -0.02538272 0.007256393 0.023259927 0.008170585
000210 e8 5e 6c ba ac 11 4a bd bb 2e 99 bb 65 76 6e bc
       -0.00090168277 -0.04933326 -0.00467476 -0.014554595
000220 15 c2 09 3c 19 a2 36 bc c4 a2 4b 3c 41 4a fa 3a
       0.008408089 -0.0111470455 0.012428943 0.0019095616
000230 3d 76 85 3b 5b 06 96 bc 82 d0 53 3c 26 40 4c bc
       0.004072933 -0.018313577 0.01292813 -0.012466466
000240 96 d0 12 3c d1 41 80 3b ef e1 76 3c 4c 02 c6 3a
       0.008960864 0.003914096 0.015068515 0.0015106886
000250 0c da 70 3c 95 6b 5d 3c a7 ef 97 3b 16 56 17 ba
       0.014700424 0.013514419 0.004636723 -0.00057730207
000260 d1 01 23 bc 3f 8d dc bb 67 7a 01 3b 2a af 81 bc
       -0.0099491635 -0.006730705 0.0019756795 -0.015830595
000270 8b 3f ff bb 92 da 6b 3c 29 94 6b bb f0 b2 b9 bc
       -0.0077895573 0.014395373 -0.0035946465 -0.022668332
000280 cf e9 29 bc f6 d6 60 3c e3 e4 d7 3b 4d e1 2b bc
       -0.010370686 0.013723126 0.0065885647 -0.010490728
000290 40 b0 0c bb 9b f7 bf 3a a1 bd 5b bb 7e 6a 3e 3c
       -0.0021467358 0.0014645936 -0.0033529776 0.011622069
0002a0 66 d6 20 3c 21 54 d6 bb
       0.009816742 -0.0065407907

conv_list.0.lin.weight f4 [170, 170]
000000 a0 0d 2f 3d 89 a8 69 bd 5e d6 30 3d 22 49 5f bd
       0.042737603 -0.057045493 0.043173186 -0.054513104
000010 ac 45 a3 3d 25 56 4e 3d 18 5b ef 3d c1 34 00 3d
       0.07972273 0.050375123 0.11687297 0.03130031
000020 bd 8f f1 3d c7 95 0b 3d 82 8d 53 3d ed c8 de bc
       0.11794994 0.034078386 0.051648624 -0.027195418
000030 a3 b2 27 3c 17 16 d5 bd 83 18 3f 3d 7a a1 f6 3d
       0.010235461 -0.10404604 0.046654236 0.12042518
000040 d8 53 4f 3d 30 fe 13 bc d6 f3 11 3e bd a5 4d bd
       0.05061707 -0.009032771 0.14253172 -0.05020689
000050 c5 8a 98 3c 4b 8d e2 3d 83 56 a9 3d 17 69 e1 bd
       0.018620858 0.11062106 0.08268454 -0.110063724
000060 09 b9 31 bd 82 f1 a1 bd 63 1b d2 bc 83 e8 2f bd
       -0.043389354 -0.07907392 -0.025647825 -0.04294635
000070 d9 91 f5 bd 83 90 06 bb 4f e1 b9 3d 7c b3 8d 3d
       -0.11990709 -0.0020532913 0.09076177 0.069189996
000080 13 13 8d 3d b2 2d 82 3d d2 72 50 bd 49 81 ce bd
       0.06888404 0.06356372 -0.05089075 -0.10083253
000090 5d 6e b9 bd 27 2d 90 bd 17 0e 3e 3d 9b d5 36 bd
       -0.09054253 -0.07039862 0.046400156 -0.044637304
0000a0 89 68 8f bd f4 5d a5 3d d3 d9 91 bd 47 1e 52 3d
       -0.070023604 0.08074561 -0.07121625 0.051298406
0000b0 2d df bc bd 0c e0 00 3e d3 d2 7d 3c d1 79 c1 bd
       -0.09222255 0.12585467 0.015492159 -0.09447063
0000c0 91 66 41 bd 61 85 bd bd 11 d2 bb 3d 8a 70 31 bb
       -0.047216956 -0.09253956 0.09170926 -0.0027075135
0000d0 12 df 7f bd ed 21 39 bc 03 45 78 3d f9 e5 7e 3c
       -0.062468596 -0.011299592 0.06061269 0.015557759
0000e0 41 12 98 bd 00 34 00 3d b3 66 3a 3c 72 19 23 bc
       -0.07425357 0.03129959 0.011377024 -0.009954797
0000f0 20 20 13 3e 5b fb 82 bd 90 09 96 bd 2e 74 9a 3d
       0.14367723 -0.063955985 -0.07326043 0.07541691
000100 bf 8d a8 bd e0 6c 99 bc c7 c3 c9 3d 65 57 46 bd
       -0.08230161 -0.018728673 0.09851795 -0.04842319
000110 81 a6 83 3c 51 ea 3a bd 51 37 61 bc 56 2c e0 3c
       0.016070606 -0.045633618 -0.013746099 0.027364891
000120 9b 2c b5 3d 28 91 c7 bd 3c 54 da 3c 20 88 05 be
       0.088463984 -0.09744483 0.026651494 -0.13040209
000130 b3 a3 f9 3d a5 0b 80 bd ea db d9 3d a9 cb bd bd
       0.12189426 -0.06252221 0.106376484 -0.09267361
000140 98 e1 e9 3c c4 f7 13 3e 49 87 a2 bc 8e a9 c9 bd
       0.028549954 0.14449984 -0.0198399 -0.09846793
000150 59 d1 8c 3c 15 d8 b2 bd 67 88 e2 3d 84 6f ae bc
       0.017189668 -0.087326206 0.11061173 -0.02129341
000160 10 3e 1c bc d8 b3 aa 3c cb f7 9e 3d 49 da 92 3d
       -0.009536281 0.02083771 0.077621065 0.07170541
000170 19 56 b5 3d b1 ba 80 bc 84 44 1c bc 40 e3 0d 3d
       0.088543124 -0.015714021 -0.00953782 0.03464055
000180 f2 14 ab 3d 11 69 52 bd 0f a9 10 3c 68 1d e2 3d
       0.083536044 -0.05136973 0.008829369 0.11040765
000190 80 ff 7b 3d 6e dd fd 3c e8 1d 55 3d 37 97 c3 3d
       0.06152296 0.030989375 0.052030474 0.09550326
0001a0 f7 47 04 bd ac fa 51 3d c1 10 2b bd b3 f8 99 3d
       -0.032295194 0.05126445 -0.041764025 0.07518139
0001b0 00 a6 98 bd d1 0e 01 3e 05 92 af bc 54 5f 24 bd
       -0.07453537 0.12603308 -0.021431932 -0.040129974
0001c0 aa d7 04 3e 8a de b7 3d d3 da 9b 3d 47 3d 9e bc
       0.12972894 0.08977993 0.07610097 -0.019316329
0001d0 6c b9 32 3d e3 55 c6 3c e0 d1 85 3d 28 18 cd bd
       0.043633863 0.024210876 0.06534171 -0.10014373
0001e0 d1 46 91 bd 3f 89 fd 3d 2d b9 eb 3d fa b8 86 3c
       -0.07093585 0.12379693 0.11509929 0.016445626
0001f0 2c e1 03 bc 40 10 c1 bc ca 74 18 3c a6 62 0a 3e
       -0.008049291 -0.023567319 0.009305188 0.13514194
000200 b5 46 86 3d ae e8 ca bd db 2c 9e bc 7a aa be 3d
       0.06556455 -0.099076614 -0.019308498 0.093098596
000210 10 d3 bf bd 4f 5f 78 bd 00 de 21 bc b7 48 16 3d
       -0.09366429 -0.06063777 -0.009879589 0.03669044
000220 ce 52 cf bb 12 42 9b 3d c7 d9 23 bd 34 19 f8 bc
       -0.0063270098 0.07580961 -0.04000261 -0.030285455
000230 ea 48 0e 3e 86 0a 3b bd 43 0d 3c 3d b0 4a 58 bd
       0.13895002 -0.045664333 0.045911085 -0.052805603
000240 fd d6 a0 3d 4d 5a bc 3b 75 75 5c 3d 58 28 b6 bd
       0.07853506 0.0057480694 0.053822953 -0.08894414
000250 27 30 9c 3d a8 99 81 bd e3 04 bb bd fe e8 8f 3c
       0.07626372 -0.06328136 -0.091317914 0.017567154
000260 2b a6 11 bc c2 1f 7a bd 24 1e 10 3d bd 56 f1 3d
       -0.008889715 -0.061065443 0.035184994 0.11784122
000270 db 93 74 bd 01 9b 86 bd 4b 2b 2e bd 34 9f 8e 3a
       -0.05971132 -0.065725334 -0.042521756 0.0010881186
000280 25 ba 9e bd 7d 5e eb bd 85 25 57 bd bd 79 59 bd
       -0.07750348 -0.114926316 -0.052526016 -0.053094614
000290 5e 64 0f be b6 19 14 3d 47 d5 30 bd f9 cd 04 3e
       -0.14003131 0.036157332 -0.043172147 0.12969197
0002a0 f8 54 cf bd fd 54 e5 3d f2 9a b3 3b 73 39 66 bd
       -0.101236284 0.11197851 0.0054811174 -0.05620713
0002b0 fa 28 d9 3d 56 69 a2 bc 75 b5 b4 3c b2 04 b9 bc
       0.10603519 -0.019825619 0.022059182 -0.022585247
0002c0 16 af c6 bd 43 62 0a be 06 81 c3 bd 28 27 82 bd
       -0.09701364 -0.13514046 -0.09546094 -0.06355125
0002d0 72 11 dc 3c 8f 66 03 3e aa 2b 02 be 3d 04 ec 3d
       0.026863787 0.12832092 -0.12711969 0.11524246
0002e0 35 4c a1 bd 5f ed 04 3d 17 09 7a 3d 70 8e 07 be
       -0.078758635 0.032452937 0.061043825 -0.1323793
0002f0 c2 4d cb 3c a6 28 ed 3c e4 70 8b 3d 87 b8 ee bd
       0.024817351 0.028950047 0.068086416 -0.116562895
000300 d8 49 c2 bd 72 1c 06 3e a4 95 e6 bd c6 3c 8f 3c
       -0.09486741 0.13096789 -0.112590104 0.017485034
000310 10 e0 71 bd 92 a9 07 3e e8 d9 c2 bd 82 1f d6 bc
       -0.059051573 0.1324828 -0.095142186 -0.026138071
000320 64 ef 54 bc 9f 11 a0 bc 0d 66 14 bc 33 54 d1 3d
       -0.012996528 -0.019539652 -0.009057534 0.10221138
000330 e0 95 36 3c 9d e3 af bd b5 1a d7 bd 75 ca af 3d
       0.011144131 -0.08588336 -0.10503141 0.085835375
000340 b2 3d c9 bc 94 d2 c5 3d f3 c1 1b bd e9 2a 43 bd
       -0.024565551 0.09659305 -0.03802676 -0.047648344
000350 2a 5e d5 3d 68 54 f0 3c 7f 9c 9e 39 ba 5d ec 3d
       0.10418351 0.029337123 0.00030252707 0.115413144
000360 a1 4b 8a 3b d4 c9 9f 3d c1 1a d7 3d d0 98 68 bd
       0.0042204414 0.078021675 0.1050315 -0.05678636
000370 f1 55 94 3d 74 0f 3f bc 23 4b 9e 3c f4 cb 9c bd
       0.072429545 -0.011661399 0.019322937 -0.076560885
000380 5b 3b f7 bd d9 10 cc bb 44 da b8 bd f2 78 8f 3d
       -0.12071868 -0.0062275943 -0.09026006 0.0700549
000390 b2 d4 d6 3d 4e df fb 3d 8f f0 f8 3d 38 c1 66 bd
       0.10489787 0.12298451 0.12155258 -0.05633661
0003a0 91 9a 97 3d 62 71 a6 bd ce 47 ba bd 13 c9 0f be
       0.07402528 -0.08127095 -0.09095727 -0.14041547
0003b0 9f 68 0a 3e 47 bb 8e 3d 7b 8c 8d bd 5c 97 17 3d
       0.13516472 0.06969314 -0.0691156 0.037009582
0003c0 6e d3 00 bb ad 32 ae bd 5f 83 3e 3d c2 63 d8 3d
       -0.0019657272 -0.085057594 0.046512004 0.10565902
0003d0 c7 e3 cd bc 57 99 8e 3d 58 bf 32 bd 52 07 d2 3d
       -0.025133027 0.06962841 -0.04363951 0.102553025
0003e0 74 ab d7 bd 4d 7b b5 3d 6b 52 94 bd 25 86 e7 3d
       -0.10530749 0.088614084 -0.072422825 0.11304883
0003f0 38 e6 2d 3d 8f eb 81 bd 0e 98 52 3d 78 d9 9b bb
       0.04245588 -0.06343757 0.051414542 -0.004756149

bn_list.0.weight f4 [170]
000000 7d 26 7f 3f ee 6f 7c 3f 68 3e 80 3f ec 93 7e 3f
       0.99668103 0.9860829 1.0019045 0.9944446
000010 0b 44 7b 3f 26 7b 7d 3f 24 60 7d 3f 57 9a 7f 3f
       0.981507 0.99016035 0.98974824 0.9984488
000020 89 cf 7e 3f 61 dd 80 3f f4 e7 7f 3f e6 19 81 3f
       0.99535424 1.006756 0.9996331 1.0086029
000030 f5 a9 76 3f 9f 5a 82 3f 28 f2 7a 3f 39 e4 80 3f
       0.96353084 1.0183905 0.9802575 1.0069648
000040 96 e5 7d 3f a7 96 7a 3f dc 2f 7f 3f 6f 02 82 3f
       0.99178445 0.9788613 0.996824 1.0156993
000050 b4 8e 7e 3f c9 2b 80 3f 0e 20 82 3f 77 fa 7b 3f
       0.994365 1.0013362 1.0166032 0.98429054
000060 33 12 7c 3f 21 65 82 3f 4a 5c 81 3f 6c a8 7c 3f
       0.9846527 1.0187112 1.0106289 0.9869449
000070 4d 72 77 3f ae 30 81 3f 3e 6a 7f 3f a7 7e 7d 3f
       0.96658784 1.0092981 0.9977149 0.9902138
000080 18 d4 80 3f 0f 2f 81 3f c4 23 7d 3f 41 08 7b 3f
       1.0064726 1.0092486 0.988827 0.9805947
000090 b3 2c 7d 3f c8 73 7d 3f b6 8b 7d 3f 09 da 7c 3f
       0.9889633 0.99004793 0.99041307 0.98770195
0000a0 01 ea 7c 3f c8 b7 82 3f 0b 79 78 3f 8a e3 81 3f
       0.9879456 1.0212336 0.97059697 1.0147564
0000b0 f0 5b 81 3f d4 34 7a 3f 73 f6 7a 3f 8a f5 7d 3f
       1.0106182 0.9773686 0.980323 0.9920279
0000c0 b5 7d 7e 3f 1b ee 80 3f 20 14 80 3f 97 f5 7b 3f
       0.99410564 1.0072664 1.0006142 0.98421615
0000d0 7f ba 7f 3f 94 92 7e 3f 28 7a 80 3f fb 5e 83 3f
       0.99893945 0.9944241 1.0037279 1.0263361
0000e0 68 a5 7e 3f 76 db 7f 3f 97 9a 7f 3f f5 e3 7b 3f
       0.9947114 0.99944246 0.9984526 0.9839471
0000f0 0c c0 81 3f 98 c6 7f 3f 11 64 7e 3f 07 b1 80 3f
       1.0136733 0.99912405 0.9937144 1.0054024
000100 79 c5 7c 3f 6d 06 7f 3f 51 25 80 3f aa 98 7e 3f
       0.9873882 0.9961918 1.0011388 0.99451697
000110 67 b0 7f 3f c7 44 80 3f 1f 02 7f 3f 92 ce 7f 3f
       0.99878544 1.0020989 0.9961261 0.99924576
000120 c5 41 7b 3f c8 4b 80 3f bc b6 7f 3f 24 3a 7c 3f
       0.9814723 1.0023127 0.99888206 0.98526216
000130 a1 08 80 3f 18 da 7f 3f 9a 7e 7c 3f f7 19 7e 3f
       1.0002633 0.9994216 0.9863068 0.9925837
000140 65 ef 7f 3f ad 10 84 3f 4c 52 7b 3f a8 65 81 3f
       0.9997466 1.0317589 0.9817245 1.0109148
000150 25 36 7f 3f 1f ca 7b 3f 12 d0 7f 3f ab 87 7f 3f
       0.99691993 0.9835529 0.99926865 0.9981639
000160 aa 54 80 3f db ec 7f 3f dd 7d 7e 3f f7 d5 7c 3f
       1.0025837 0.9997079 0.994108 0.98763984
000170 8a ed 81 3f cb 7e 80 3f 43 39 77 3f 07 89 7b 3f
       1.0150616 1.0038694 0.9657175 0.9825596
000180 bc 25 81 3f f5 b4 81 3f 98 64 80 3f f7 ba 7e 3f
       1.0089641 1.0133349 1.0030699 0.99504036
000190 3c 76 7f 3f 1a 9d 7b 3f 13 9a 7e 3f ec 94 80 3f
       0.99789786 0.9828659 0.9945385 1.0045447
0001a0 1d 73 7c 3f 72 fb 7d 3f 09 7b 7c 3f b1 37 81 3f
       0.9861315 0.992118 0.98625237 1.0095121
0001b0 43 15 7a 3f b8 1d 81 3f a5 22 7b 3f d7 4c 7f 3f
       0.9768869 1.0087194 0.9809974 0.99726623
0001c0 f0 80 80 3f 22 15 7f 3f 40 55 7f 3f 09 ef 7b 3f
       1.0039349 0.9964162 0.99739456 0.98411614
0001d0 ec 7d 80 3f 95 d3 80 3f 31 45 78 3f e6 78 80 3f
       1.0038428 1.006457 0.9698058 1.0036895
0001e0 1a cb 81 3f e9 f4 7f 3f 41 49 80 3f 9b e4 80 3f
       1.0140107 0.9998308 1.0022355 1.0069765
0001f0 d9 4f 7d 3f 74 0a 81 3f c0 1b 7c 3f e0 ea 7e 3f
       0.9894996 1.0081315 0.98479843 0.9957714
000200 e4 67 7e 3f d4 89 80 3f f3 29 7f 3f b1 f8 7f 3f
       0.99377275 1.0042062 0.99673384 0.9998885
000210 42 4f 81 3f 10 da 80 3f 31 1c 83 3f 69 f6 7f 3f
       1.0102313 1.0066547 1.0242978 0.9998537
000220 b1 13 80 3f 5e ca 7c 3f 7a 8f 7f 3f b4 dd 7c 3f
       1.0006009 0.9874629 0.998283 0.9877579
000230 92 de 78 3f 73 ef 80 3f 81 43 7f 3f 04 a0 7d 3f
       0.97214615 1.0073074 0.9971238 0.9907229
000240 96 a6 7d 3f 1a 6b 7d 3f cb 70 7e 3f d9 4b 7d 3f
       0.99082315 0.9899155 0.9939086 0.9894386
000250 9e 30 7e 3f 25 37 7f 3f e3 93 7d 3f 4e 7b 80 3f
       0.99292934 0.9969352 0.9905378 1.003763
000260 c2 e0 80 3f b0 0c 7e 3f 21 64 7e 3f 44 ac 7f 3f
       1.0068591 0.9923811 0.99371535 0.9987223
000270 3f 88 7f 3f ef 83 7f 3f 88 38 81 3f b0 db 7d 3f
       0.9981727 0.9981069 1.0095377 0.9916334
000280 4c 8a 81 3f 42 02 80 3f 64 13 80 3f a3 88 7f 3f
       1.012033 1.0000689 1.0005918 0.99817866
000290 fe ab 79 3f e4 0e 7d 3f 29 b2 7d 3f 98 97 7c 3f
       0.97528064 0.98850846 0.99099976 0.98668814
0002a0 32 8b 7b 3f dc 59 7c 3f
       0.9825927 0.98574615

bn_list.0.bias f4 [170]
000000 56 f2 97 bc 62 15 67 bc 87 3d e7 3c c2 12 95 3c
       -0.018548172 -0.014104219 0.02822758 0.018197421
000010 a2 34 5f bc e9 6d 1a 3b d8 67 dc bc 5b ab 97 bc
       -0.0136233885 0.0023564047 -0.026904985 -0.018514326
000020 ec 9b 5e 3b 21 01 84 3c 04 9e dc 3c 7e 70 ee 3c
       0.0033967448 0.01611382 0.026930816 0.029106375
000030 37 1d cf 38 51 a7 bf bc 1e 7c c4 bb d5 42 3d 3d
       9.875971e-05 -0.023395212 -0.0059962412 0.046206314
000040 d1 2a 07 bc a7 5b 11 bc 16 7d 93 bb cc f5 03 bc
       -0.008249954 -0.008871949 -0.0045009954 -0.008054208
000050 31 b0 35 3c a1 8a b5 bc ba 8f 2f 3c 9d 3e 02 bd
       0.011089371 -0.02216083 0.010715419 -0.031797994
000060 df 28 8f bc f7 1a 47 bb 00 e3 99 3a 03 c8 07 3c
       -0.017475544 -0.0030381063 0.0011740625 0.008287433
000070 32 1c 17 bd 6a 54 16 bc 76 ba e6 3c fc e4 04 bc
       -0.036892124 -0.009175399 0.028165083 -0.008111235
000080 a4 3b 2c 3d 8f b7 ee 3c 0d 05 ac 3c 84 60 05 3b
       0.042049065 0.029140262 0.020998502 0.0020351717
000090 37 bf a9 3c 39 22 17 3c 56 11 ca 3c 14 ba ae bc
       0.020721061 0.009224468 0.02466647 -0.021328963
0000a0 67 72 e5 3a d4 fd 14 3c 90 cb 87 bb bd 6b 5c bc
       0.0017505408 0.0090937205 -0.0041441396 -0.013453421
0000b0 22 18 84 bc 83 6d f1 bb e9 d0 b6 bc 64 57 d5 3c
       -0.016124789 -0.007367791 -0.022316413 0.026042648
0000c0 53 30 15 3b 84 0f a6 bc fa ab 79 3c f6 b6 8c bc
       0.00227644 -0.02027107 0.015238756 -0.017177086
0000d0 32 b7 d5 3c 56 42 0d bb b7 d0 04 3d 43 5c 0f 3d
       0.02608833 -0.0021554432 0.03242561 0.035000097
0000e0 8a 54 95 bc 9e 0b 0a 3d c8 77 b9 bc 66 ec a2 bc
       -0.018228788 0.033702485 -0.022640124 -0.019888114
0000f0 09 28 d3 3b c4 f3 9c 3b b0 eb 18 3b e2 90 a8 bc
       0.0064439815 0.0047898013 0.002333384 -0.020576898
000100 c9 e7 25 bc 71 ff 4e 3c 1c 7f 92 3c 3e 98 af 3c
       -0.010126063 0.012634144 0.017882876 0.0214349
000110 84 d8 fb bb 60 b2 c9 3c b1 8b 89 bb 77 ba db bc
       -0.007685723 0.024621189 -0.0041975607 -0.026822312
000120 b5 ae 28 3c 23 82 81 3c 08 d7 31 3d 90 59 74 bc
       0.01029556 0.015809124 0.04341796 -0.0149139315
000130 34 78 95 3c 61 5c 72 bb 98 84 c0 bc cd bd a3 3a
       0.018245794 -0.0036981332 -0.023500726 0.0012492478
000140 a7 20 d4 bb 0b 9f 8e bc bd f8 4e bc 1c 57 a7 3c
       -0.006473619 -0.017409822 -0.012632546 0.02042728
000150 6f 8b 16 bc 52 e2 8d bc c1 cc 32 3d 73 8f ae 3c
       -0.009188517 -0.017319832 0.0436523 0.021308636
000160 ca e8 e3 3c 8c b7 be 3c 99 fd a4 3b 4a 89 c4 3c
       0.027820963 0.023280881 0.005035114 0.023991246
000170 a7 f5 33 3b ba ed fc 3c b4 0f 98 bc b4 cb b4 bb
       0.0027459653 0.030875076 -0.018562175 -0.0055174474
000180 29 c0 3e 3d e7 46 22 3d bf e8 1f bc 75 1b a4 3c
       0.046569977 0.0396184 -0.009760081 0.020032624
000190 fe 61 ea bb 02 66 0d 3c 94 34 72 3c 0d dc e8 3c
       -0.007152795 0.008630278 0.014783043 0.02842524
0001a0 68 2f 33 bc c6 e2 c2 ba a8 2f 9b bb a7 75 1b 3d
       -0.0109365955 -0.0014868609 -0.0047359057 0.037954
0001b0 9d 80 f8 3b 97 d2 86 bc 5d bb b3 3b 13 91 33 3c
       0.0075836913 -0.016457839 0.005484982 0.010959881
0001c0 49 8a 13 3c 1a 61 29 3c ae 31 aa 3c 56 4e dd bc
       0.009005138 0.010338092 0.020775642 -0.027014893
0001d0 d0 da 0e 3d 50 0c ed 3c 82 53 ec bc 64 43 86 3b
       0.034876645 0.028936535 -0.028848413 0.004097389
0001e0 9a 0a 8d 3c 6e 4d d0 ba 0b 81 73 3c 96 29 4e bc
       0.01721697 -0.0015892216 0.014862309 -0.012583157
0001f0 43 46 9a 3c 2c 43 47 bc 65 82 c2 bc 38 1e 02 3d
       0.018832332 -0.012162011 -0.023743818 0.0317671
000200 6e 84 79 3b fe cc 06 bd 61 34 cc 3c f6 1f e1 3c
       0.003807332 -0.03291034 0.02492732 0.02748106
000210 80 a1 65 bc b9 3c 32 3d 16 c2 a0 bb a6 2e 1f 3c
       -0.014015555 0.04351494 -0.0049059493 0.009715712
000220 a4 c9 14 3d 97 7e 36 3c 2d 01 ab 3c 7c e2 8d 3c
       0.036325112 0.01113858 0.020874584 0.01731991
000230 47 a6 64 bc 81 c6 04 bc cf 17 d0 3b 1e 33 d1 bc
       -0.013955659 -0.008103968 0.0063504945 -0.02553707
000240 e1 a5 34 3b 6d 4d 30 3c 40 fd 99 bc 75 31 a3 3b
       0.0027564692 0.010760647 -0.018797517 0.004980261
000250 1a 4f e2 3c 5a f0 f2 3c 94 aa 18 3c 82 6d ed 3c
       0.02762561 0.029655624 0.009318013 0.028982881
000260 08 e6 a5 3c 60 16 ce 3c 31 f9 83 bc 75 6c 89 3c
       0.020251289 0.025157154 -0.016110035 0.01677535
000270 de 2e e4 3c 55 a8 de 3c b3 fd 26 3d c2 af 6d bc
       0.02785438 0.027179876 0.04076929 -0.014507236
000280 15 b5 2d 3c b1 41 b0 3c b5 24 ce 3c 41 e6 80 3c
       0.010602255 0.0215157 0.025163988 0.015734794
000290 73 df 64 bb 77 66 da 3c e6 4d ab 3c c5 40 06 bd
       -0.0034923225 0.026660187 0.020911168 -0.032776613
0002a0 5e 9b cc 3b 96 6c a4 bc
       0.006244107 -0.020071309

bn_list.0.running_mean f4 [170]
000000 d0 16 49 3d b8 ea d5 bc e9 87 05 be fd 64 86 bd
       0.04909402 -0.0261129 -0.13040127 -0.06562231
000010 5b 3a a7 3c 56 f3 52 3b 2c 4c e9 3d 0c 85 c4 bd
       0.020413568 0.0032188497 0.11391482 -0.09595689
000020 ce a2 1a 3d c2 ba 0c bd 70 9d c5 3d fc 59 41 bd
       0.03775292 -0.034357794 0.096491694 -0.047204956
000030 9d aa b2 bd b2 48 28 be ce db 66 3d 83 bc db bc
       -0.08723948 -0.16433981 0.056361966 -0.026823288
000040 af 74 01 bd 94 47 7d bd a4 9f f3 ba 17 ae 32 bd
       -0.03160542 -0.06183584 -0.0018587005 -0.043623056
000050 8d ba ba bc 87 b9 7c 3c 18 34 03 be d8 7c 69 bb
       -0.022794032 0.015425093 -0.12812841 -0.0035627391
000060 fb e0 cb 3c 20 8d 8a 3d 58 4b be 3c 97 e3 cc 3c
       0.024887552 0.06765199 0.023229286 0.025010867
000070 fb 56 87 bd 6c a2 e7 bc 5b 6c 8c bd 1b 07 b8 3d
       -0.06608387 -0.028275691 -0.06856605 0.0898573
000080 6f c0 ad bd 57 00 31 bd f8 64 d9 bd 3d e2 38 bd
       -0.084839694 -0.043213215 -0.106149614 -0.045137633
000090 27 c7 76 bd e0 47 27 bd 1d 43 de bc 36 d4 87 bc
       -0.06024852 -0.04084003 -0.027131611 -0.016580682
0000a0 bf 3b f5 3d 3b fa 39 bc ee 04 19 bc 82 1e 2e 3d
       0.11974286 -0.0113511635 -0.009339554 0.042509563
0000b0 a7 f4 de 3c 31 9a bd 3c 71 66 d7 bb e6 2d 8d bc
       0.027216269 0.023144813 -0.0065734913 -0.0172338
0000c0 50 fb e4 3c 67 8e 30 3e 3b f6 86 3d 07 1a e3 3c
       0.027951866 0.17241822 0.065899335 0.027722372
0000d0 c1 c0 2f 3d 00 56 7e 3d f2 e9 b3 bd 0d e1 bf 3c
       0.042908434 0.062093735 -0.08784856 0.023422742
0000e0 2e 0a 7d 3c 72 dc 95 bd 57 1b e3 3a a5 06 aa bb
       0.015444322 -0.07317437 0.0017326873 -0.0051887804
0000f0 30 55 cc bc 5b a9 8a 3d f9 11 c7 3d 8d 25 9c 3d
       -0.024942964 0.06770583 0.09720225 0.0762435
000100 cf 3a 84 bd 31 4d dd bd a0 99 93 3d a8 06 48 bd
       -0.06456529 -0.10805739 0.07207036 -0.048834473
000110 90 92 13 3d f1 60 c3 bd c4 10 05 ba 31 ce 10 3d
       0.036028445 -0.095399745 -0.00050760456 0.03535289
000120 c7 49 c9 bd 7f c8 82 bd 96 2a d8 bd ae df 6f 3d
       -0.09828525 -0.06385898 -0.105549976 0.058562927
000130 25 50 22 bd 0c 0a 4d bd ab a9 01 bd 10 dc b5 bd
       -0.039627213 -0.05005841 -0.03165595 -0.08879864
000140 0c 0a b4 bd 44 77 f1 3b f9 47 f4 bc ae b6 1b bc
       -0.08790979 0.007368954 -0.029819475 -0.009504003
000150 63 d3 7d bd 4a 65 f2 ba aa 8f d7 bd fa f0 fe 3c
       -0.061969172 -0.0018493321 -0.105254486 0.031120766
000160 9c e4 9b 3d 33 0c 2f bc 83 bf a9 bc a3 16 6a bd
       0.07611963 -0.010684061 -0.020721203 -0.057150494
000170 7f 92 47 bd 9c b3 04 3e 49 9a 6b bd af b2 1d 3e
       -0.048723694 0.1295914 -0.057520185 0.15400194
000180 19 b3 9d 3a a3 0c 9d bd a7 17 f5 3c 47 3e 13 3d
       0.0012031525 -0.07668426 0.029918505 0.035948064
000190 7e b1 a3 3c 53 d6 ee bd da 29 75 3d 44 69 e7 3d
       0.019982096 -0.11661973 0.059854366 0.11299375
0001a0 fe 8c 12 3d 6e 89 eb bd 92 a7 85 3d b0 57 ba 3c
       0.035778992 -0.11500822 0.06526102 0.02274689
0001b0 19 91 08 3d 84 02 80 bd 0a 57 65 bb 61 b0 d0 3d
       0.0333415 -0.0625048 -0.0034994506 0.101898916
0001c0 3d 9c d3 3d 1d e6 b6 bd 64 c8 92 bd aa 19 b6 bd
       0.103325345 -0.089306094 -0.07167128 -0.08891614
0001d0 9f 3f c0 bd 77 77 ac 3c b0 6e 5d ba a5 71 d9 bb
       -0.09387135 0.021053059 -0.00084469747 -0.006635862
0001e0 7c 58 e6 3c 1a a5 93 3c 15 d6 fb 3b 74 f1 74 bd
       0.028118365 0.018023062 0.0076854327 -0.05980058
0001f0 93 aa 45 bd 68 97 1b be 5d 46 98 bd d7 2b 16 be
       -0.048258375 -0.15194476 -0.07435296 -0.14665161
000200 ba 4e 29 be ca 20 c7 bd 65 14 cc 3c 2f ff a2 3d
       -0.16533938 -0.09723051 0.024912069 0.07958829
000210 dd ab b6 3b 02 a2 c3 bd c4 82 51 3d 80 df 15 be
       0.005574687 -0.09552385 0.0511501 -0.1463604
000220 e3 a1 3e bd 58 33 5e bd 78 71 7f bd dc 1e 95 bc
       -0.046541106 -0.054248184 -0.06236407 -0.018203191
000230 ab 7e f5 bd 66 b8 c4 bc 01 93 7b 3d 10 4e b3 3d
       -0.119870506 -0.02401371 0.06141949 0.087551236
000240 dd 73 95 3c 28 1d 81 bd 17 de 7d bc e9 da c2 3d
       0.018243724 -0.06304389 -0.015494845 0.0951441
000250 d8 1e e0 bc 09 bc db 3c 20 d9 4a 3d c0 35 88 bd
       -0.027358457 0.02682306 0.049523473 -0.06650877
000260 cd bd 44 3d 32 29 17 3d 31 f7 96 3c 86 65 c1 bc
       0.04803257 0.03690452 0.018428417 -0.02360798
000270 f1 60 1a 3d eb 4e 1b 3d 23 f2 02 be cf 43 15 bd
       0.037690107 0.03791706 -0.1278768 -0.03644162
000280 76 7c 24 3c fc 47 12 bd 41 53 c4 3d e2 83 12 bd
       0.010039439 -0.03571318 0.09586192 -0.035770305
000290 74 48 03 3e f6 45 23 3d 5f b4 94 bd ab 46 93 3c
       0.12820607 0.03986164 -0.072609656 0.017978033
0002a0 c1 c0 88 3d f0 5c 9f 3c
       0.0667739 0.019453496

bn_list.0.running_var f4 [170]
000000 23 ee 87 3a b5 00 ca 39 ee 7d c8 3a 46 ea 67 3a
       0.0010370653 0.0003852897 0.0015296319 0.000884686
000010 00 35 97 3a 67 a1 2e 3a 23 87 a2 3a 69 96 6d 3a
       0.0011536181 0.0006661624 0.0012399893 0.00090632454
000020 0f 5d 84 3a 99 13 19 3a e5 40 8b 3a 6c 52 02 3a
       0.0010098534 0.0005839407 0.0010624198 0.0004971388
000030 87 fe 95 3a ef 44 de 3a 8c 90 be 3a 05 34 18 3a
       0.0011443653 0.00169578 0.0014538928 0.00058060914
000040 af d2 3a 3a c5 5c 81 3a 6c 8c af 3a 01 b9 1e 3a
       0.0007126731 0.0009869566 0.0013393289 0.00060547894
000050 bf ec 07 3a 6f d9 80 3a 2e 1a aa 3a 73 59 3a 3a
       0.0005185119 0.0009830425 0.0012977773 0.0007108666
000060 97 15 49 3a 0e d0 1c 3a 99 9f 70 3a 9a 5b 99 3a
       0.00076707586 0.00059819303 0.00091790553 0.0011700273
000070 72 4b 9b 3a a1 1f 7c 3a 60 42 49 3a 74 86 8b 3a
       0.0011848046 0.000961775 0.0007677432 0.0010644929
000080 48 b4 51 3a 9c c7 47 3a ff 89 a0 3a 46 88 99 3a
       0.0007999581 0.00076209917 0.0012248157 0.0011713586
000090 4c c0 60 3a cd d2 3f 3a d0 8b b5 3a b2 e8 89 3a
       0.00085735763 0.00073174835 0.0013850871 0.0010521619
0000a0 06 b0 b9 3a c0 5f 42 3a c9 3c ee 39 f1 13 1c 3a
       0.0014166839 0.00074147806 0.00045440186 0.0005953899
0000b0 b4 41 f7 3a 4f 38 8d 3a 93 59 39 3a 0c 82 92 3a
       0.0018864186 0.0010774228 0.00070705375 0.0011177673
0000c0 e4 d5 84 3a 39 fa eb 3a 6e b9 50 3a 29 80 8c 3a
       0.0010134545 0.0018003649 0.00079622015 0.0010719347
0000d0 2e 8e 69 3a aa de 4a 3a e1 23 50 3a dc 78 5c 3a
       0.0008909431 0.0007738868 0.00079399167 0.00084103434
0000e0 9c 47 08 3b 7c dd 78 3a e6 d3 28 3a 14 a9 3f 3a
       0.0020794636 0.0009493453 0.0006440267 0.00073112664
0000f0 3f d7 f6 39 4f 64 7a 3a 6c 3b 78 3a 3f ff 57 3a
       0.00047081147 0.00095516903 0.0009469304 0.0008239634
000100 68 de 7d 3a 49 b4 0a 3b c4 db a1 3a c8 52 25 3a
       0.0009684325 0.0021164587 0.001234882 0.0006306586
000110 80 ec 30 3a b7 5c a0 3a ab 66 a6 3a ec 44 31 3a
       0.00067491084 0.0012234662 0.0012695392 0.00067622843
000120 bf 89 a7 3a c1 8f e0 39 83 b0 9e 3a de 1a 2d 3a
       0.001278214 0.00042831714 0.0012107048 0.000660343
000130 e8 2d 9d 3a 32 61 62 3a e7 56 8f 3a ae 44 9b 3a
       0.001199183 0.0008635699 0.0010935933 0.001184603
000140 5f c2 40 3a e8 24 41 3a 28 7e e3 3a 62 8a 16 3a
       0.00073531823 0.0007367865 0.0017356323 0.00057426665
000150 dc f3 aa 3a 8d be 84 3a b5 d3 6e 3a b8 ee 2e 3a
       0.0013042646 0.0010127589 0.00091105263 0.0006673145
000160 ba 8b 98 3a 52 8e 65 3a 14 bf 68 3a 0f 91 9c 3a
       0.0011638321 0.0008756864 0.00088785705 0.0011945086
000170 87 5f 1e 3a bf f5 98 3a 26 f3 a9 3a 88 7e 13 3b
       0.00060414564 0.0011669918 0.0012966141 0.0022505838
000180 85 f1 6c 3a ab ee 82 3a da d9 24 3a 93 78 0f 3a
       0.0009038675 0.0009989341 0.0006288566 0.0005472984
000190 6c 60 39 3a 26 1d a2 3a bc 70 95 3a 74 51 c1 3a
       0.0007071558 0.0012368306 0.0011401395 0.0014749006
0001a0 fb 21 b2 3a 17 3d b1 3a 06 88 ad 3a fa 4a 06 3a
       0.0013590449 0.0013522235 0.0013239391 0.0005122867
0001b0 ab 5c 7c 3a 5b 09 c8 3a 70 7c 53 3a ef 02 b2 3a
       0.0009626846 0.0015261577 0.0008067554 0.0013581197
0001c0 2b 3b 62 3a 12 ef c9 3a a4 af f3 3a 13 70 cb 3a
       0.00086300325 0.0015406332 0.0018591774 0.0015521072
0001d0 7c 2e 63 3a af 0f 50 3a 81 25 1e 3a 41 3c 4b 3a
       0.00086662895 0.00079369074 0.000603281 0.0007752814
0001e0 15 2a 2c 3a ec ae f2 39 62 9c fd 39 cf 2e 59 3a
       0.000656755 0.00046288164 0.00048372435 0.0008284868
0001f0 e5 60 9e 3a 24 66 68 3a 67 90 86 3a 96 88 b7 3a
       0.001208332 0.0008865318 0.0010266424 0.0014002498
000200 74 dc 0d 3b 25 b1 51 3a fb 4f e9 3a 70 25 8c 3a
       0.0021646293 0.0007999114 0.0017800325 0.001069231
000210 1f 9a 05 3a c9 1d a2 3a 9d c4 34 3a c4 f4 a0 3a
       0.0005096513 0.0012368496 0.0006895753 0.0012279977
000220 f2 bc 67 3a 47 a6 82 3a 7c 57 31 3a c3 51 02 3a
       0.0008840106 0.0009967767 0.00067650503 0.000497129
000230 75 6e f3 3a b2 f4 f6 39 ba 4b 9c 3a c3 8e 99 3a
       0.0018572347 0.0004710309 0.0011924424 0.001171552
000240 0d 43 7b 3a 77 24 d0 39 8f 41 0b 3a 62 c0 49 3a
       0.00095848815 0.0003970002 0.0005312198 0.0007696209
000250 4a cc 2e 3a 65 a2 1c 3a 4e 8d 13 3a 0a 4b 5e 3a
       0.00066680147 0.00059751264 0.0005628661 0.00084798096
000260 1e 99 6b 3a 15 26 a7 3a b2 0f 25 3a fb b8 32 3a
       0.0008987355 0.0012752438 0.0006296589 0.00068177254
000270 f0 f1 35 3a 5d 82 58 3a 1d a7 a1 3a 3b 09 13 3a
       0.00069406535 0.0008259172 0.0012333129 0.00056089804
000280 6c 20 9c 3a 73 fd 85 3a 52 71 12 3b 3e b4 72 3a
       0.0011911518 0.0010222628 0.0022345376 0.00092584256
000290 89 73 8a 3a f5 7c c6 3a 46 ee 38 3a 73 db 80 3a
       0.0010562997 0.0015143441 0.00070545485 0.0009831026
0002a0 b3 c0 2b 3a c2 f7 2a 3a
       0.0006551847 0.0006521904

post_lin_list.0.weight f4 [40, 170]
000000 8a fc 12 bc f1 d1 36 bd f0 12 90 bc 52 7f 54 3c
       -0.008971343 -0.04463381 -0.017587155 0.012969809
000010 c5 ca 2e bd 46 d2 dd bc 58 28 6a bc 27 54 b1 bb
       -0.042673845 -0.027077805 -0.014291845 -0.005411643
000020 31 47 88 bd 4a b8 66 3d 07 3c 86 3d 19 00 df bc
       -0.06654204 0.056328095 0.06554418 -0.027221726
000030 93 da 98 bd 21 de 0a 3d 9a d1 ae bc 90 3f f6 3c
       -0.07463565 0.033903245 -0.02134018 0.030059606
000040 2d c2 35 bc 66 14 c7 bb ee d4 8c bd 9c 54 24 bd
       -0.011093658 -0.0060754297 -0.068765506 -0.040119752
000050 1f 8d 85 bd 08 36 69 3d 0f 77 03 bd 6f 6e ab bd
       -0.06521057 0.056936294 -0.032095965 -0.08370673
000060 ff f7 2c bd a1 46 26 bd 48 1d 60 bd 5c 87 45 3d
       -0.042228695 -0.0405947 -0.054715425 0.048224792
000070 33 43 75 3d 48 54 93 ba 63 f2 5c 3d 85 99 43 bd
       0.05987854 -0.0011240328 0.053942095 -0.04775383
000080 a1 46 ff bc 0c ae 51 bc 98 0c 58 bd 2b 2b b1 bd
       -0.031161608 -0.012797844 -0.052746385 -0.08650812
000090 d9 fc 41 bb 3d 1a 32 bd 97 00 9d bd 29 2e 82 bc
       -0.0029600172 -0.043482054 -0.07666128 -0.015891152
0000a0 95 75 a1 bc 1f 04 f4 3c 5d d2 3e 3d 49 7a a3 bd
       -0.019709388 0.029787121 0.046587337 -0.079823084
0000b0 a1 5c 27 3c 1e 67 77 3d ac 5d 85 bd d8 c1 5a bd
       0.010214956 0.060401075 -0.06512007 -0.05340752
0000c0 d2 bf a1 bd f5 8d 62 3d 84 e5 3c 3c 75 37 0f 3d
       -0.07897915 0.055311162 0.01152933 0.034964997
0000d0 a7 9d 1e bd a5 00 0a bc 46 80 16 3d cc 49 7e bd
       -0.038724568 -0.008423005 0.036743425 -0.062082097
0000e0 05 b1 de bb ca 85 a7 bd 15 86 b2 bc cc 2f 73 3c
       -0.0067960047 -0.08179815 -0.02179245 0.014842939
0000f0 67 68 22 3d 42 59 7b bd 3a 53 9a bd 84 dd 37 3d
       0.039650347 -0.06136442 -0.075354055 0.044888988
000100 cb 9c 9e bc 75 16 a2 bd 6d c1 04 3d 14 04 03 bb
       -0.019361874 -0.079144396 0.032411028 -0.0019991444
000110 6f c5 9d bd 8b ff 51 3c 90 4a 23 3d ae 1e 87 3b
       -0.07703673 0.012817274 0.03986603 0.0041235304
000120 f5 54 77 bd 50 93 c1 bc 61 42 28 bd 88 96 2d bd
       -0.060383756 -0.023629814 -0.04107893 -0.042379886
000130 cb 4d 8c bc 6e e8 4c 3d 6e 5d a1 bd 15 f5 7d 3d
       -0.017126938 0.05002635 -0.078791484 0.062001307
000140 09 ea 6a bd da 91 6e 3d 0e 66 84 3c 25 44 5f 3d
       -0.0573521 0.058244564 0.016161945 0.054508347
000150 35 44 8e bd a3 12 5c 3d 99 65 f2 3c d6 e9 29 bd
       -0.06946603 0.05372871 0.029589461 -0.04148277
000160 b6 10 3b bd 6a 9b ba 3b a4 81 47 bd 7b fa 0e 3d
       -0.045670234 0.0056947963 -0.04870762 0.034906846
000170 f0 df 9f bd 4c 4b 87 bd ee cc a1 bc 25 d3 10 bd
       -0.078063846 -0.066061586 -0.019751038 -0.035357613
000180 f3 06 20 bd d0 6f 41 3d 62 f7 de bc 84 98 e0 bc
       -0.039069127 0.047225773 -0.02721757 -0.027416475
000190 75 3e 99 3a 60 71 ff 3c 52 21 8d bb bb 68 f3 bc
       0.0011691587 0.031181991 -0.0043069506 -0.029713025
0001a0 25 43 2c 3c 37 e8 fd 3c 8c fb 8c bc de c1 80 bd
       0.010514055 0.030994518 -0.01720979 -0.06286977
0001b0 db 82 27 bd f9 bf 68 3b c7 43 81 bd e3 20 43 3d
       -0.040896278 0.0035514815 -0.063117556 0.047638785
0001c0 fd 4f 8f bd 9a 43 a4 bc d9 1d a4 bc c3 41 25 bc
       -0.069976784 -0.020051766 -0.020033764 -0.01008648
0001d0 c3 db 87 3d 4a 8e 61 bd d3 ca 51 bd e4 64 98 bd
       0.06633713 -0.055067338 -0.05121882 -0.07441118
0001e0 b6 dd df 3c 79 de a4 3c 40 cd 16 bc 8e 5e 26 3d
       0.0273274 0.020125614 -0.009204209 0.040617518
0001f0 5a 57 00 3d b3 26 7b 3d 3f 07 cc bc eb 05 9d bd
       0.031333305 0.061316203 -0.024905799 -0.076671444
000200 15 54 2d 3d ed 0c 00 bd 04 cd 67 bc b6 ec ab bd
       0.042316515 -0.031262327 -0.014148001 -0.083947584
000210 38 5a 6a bd a5 f9 57 bd 07 6e 35 bc 4b 76 82 3c
       -0.057214946 -0.052728314 -0.011073596 0.015925547
000220 ec af 41 3d 66 d0 a0 bc 32 82 7e bd 21 65 21 bc
       0.047286913 -0.019630622 -0.062135883 -0.009850771
000230 cc 43 ae 3c 51 66 88 bd 4d d6 7a bd cd 1c a7 bd
       0.021272562 -0.0666014 -0.06123953 -0.0815979
000240 00 49 a0 bd d2 7f 21 bc 0c 4d 00 3d ce ba d8 3c
       -0.07826424 -0.009857135 0.031323478 0.026456263
000250 e2 89 12 3c d4 92 d0 3c 2b ff d6 3b dc 9b 0f 3b
       0.008944007 0.025460638 0.00656118 0.0021912968
000260 03 96 e0 3c 53 fa 0b 3d 2d ea 2b bd b3 1d 41 bd
       0.027415281 0.034174275 -0.041971374 -0.047147464
000270 65 86 2d 39 08 dd 1e 3c 70 5e 9c bd f8 c2 50 bd
       0.00016548632 0.009696253 -0.076352 -0.050967187
000280 d4 53 b3 bb 1e 36 12 bc 16 14 13 bd 2b 2d cc 3c
       -0.0054726396 -0.008924035 -0.035907827 0.024923882
000290 1c a8 2b bc 2e 15 f5 3c d5 be 82 3d cc 54 20 3d
       -0.010477092 0.029917326 0.063840546 0.03914337
0002a0 57 80 fe 3c e6 24 1f bd 0a 51 98 3d bb 4c 4c 3d
       0.031067057 -0.03885355 0.07437332 0.049877863
0002b0 83 e6 c0 3c e8 06 05 3d b7 2f ae bd 7c 77 87 bd
       0.023547417 0.03247729 -0.08505195 -0.06614587
0002c0 c1 5a 7b 3d 6f 6e 34 bd a7 7b 63 bd d8 e5 12 3d
       0.061365847 -0.04405063 -0.055537846 0.035863727
0002d0 56 3c c0 bd 83 82 91 3c 40 43 b1 bd df e2 87 3d
       -0.09386508 0.017762428 -0.08655405 0.06635069
0002e0 33 d1 a4 bd 8e a7 12 3d af 88 89 bd c9 8d e6 3b
       -0.08047714 0.035804324 -0.067155235 0.007035945
0002f0 a2 42 61 bd 00 e5 87 3d be 29 39 bd c9 55 65 bd
       -0.054995187 0.06635475 -0.045205824 -0.055990014
000300 b4 b5 9f bd 6f eb 84 bd 85 e9 29 3c 26 37 e9 3c
       -0.07798329 -0.06490218 0.010370617 0.02846868
000310 99 01 21 bd 06 0f d5 bc c0 7c a7 bc 28 17 97 3c
       -0.039308164 -0.02600814 -0.020445228 0.018443659
000320 72 11 fc 3b 95 8d 80 3d c8 62 18 3d ab ea a1 bd
       0.0076925093 0.06277005 0.03720358 -0.079060875
000330 cb cb 10 3d 8e 18 8d bd 7c 6a 03 bd 3f c2 78 bd
       0.035350602 -0.06889449 -0.032083973 -0.060732123
000340 fb af fa bc b2 1b 93 3d 73 68 8d bd 3f 01 a0 bd
       -0.030601492 0.07183017 -0.06904688 -0.07812738
000350 ac 1f 37 3c 1e 3a bc 3b 88 34 85 3c 66 1e d8 bb
       0.011176985 0.005744233 0.0162604 -0.0065954207
000360 cc 8a d7 bc e7 0a 0f bd 8e 39 71 3c 3b 79 5f bc
       -0.0263113 -0.034922507 0.014723195 -0.013639743
000370 dc f5 b8 bc 4d 71 8b bd de 03 07 bd ee 3d 58 bc
       -0.022578172 -0.0680872 -0.032962672 -0.013198359
000380 4a f0 8f bd cd a2 32 bc 6a 82 49 3c f0 56 0b 3b
       -0.070282534 -0.010903073 0.01229916 0.0021261536
000390 b6 30 14 bd c3 c9 32 3d b1 dd aa bc 8d c1 38 bc
       -0.036179267 0.043649446 -0.020857664 -0.011276615
0003a0 ad 6a 81 bd ae 80 82 bd fd 51 83 bd e8 63 6f bd
       -0.06319175 -0.063722 -0.064121224 -0.058444887
0003b0 13 95 b3 bc 79 6a 91 3c b9 3a 66 3d da aa 68 bd
       -0.02192167 0.017750965 0.056208346 -0.05680356
0003c0 b1 fd 8f 39 1c c8 e2 3b 0f f3 a8 bd 94 3b 8c 3d
       0.000274641 0.0069208276 -0.08249485 0.06847301
0003d0 55 c1 0f bc 2c 62 82 3d 08 91 34 3d 7f 12 3e 3d
       -0.008774121 0.06366381 0.044083625 0.046404358
0003e0 63 9f 4a bd ce 91 72 3c 68 a4 31 3d 5b 75 eb 3b
       -0.04946841 0.01480527 0.04336968 0.0071856207
0003f0 cb f5 cc bc 54 74 fb 3c 79 d6 9d bc 99 af 62 3d
       -0.025019547 0.030695118 -0.019267308 0.055343244
