Model Results/CGCNN-GAFF/my_model.pth (torch, 371369 bytes, 140 tensors)

pre_lin_list.0.weight f4 [20, 117]
-0.048401285 -0.06426315 0.06676719 -0.045968775 -0.034647867 0.03217595 0.105522506 -0.048221678
-0.05363801 -0.03190953 0.027181271 -0.071105175 -0.023952074 -0.033523932 0.08683277 0.025941752
0.036370438 -0.06456555 -0.07192885 0.058037348 0.05885712 0.0478706 0.015470315 -0.025989989
-0.024444208 -0.03752169 -0.062757 -0.043535914 -0.040447626 -0.08052443 9.529205e-05 -0.041991822
-0.059564985 -0.039697632 0.061814666 -0.039416824 -0.060617134 -0.030238587 -0.07412636 0.010749668
-0.07280662 0.054837532 -0.036591727 0.014816236 -0.06406395 0.089351706 -0.012175772 0.021152511
-0.0048888624 -0.05258769 0.030662544 0.07229412 -0.0011616908 -0.059248213 -0.07494207 -0.021393307
0.05743178 0.02842477 -0.07281751 -0.034374848 -0.042557325 -0.04030804 -0.0074665584 0.0003739338
0.034641437 0.057354666 0.005466668 -0.045875773 0.0482272 -0.018416911 0.07848311 0.017752752
-0.063913174 0.05391241 -0.085178494 -0.06138388 0.067366935 0.06900612 -0.08261598 -0.04462668
-0.0007562288 -0.08052254 0.028814219 -0.091235176 0.035244875 0.0022068964 -0.082280055 0.018315002
-0.044705294 0.06548815 0.033903383 -0.023412969 0.08711492 -0.06661318 -0.054609958 -0.025923736
0.054212417 0.015692687 0.021075122 0.036329933 -0.035909 -0.0014104247 -0.089844294 0.00090245507
0.0023317572 -0.0012041463 0.0016953746 0.076733254 -0.010375235 -0.006742075 -0.020853354 -0.068994224
0.044778742 0.04153224 -0.021731274 -0.082394466 0.057730872 0.09815802 0.009583537 -0.0680681
0.05871261 0.055860966 -0.0203182 -0.14112115 -0.10226982 -0.061230425 0.06478251 -0.030107418
0.0320841 -0.027628511 0.101500556 0.00016591542 0.012995226 0.0134571465 0.025120422 0.008192301
0.00080143183 0.08687035 0.037614696 -0.052400906 0.035049103 0.021813706 -0.0325762 0.008490816
0.017694145 -0.07206499 0.037134178 -0.012596202 -0.08969831 0.079353236 0.04140248 -0.06358507
-0.0010847556 0.01087435 -0.054275867 -0.015267417 -0.017428098 -0.05806235 0.041079022 -0.0893957
-0.06796751 0.019710049 -0.08707011 -0.04028999 -0.028034069 0.023078334 -0.03591474 0.015576852
-0.044481166 0.02472394 -0.0004909511 0.07304611 0.08043389 -0.0015078946 -0.08149014 0.058874212
0.053333722 0.07985542 0.011101387 0.04396805 0.01743455 -0.06455442 0.072508164 0.09017054
0.05949999 0.038405187 -0.0653334 0.02579049 0.07706473 -0.012736861 -0.03108637 -0.07423587
0.07922932 0.039580043 -0.044368125 0.043987393 -0.026003461 0.0037049847 -0.012635179 0.011039558
0.045058124 -0.07914092 -0.068318576 0.029355535 -0.037112616 0.053580094 0.053861134 -0.003639794
0.08359945 0.06681872 0.06591041 -0.021618009 -0.0051380135 0.026547655 -0.03151734 0.08967901
0.044600684 0.00012721645 -0.03416225 -0.048223957 -0.045897026 -0.0766564 0.023289142 0.10621238
-0.08480823 0.077837 0.082232274 -0.052846197 -0.058602054 0.08692521 0.081170104 0.06534084
0.03175946 0.061656866 -0.06585543 0.03491225 0.035845026 0.05956353 -0.016679436 -0.0812003
0.12688449 0.007979721 -0.08572561 -0.03744865 0.03739112 -0.08456383 -0.027307563 -0.025150001
0.00082494767 0.05035504 0.021813769 0.0653246 0.03766059 -0.023546502 0.08868733 -0.04852175
00000000: 6d40 46bd 669c 83bd 3dbd 883d c149 3cbd
00000010: ecea 0dbd eeca 033d 2f1c d83d 1884 45bd
00000020: 88b3 5bbd 91b3 02bd 42ab de3c 979f 91bd
00000030: 2437 c4bc 6450 09bd 61d5 b13d cc83 d43c
00000040: 2bf9 143d f13a 84bd 6f4f 93bd 92b8 6d3d
00000050: 2a14 713d f613 443d 3477 7d3c f5e8 d4bc
00000060: 383f c8bc 58b0 19bd be86 80bd b752 32bd
00000070: 69ac 25bd fee9 a4bd 88d7 c738 9eff 2bbd
00000080: 6afa 73bd fc99 22bd 6031 7d3d 8973 21bd
00000090: ac49 78bd eab6 f7bc 90cf 97bd 601f 303c
000000a0: a31b 95bd 529d 603d 35e1 15bd ccbf 723c
000000b0: f633 83bd 07fe b63d e47c 47bc 0848 ad3c
000000c0: c032 a0bb 3166 57bd 0430 fb3c f10e 943d
000000d0: e043 98ba 41ae 72bd 3a7b 99bd 0441 afbc
000000e0: 963d 6b3d 10db e83c 5921 95bd a4cc 0cbd
000000f0: 9750 2ebd 0b1a 25bd 08aa f4bb 8c0c c439
00000100: 2ee4 0d3d baec 6a3d bc21 b33b 3ce8 3bbd
00000110: e289 453d 10df 96bc c1bb a03d 386e 913c
00000120: e9e4 82bd 42d3 5c3d 1072 aebd aa6d 7bbd
00000130: adf7 893d 1553 8d3d 9132 a9bd 77ca 36bd
00000140: a83d 46ba 00e9 a4bd cc0b ec3c 82d9 babd
00000150: ee5c 103d 94a1 103b 7282 a8bd 5809 963c
00000160: e61c 37bd a71e 863d 46de 0a3d 8ecc bfbc
00000170: 4f69 b23d 7e6c 88bd b1ae 5fbd 045e d4bc
00000180: d70d 5e3d f38d 803c bca5 ac3c b2ce 143d
00000190: 5115 13bd 00de b8ba 4900 b8bd bc92 6c3a
000001a0: 65d0 183b 72d4 9dba 5537 de3a 5326 9d3d
000001b0: e4fc 29bc a0ec dcbb a7d4 aabc d84c 8dbd
000001c0: ea69 373d b61d 2a3d c905 b2bc 6ebe a8bd
000001d0: 3577 6c3d 1207 c93d 4404 1d3c 4a67 8bbd
000001e0: a27c 703d 78ce 643d 5b72 a6bc 1082 10be
000001f0: d772 d1bd c1cc 7abd b1ac 843d d5a3 f6bc
00000200: 9e6a 033d 3055 e2bc 86df cf3d 95f9 2d39
00000210: eee9 543c 5d7b 5c3c 58c9 cd3c 0039 063c
00000220: 2e17 523a 15e9 b13d de11 1a3d 55a2 56bd
00000230: a68f 0f3d a8b2 b23c 9f6e 05bd 101d 0b3c
00000240: 50f3 903c cf96 93bd 021a 183d 4d60 4ebc
00000250: bfb3 b7bd f383 a23d a695 293d e438 82bd
00000260: 5c2e 8eba 542a 323c 5f50 5ebd 3024 7abc
00000270: 5fc5 8ebc c9d2 6dbd 7a42 283d 1815 b7bd
00000280: 8d32 8bbd f876 a13c d051 b2bd 1e07 25bd
00000290: b4a7 e5bc c60e bd3c 561b 13bd 0d36 7f3c
000002a0: e231 36bd dc89 ca3c 2cb3 00ba 3399 953d
000002b0: 86ba a43d 8ca4 c5ba 4de4 a6bd 1626 713d
000002c0: 7674 5a3d 3d8b a33d 98e2 353c d817 343d
000002d0: e7d2 8e3c 1c35 84bd 297f 943d 55ab b83d
000002e0: 43b6 733d c24e 1d3d 85cd 85bd 9446 d33c
000002f0: 1dd4 9d3d 44ae 50bc d8a8 febc fa08 98bd
00000300: fb42 a23d af1e 223d 5abb 35bd 202c 343d
00000310: 3605 d5bc 54cf 723b c803 4fbc 43df 343c
00000320: de8e 383d a214 a2bd 9cea 8bbd 057b f03c
00000330: 6603 18bd cd76 5b3d 7e9d 5c3d 9c89 6ebb
00000340: 3036 ab3d 41d8 883d 09fc 863d 4018 b1bc
00000350: c85c a8bb 787a d93c 5418 01bd a1a9 b73d
00000360: 35af 363d 6865 0539 b7ed 0bbd 7c86 45bd
00000370: 85fe 3bbd 08fe 9cbd dfc8 be3c e085 d93d
00000380: f0af adbd 0169 9f3d 6569 a83d 4175 58bd
00000390: b508 70bd d805 b23d 833c a63d 6bd1 853d
000003a0: 3516 023d e98b 7c3d 36df 86bd 2600 0f3d
000003b0: 3cd2 123d e3f8 733d 50a3 88bc 584c a6bd
000003c0: 02ee 013e 60bd 023c e990 afbd c163 19bd
000003d0: 6e27 193d cd2f adbd 1cb4 dfbc 6007 cebc
000003e0: 4d41 583a 1641 4e3d cab2 b23c e7c8 853d
000003f0: fe41 1a3d 98e4 c0bc b4a1 b53d bebe 46bd

pre_lin_list.0.bias f4 [20]
-0.05466847 0.07921071 0.0129861515 0.074664764 0.06526367 -0.0020575055 -0.04700571 0.024256105
-0.08621107 0.05040465 0.042761803 -0.03765634 0.12350938 -0.057956003 0.033403967 0.04700085
-0.030184772 -0.046980433 0.08962332 -0.0818826
00000000: 0cec 5fbd 3a39 a23d dec3 543c d7e9 983d
00000010: f6a8 853d 37d7 06bb 0f89 40bd bdb4 c63c
00000020: 6e8f b0bd 1b75 4e3d 0027 2f3d 893d 1abd
00000030: 7cf2 fc3d 4663 6dbd 99d2 083d f783 403d
00000040: 0e46 f7bc 8e6e 40bd 6e8c b73d 11b2 a7bd

conv_list.0.lin_f.weight f4 [20, 90]
0.027010893 -0.0116465455 -0.009338964 0.012729922 0.06841193 0.022044808 -0.02838882 0.05119518
-0.040527277 0.08688456 -0.008362088 0.0012471094 0.082051866 -0.002339782 -0.04128178 0.07885527
0.008838322 -0.07910203 -0.06256835 -0.006000584 0.07276282 0.07519617 0.051360063 0.002619857
0.1182167 -0.033600595 -0.10931492 -0.01631165 -0.06718087 0.06392806 0.024771556 -0.05014733
0.04599658 -0.008203752 -0.06066716 -0.08595678 -0.013123522 0.10858732 0.036258716 -0.0926972
-0.00248097 0.07734402 -0.10280712 0.08854021 -0.05738818 -0.06510974 0.06547063 0.048279643
0.083780564 0.0190721 -0.07449893 -0.06168783 0.0014749629 0.089416094 0.08129303 0.114314355
0.023483627 0.097176 -0.045637473 -0.032652885 0.060501747 0.00066836935 -0.076108634 0.038388804
0.02631184 0.021736048 -0.031737447 0.07010993 -0.014262023 0.031508487 0.073298514 -0.060150027
-0.018904233 -0.049701396 -0.052151714 -0.022894247 -0.01101049 -0.037941474 0.068155974 -0.059900045
-0.066666305 0.11644358 -0.027417535 -0.015735082 0.082398206 0.091946304 0.061276834 -0.0047663506
0.15766905 0.17394215 0.09914394 0.110823624 -0.019009784 0.03325367 0.028708491 -0.10710486
0.013970256 -0.04426335 0.074424155 0.006135773 0.080351785 0.052156057 0.033548865 -0.013173797
0.03270676 -0.054650746 -0.061448876 -0.05832407 -0.06006279 0.036413617 0.016190622 0.083081886
0.019756336 -0.05233823 -0.048244342 0.044950847 0.008068513 0.011888123 0.022501774 0.04389071
-0.07718438 -0.051213317 0.008846824 0.062910825 -0.04664339 0.051433485 -0.06238557 -0.1550513
-0.036130566 -0.07500977 -0.07736591 -0.11492681 0.075410254 -0.046574086 -0.04082392 -0.08567351
0.005856514 -0.005686903 -0.07778923 0.02561113 -0.05427688 0.053031225 -0.019227916 0.0856259
-0.047221318 0.030610979 0.027035687 -0.09158693 -0.09586562 0.08496721 -0.04884114 0.016014487
-0.03140428 0.054382715 0.105738804 -0.026712338 -0.07162743 0.0683448 0.10678561 0.010390014
-0.023604872 -0.033886 -0.0011566248 0.020687891 -0.0045865364 -0.09017974 -0.06945484 -0.041001998
-0.09052122 -0.047541477 0.103582345 0.03653554 -0.03975689 -0.016108379 -0.045099434 0.07390642
0.018622784 0.08514671 -0.06954268 -0.001505036 0.0005830297 -0.072820865 -0.07125389 -0.118579246
-0.044548497 0.076463334 -0.06337666 -0.09783381 0.025104873 -0.12381342 -0.03801595 -0.1111731
0.11074671 0.03978999 0.04216498 -0.110819116 0.05861086 0.09371665 0.060931846 -0.06481042
0.0026374853 -0.0072475187 -0.059754413 -0.07081604 0.07832187 -0.09743552 0.06627534 0.038331702
-0.063380316 0.06290121 0.0610175 -0.041686084 -0.028692137 -0.021467075 -0.09321831 -0.030390248
-0.07569462 0.058206324 -0.059700258 0.10185183 0.06106796 0.015647346 -0.064093515 0.016930286
0.015646148 0.10083042 0.0981768 -0.09520816 0.044992737 0.010204619 0.049434047 0.06366655
0.030731099 -0.09147637 -0.080678694 -0.0007927626 -0.09351029 0.013856277 0.05688848 0.08764161
-0.092127495 0.06612598 0.052802227 0.048703197 -0.074286334 -0.029649936 0.05993365 -0.05381062
0.039584704 -0.004426662 -0.084203355 0.09850105 -0.06749425 0.07098262 -0.09805948 0.0782017
00000000: f345 dd3c 27d1 3ebc 7402 19bc 2a91 503c
00000010: 8e1b 8c3d 5097 b43c ac8f e8bc 09b2 513d
00000020: eeff 25bd 88f0 b13d 2401 09bc 0c76 a33a
00000030: cf0a a83d 0757 19bb 1517 29bd df7e a13d
00000040: 9cce 103c 3f00 a2bd d623 80bd 8ca0 c4bb
00000050: ac04 953d 7300 9a3d ee5e 523d e8b1 2b3b
00000060: 991b f23d c7a0 09bd 80e0 dfbd 02a0 85bc
00000070: 2096 89bd b7ec 823d b8ed ca3c 4967 4dbd
00000080: e966 3c3d 0869 06bc 217e 78bd 1c0a b0bd
00000090: 0a04 57bc 0763 de3d 0584 143d 08d8 bdbd
000000a0: c597 22bb 8b66 9e3d 8a8c d2bd 9254 b53d
000000b0: de0f 6bbd 4158 85bd 7715 863d e0c0 453d
000000c0: 2595 ab3d 183d 9c3c e592 98bd 61ac 7cbd
000000d0: 8b53 c13a c91f b73d f67c a63d a51d ea3d
000000e0: bc60 c03c 3604 c73d 5cee 3abd 08bf 05bd
000000f0: aed0 773d 8235 2f3a d8de 9bbd 943d 1d3d
00000100: ee8b d73c cc0f b23c 20ff 01bd cc95 8f3d
00000110: 43ab 69bc 0b0f 013d 881d 963d e05f 76bd
00000120: 0ddd 9abc b193 4bbd 099d 55bd b78c bbbc
00000130: 5865 34bc 8568 1bbd 5c95 8b3d c059 75bd
00000140: 5888 88bd f979 ee3d bd9a e0bc dce6 80bc
00000150: 64c0 a83d 584e bc3d 6bfd 7a3d 0c2f 9cbb
00000160: ff73 213e e41d 323e fa0b cb3d 7ff7 e23d
00000170: 68ba 9bbc 0035 083d 122e eb3c cb59 dbbd
00000180: 80e3 643c 7d4d 35bd b16b 983d 980e c93b
00000190: 7a8f a43d 97a1 553d 896a 093d e9d6 57bc
000001a0: 86f7 053d 76d9 5fbd d1b1 7bbd 38e5 6ebd
000001b0: 6604 76bd 7226 153d 32a2 843c d626 aa3d
000001c0: 0ad8 a13c 9d60 56bd dc9b 45bd 611e 383d
000001d0: cc31 043c 67c6 423c a455 b83c bfc6 333d
000001e0: d812 9ebd 0ec5 51bd 45f2 103c 64d7 803d
000001f0: 240d 3fbd ebab 523d 0388 7fbd c5c5 1ebe
00000200: a5fd 13bd b99e 99bd 0572 9ebd bf5e ebbd
00000210: b170 9a3d 78c4 3ebd fc36 27bd 9875 afbd
00000220: 00e8 bf3b 3359 babb f64f 9fbd 6fce d13c
00000230: 6f51 5ebd 4537 593d dd83 9dbc a25c af3d
00000240: 246b 41bd e0c3 fa3c f279 dd3c ee91 bbbd
00000250: 3255 c4bd 4a03 ae3d a60d 48bd d030 833c
00000260: c6a1 00bd 69c0 5e3d 968d d83d d5d3 dabc
00000270: 67b1 92bd 5cf8 8b3d 6ab2 da3d e13a 2a3c
00000280: 015f c1bc 0ccc 0abd e399 97ba a779 a93c
00000290: a84a 96bb 28b0 b8bd 573e 8ebd b6f1 27bd
000002a0: 3063 b9bd daba 42bd fb22 d43d 4aa6 153d
000002b0: 1fd8 22bd b8f5 83bc 2fba 38bd 405c 973d
000002c0: cf8e 983c 6661 ae3d 656c 8ebd a144 c5ba
000002d0: 76d6 183a 1b23 95bd 8fed 91bd add9 f2bd
000002e0: 7c78 36bd cf98 9c3d 9fcb 81bd 185d c8bd
000002f0: bca8 cd3c e491 fdbd 9db6 1bbd b9ae e3bd
00000300: 2ccf e23d d4fa 223d 30b5 2c3d 22f5 e2bd
00000310: f111 703d 84ee bf3d ac93 793d 53bb 84bd
00000320: a9d9 2c3b 987c edbb 0bc1 74bd 0008 91bd
00000330: 3767 a03d 468c c7bd 5ebb 873d b401 1d3d
00000340: 8acd 81bd 59d2 803d 7ced 793d 07bf 2abd
00000350: c60b ebbc b8db afbc 3ee9 bebd f8f4 f8bc
00000360: c805 9bbd c169 6e3d 4288 74bd b197 d03d
00000370: 6622 7a3d dd2e 803c 7643 83bd 62b1 8a3c
00000380: 5a2c 803c 2e80 ce3d eb10 c93d 7ffc c2bd
00000390: 4e4a 383d 4631 273c 5b7b 4a3d 9c63 823d
000003a0: c9bf fb3c f757 bbbd df3a a5bd 66d1 4fba
000003b0: 5382 bfbd 7005 633c e503 693d 727d b33d
000003c0: 57ad bcbd 0f6d 873d 2647 583d 017d 473d
000003d0: 6f23 98bd 6ce4 f2bc fd7c 753d 8668 5cbd
000003e0: 9223 223d 880d 91bb cf72 acbd ebba c93d
000003f0: 6d3a 8abd 565f 913d 69d3 c8bd 3628 a03d

conv_list.0.lin_f.bias f4 [20]
0.063815385 -0.113493666 -0.007702341 -0.0006737355 0.06280372 -0.05704439 -0.026841838 0.0614567
0.10385656 0.0020724963 0.08289667 -0.01760365 -0.0018893755 -0.035677258 -0.119244024 -0.025629248
-0.064298905 -0.10608773 0.050272394 0.014061215
00000000: a4b1 823d 5e6f e8bd eb63 fcbb a09d 30ba
00000010: 3d9f 803d 61a7 69bd 6ae3 dbbc 05ba 7b3d
00000020: c0b2 d43d b8d2 073b bbc5 a93d 8835 90bc
00000030: eca4 f7ba 5122 12bd 3636 f4bd 6ef4 d1bc
00000040: 25af 83bd 8644 d9bd 6dea 4d3d 0361 663c

conv_list.0.lin_s.weight f4 [20, 90]
0.08863498 0.09626196 -0.03657148 -0.093066916 -0.06386801 -0.00028342163 -0.0154613145 0.07186464
-0.07880997 0.057101402 -0.06579035 -0.06031908 0.058620844 0.07412325 0.08770315 -0.115703695
0.059594333 -0.032154836 -0.022615016 -0.08362789 0.10367476 -0.11464686 0.006048507 0.03968913
-0.051811483 0.042487517 -0.10885771 0.07230802 -0.038940802 -0.012351597 0.09639968 0.035017822
-0.060947705 0.12846422 0.050296005 -0.03669957 0.0034723144 0.103633 0.09011468 0.033111893
0.04546551 -0.058454238 -0.11071716 -0.07593769 0.030214174 -0.003500005 -0.081779115 0.106193595
-0.03827193 -0.078697495 -0.0597462 -0.04937599 -0.082394935 0.091726646 -0.022532817 0.07534503
0.05706159 -0.047016367 0.023145085 -0.0029825193 0.016631803 -0.07633818 -0.056661453 -0.005708469
0.039966427 -0.08845218 -0.09999323 0.010063939 -0.11897953 0.040619567 -0.009010514 -0.099949144
-0.02627866 -0.05909964 -0.05014142 0.03976546 0.004501878 0.06598841 -0.06991169 0.042621884
0.0031562564 -0.0030016694 0.044597972 0.04846099 0.040193453 0.05632385 0.08375398 0.045434803
0.023895456 0.136962 0.09656912 -0.005186218 0.045428604 0.07015168 0.037285246 -0.08527064
-0.07522597 0.06531928 -0.07823185 -0.043877766 -0.08013624 -0.08527655 0.10460421 0.012196538
0.07946589 0.005355139 -0.11511801 0.015268051 0.110399395 0.071243726 0.013161838 0.005927157
0.044740316 -0.082123354 -0.067592315 -0.057818756 -0.067487635 -0.024949122 -0.07183656 -0.010318433
-0.046978522 -0.0062960596 0.10946095 0.0480282 0.06741089 -0.007264641 -0.06902527 0.0075129587
0.019123914 -0.010267803 0.079477735 0.08307098 0.06616858 -0.0049984246 -0.0913806 -0.06972511
-0.041167807 -0.040924482 -0.065779686 0.0061550876 0.041897263 -0.018800251 0.0724736 0.02968998
0.04683374 0.00938 0.0384271 -0.059188817 -0.0064794295 -0.09285061 0.041753866 -0.066501535
0.0250363 -0.030976722 0.05408791 0.08073801 0.041106254 0.021652108 0.08005548 0.096879914
0.07611557 -0.03645198 0.02009591 -0.0035122782 -0.07619195 0.054309607 0.011841076 0.041842572
-0.07984695 -0.006577681 -0.07735296 -0.083905615 -0.07826615 -0.050043542 0.033582743 -0.08932564
0.061584663 -0.09402915 -0.07266605 -0.10045923 0.015051605 0.01663122 -0.020050386 -0.013270533
0.004738338 0.019092798 0.063227855 -0.0929641 -0.054993358 0.010639975 0.041184697 0.0002442861
0.1044647 -0.056463443 0.06321749 -0.08024196 -0.07308689 0.055023354 0.08858238 0.029409451
-0.05498414 0.016087813 -0.113433234 -0.08660629 0.03214644 0.043880947 0.09264766 -0.059152994
0.05684028 0.05368525 -0.049453564 0.04909399 -0.04141561 -0.10820809 -0.073204465 0.049909372
0.074798994 0.009578206 -0.061432574 0.064968415 0.09946591 0.10915493 -0.035976466 -0.071403764
0.09947534 -0.09133243 0.07187282 -0.047822505 -0.059801795 -0.089407936 -0.0023442279 0.08106004
-0.10516294 -0.012076898 -0.09508526 -0.0019276565 -0.038559724 0.0077010184 -0.059116017 -0.031511106
0.081653185 -0.026689945 -0.09532023 0.05094027 0.048878495 0.039145533 0.073492035 -0.0967682
0.07282669 -0.0395543 0.06192191 -0.053685974 -0.0670314 0.09089547 -0.035477992 -0.0076729977
00000000: 4286 b53d fe24 c53d facb 15bd de99 bebd
00000010: 3bcd 82bd 3598 94b9 7451 7dbc c52d 933d
00000020: 1f67 a1bd 29e3 693d 17bd 86bd 2411 77bd
00000030: 691c 703d eecd 973d b69d b33d 0ff6 ecbd
00000040: 3019 743d cab4 03bd 2043 b9bc 1945 abbd
00000050: 6f53 d43d f9cb eabd 8e32 c63b 1291 223d
00000060: 4738 54bd 6407 2e3d cbf0 debd 3a16 943d
00000070: 6480 1fbd 5a5e 4abc 326d c53d d96e 0f3d
00000080: 4da4 79bd 208c 033e 2f03 4e3d 4a52 16bd
00000090: c58f 633b 8a3d d43d 0c8e b83d 56a0 073d
000000a0: 0b3a 3a3d b66d 6fbd aebf e2bd 3885 9bbd
000000b0: b783 f73c 5760 65bb cf7b a7bd 077c d93d
000000c0: 07c3 1cbd 272c a1bd 6eb8 74bd 7a3e 4abd
000000d0: adbe a8bd 2edb bb3d be96 b8bc 7f4e 9a3d
000000e0: 6ab9 693d 3c94 40bd c39a bd3c 5f76 43bb
000000f0: 6b3f 883c 3157 9cbd d715 68bd 1c0e bbbb
00000100: d6b3 233d 6b26 b5bd 40c9 ccbd 38e3 243c
00000110: 8aab f3bd b460 263d d6a0 13bc 23b2 ccbd
00000120: 5846 d7bc 7712 72bd 1761 4dbd 1be1 223d
00000130: 7d84 933b ee24 873d dc2d 8fbd 4994 2e3d
00000140: 32d9 4e3b a8b7 44bb 5dac 363d 087f 463d
00000150: e4a1 243d d6b3 663d 3587 ab3d d819 3a3d
00000160: 67c0 c33c c43f 0c3e 08c6 c53d 26f1 a9bb
00000170: 5813 3a3d afab 8f3d 6ab8 183d 60a2 aebd
00000180: 1310 9abd 1dc6 853d 0538 a0bd 2cb9 33bd
00000190: 781e a4bd 79a5 aebd bb3a d63d fdd3 473c
000001a0: 03bf a23d 297a af3b fec2 ebbd d926 7a3c
000001b0: 1419 e23d 3be8 913d c0a4 573c 9938 c23b
000001c0: 9f41 373d 4a30 a8bd d76d 8abd 5cd3 6cbd
000001d0: f536 8abd 1a62 ccbc 0c1f 93bd a50e 29bc
000001e0: 8d6c 40bd 2d4f cebb 102d e03d 38b9 443d
000001f0: b80e 8a3d 3a0c eebb 1f5d 8dbd 442f f63b
00000200: c1a9 9c3c 4a3a 28bc 39c5 a23d 1e21 aa3d
00000210: 6483 873d d3c9 a3bb c125 bbbd 0acc 8ebd
00000220: 939f 28bd 6ea0 27bd 80b7 86bd 9eb0 c93b
00000230: 779c 2b3d fc02 9abc 0a6d 943d 6738 f33c
00000240: bcd4 3f3d 92ae 193c bc65 1d3d f96f 72bd
00000250: 6551 d4bb 7628 bebd 1a06 2b3d f531 88bd
00000260: ed18 cd3c e5c2 fdbc 498b 5d3d f859 a53d
00000270: 085f 283d c35f b13c 21f4 a33d fa68 c63d
00000280: 7be2 9b3d ac4e 15bd 2ea0 a43c 402e 66bb
00000290: 860a 9cbd c073 5e3d 1301 423c 1e63 2b3d
000002a0: cc86 a3bd 9689 d7bb 3b6b 9ebd b5d6 abbd
000002b0: 014a a0bd 75fa 4cbd 0f8e 093d 5cf0 b6bd
000002c0: 3340 7c3d 5b92 c0bd f0d1 94bd 92bd cdbd
000002d0: 029b 763c 323e 883c b540 a4bc a66c 59bc
000002e0: 0f44 9b3b 8068 9c3c 9b7d 813d f663 bebd
000002f0: b740 61bd 4a53 2e3c 49b1 283d 8613 8039
00000300: 97f1 d53d 3646 67bd 2c78 813d e655 a4bd
00000310: 94ae 95bd 2b60 613d ae6a b53d 17ec f03c
00000320: 0d37 61bd 97ca 833c af4f e8bd a35e b1bd
00000330: fcab 033d 82bc 333d 0ebe bd3d 694a 72bd
00000340: 5ad1 683d 11e5 5b3d d28f 4abd c816 493d
00000350: 6aa3 29bd 349c ddbd 39ec 95bd c56d 4c3d
00000360: 3730 993d e8ed 1c3c b9a0 7bbd 290e 853d
00000370: c8b4 cb3d 9f8c df3d 0f5c 13bd 233c 92bd
00000380: bab9 cb3d 7f0c bbbd 0f32 933d 88e1 43bd
00000390: baf2 74bd 821b b7bd 9ea1 19bb ce02 a63d
000003a0: ab5f d7bd 2ede 45bc 10bc c2bd 6ba9 fcba
000003b0: cdf0 1dbd d358 fc3b a323 72bd ca11 01bd
000003c0: c939 a73d dfa4 dabc 4137 c3bd bfa6 503d
000003d0: d134 483d 1157 203d fe82 963d 682e c6bd
000003e0: 2926 953d b103 22bd d4a1 7d3d d3e5 5bbd
000003f0: c247 89bd 6727 ba3d 5f51 11bd c56d fbbb

conv_list.0.lin_s.bias f4 [20]
0.0491989 -0.027468417 -0.007032774 -0.025327478 -0.064024426 -0.060797192 0.008965949 -0.07589453
0.01695495 0.029106222 -0.107853495 -0.021249888 0.044658985 0.004120645 0.105110094 -0.024090791
-0.13536057 0.053701967 -0.0659219 -0.007792948
00000000: c984 493d 7205 e1bc 2f73 e6bb 927b cfbc
00000010: 3d1f 83bd 7a06 79bd eae5 123c 976e 9bbd
00000020: 1be5 8a3c 2c70 ee3c 4be2 dcbd 3f14 aebc
00000030: 57ec 363d 7a06 873b f643 d73d 0d5a c5bc
00000040: f69b 0abe 98f6 5b3d 1002 87bd fc5b ffbb

conv_list.1.lin_f.weight f4 [20, 90]
0.006699192 0.108735345 0.07748264 0.06800912 -0.04565914 -0.06396624 0.0032800166 0.0025503195
0.0834864 -0.11275598 -0.040469732 0.07088542 -0.084542416 0.082222976 -0.07671438 0.040290058
-0.016266568 0.06835954 0.06387427 -0.08157982 0.0913508 -0.107105285 -0.068072975 0.01485337
0.004465466 0.054645024 -0.11152853 0.06450511 -0.036870427 -0.08366167 0.033537574 -0.0550007
-0.11163234 -0.012419025 0.06725817 0.02631908 0.06738068 0.016216302 -0.032491785 0.07669364
-0.013283022 -0.017507192 -0.11043848 -0.0047569964 0.014934169 -0.041359607 -0.09100362 -0.006574556
0.063983366 0.053250518 0.027950568 -0.020940714 -0.044623923 -0.0036758669 0.03704337 -0.016759057
-0.020402687 -0.07486512 0.020261874 0.023572326 -0.0020958986 0.041100066 -0.11466087 -0.033174843
0.0003040269 0.063290335 0.05527541 -0.1041093 -0.011886229 0.0057534482 -0.14415433 -0.07403875
-0.13549732 -0.07003273 -0.11579842 -0.067879856 0.0099331895 -0.08232644 -0.08915081 0.019173093
0.010577768 0.027913272 0.01788 0.053992923 0.04481455 0.05257262 0.121173255 0.028835203
0.1090158 -0.056432024 0.047023997 -0.17937076 -0.053155918 -0.06174993 0.007211452 0.045908056
-0.016851885 0.09776845 -0.09478979 -0.102293074 0.0071136933 0.119811155 -0.03856816 -0.052763235
0.07591118 -0.023656433 0.06967847 -0.038848672 -0.10615055 -0.013292734 0.09968189 0.062843286
0.082119495 0.038635902 -0.09526819 0.050267793 0.07374344 -0.08672043 -0.09522677 -0.08519421
0.0013357223 0.057172902 -0.014497399 -0.044806074 0.086367555 -0.026234923 -0.10897943 0.027102204
-0.053433083 -0.07131645 0.07782621 -0.050071012 0.12207564 0.056172214 0.026255 0.101597324
0.00049871794 -0.07021681 0.030132823 0.064355455 -0.03117594 0.022600932 0.052021366 0.12990083
-0.03919181 0.1279443 0.014217792 0.12176511 0.014222464 0.11834552 0.11344215 0.11187562
-0.0045574005 0.111894615 -0.0149211595 0.045348775 -0.0696368 -0.061621238 0.11669416 0.11719709
0.014105441 0.068836905 -0.040742155 0.017919226 -0.09494071 0.045154557 0.03552701 0.018563502
-0.018171214 0.093051665 0.06862209 -0.093354374 -0.062421504 0.09009 0.06583158 -0.046721414
0.054802958 -0.006061296 0.04091171 0.09832355 -0.006644674 -0.0442088 -0.06452242 -0.016351115
-0.0041822754 0.018449334 -0.0036071003 -0.08106759 -0.018473526 0.024791658 -0.013758485 0.043158412
-0.027503265 -0.051512517 -0.03544887 -0.016078472 0.06468976 0.00044765224 -0.09919537 -0.06669335
-0.0975449 -0.06338887 0.11442789 0.027895235 -0.07112101 -0.10375233 0.09262178 -0.0074122497
-0.06263175 -0.08002897 0.061347753 0.036098793 0.05817259 -0.047595967 -0.082733035 -0.04180121
0.09977601 0.013114686 -0.10369884 0.09304114 0.019692933 0.002340844 -0.07757669 0.097012006
0.058346204 -0.059839163 -0.00063505233 -0.08247972 -0.030648189 0.103144795 0.06506653 -0.050323218
-0.086974725 0.01502761 0.031131355 -0.001344176 -0.045045555 0.09953363 -0.024898684 0.06966242
0.04024009 -0.070370674 -0.042124562 -0.05708463 0.018379368 -0.003697581 -0.06587449 0.060098782
0.068022594 -0.05235494 -0.061876293 0.020402016 0.032431036 0.01903489 -0.03818687 0.050534792
00000000: e584 db3b a3b0 de3d 38af 9e3d 5e48 8b3d
00000010: 1405 3bbd bb00 83bd 8cf5 563b 4323 273b
00000020: ebfa aa3d 9bec e6bd 97c3 25bd 602c 913d
00000030: 9324 adbd 8564 a83d 6e1c 9dbd 3007 253d
00000040: 7741 85bc 1600 8c3d 83d0 823d 5213 a7bd
00000050: 2116 bb3d 045a dbbd d869 8bbd 8d5b 733c
00000060: 0b53 923b 76d3 5f3d 1269 e4bd 411b 843d
00000070: 7205 17bd cf56 abbd b25e 093d 6a48 61bd
00000080: 7f9f e4bd 2b79 4bbc a7be 893d 1c9b d73c
00000090: e2fe 893d 0dd8 843c 1b16 05bd 8e11 9d3d
000000a0: 08a1 59bc 3e6b 8fbc 922d e2bd 94e0 9bbb
000000b0: 72ae 743c b168 29bd 1b60 babd 606f d7bb
000000c0: b609 833d 371d 5a3d 97f8 e43c dc8b abbc
000000d0: 93c7 36bd d0e6 70bb caba 173d 4a4a 89bc
000000e0: 8923 a7bc e252 99bd 3bfc a53c c01a c13c
000000f0: 585b 09bb 8b58 283d 51d3 eabd 58e2 07bd
00000100: cd65 9f39 5d9e 813d 7868 623d 4237 d5bd
00000110: 75be 42bc 6c87 bc3b 319d 13be a1a1 97bd
00000120: cfbf 0abe 526d 8fbd b927 edbd 9804 8bbd
00000130: d1be 223c c49a a8bd b394 b6bd e410 9d3c
00000140: 604e 2d3c 60aa e43c 1479 923c af27 5d3d
00000150: 768f 373d 6356 573d af29 f83d ce37 ec3c
00000160: ad43 df3d 4425 67bd 3c9c 403d f8ac 37be
00000170: 05ba 59bd 7fed 7cbd 0b4e ec3b 160a 3c3d
00000180: f70c 8abc d33a c83d 2621 c2bd 087f d1bd
00000190: fc19 e93b 8d5f f53d a6f9 1dbd 431e 58bd
000001a0: 5277 9b3d 23cb c1bc 96b3 8e3d c91f 1fbd
000001b0: 7665 d9bd c4c9 59bc 0526 cc3d fbb3 803d
000001c0: 442e a83d ae40 1e3d f81b c3bd 9ae5 4d3d
000001d0: cd06 973d 7b9a b1bd 4106 c3bd 4d7a aebd
000001e0: 6713 af3a 222e 6a3d 8086 6dbc 9386 37bd
000001f0: 79e1 b03d 9fea d6bc 9b30 dfbd 7105 de3c
00000200: a6dc 5abd 5c0e 92bd 5963 9f3d 4317 4dbd
00000210: cb02 fa3d d614 663d ba14 d73c 4212 d03d
00000220: 65bc 023a d5cd 8fbd 1cd9 f63c cbcc 833d
00000230: af64 ffbc 9725 b93c 5b14 553d b904 053e
00000240: 9787 20bd d503 033e bef1 683c fc5f f93d
00000250: 5605 693c 235f f23d 5c54 e83d 0c1f e53d
00000260: 3f56 95bb 0129 e53d e177 74bc a3bf 393d
00000270: bd9d 8ebd 8d66 7cbd 59fd ee3d 0705 f03d
00000280: 821a 673c 5dfa 8c3d 3fe1 26bd 57cb 923c
00000290: 4670 c2bd fcf3 383d c584 113d 7c12 983c
000002a0: ccdb 94bc df91 be3d bd89 8c3d 9430 bfbd
000002b0: b1ad 7fbd 1b81 b83d b5d2 863d f45e 3fbd
000002c0: 1179 603d d69d c6bb 0a93 273d db5d c93d
000002d0: 91bb d9bb 4914 35bd 5524 84bd c6f2 85bc
000002e0: 780b 89bb 0f23 973c 1a65 6cbb c406 a6bd
000002f0: cb55 97bc e017 cb3c 456b 61bc e0c6 303d
00000300: 874e e1bc cafe 52bd d632 11bd 00b7 83bc
00000310: 117c 843d deb2 ea39 f126 cbbd 8696 88bd
00000320: 9fc5 c7bd 06d2 81bd 2b59 ea3d 8c84 e43c
00000330: e4a7 91bd 1a7c d4bd 7db0 bd3d 75e2 f2bb
00000340: 1345 80bd 3be6 a3bd c847 7b3d 54dc 133d
00000350: 6246 6e3d fdf3 42bd f06f a9bd bf37 2bbd
00000360: 5d57 cc3d fbde 563c 0f60 d4bd 5a8c be3d
00000370: 1353 a13c d868 193b 87e0 9ebd 3bae c63d
00000380: 6efc 6e3d e919 75bd a479 26ba 21eb a8bd
00000390: e911 fbbc 943d d33d 9a41 853d b81f 4ebd
000003a0: ce1f b2bd 5d36 763c 2f07 ff3c 102f b0ba
000003b0: b081 38bd 4ad8 cb3d 53f8 cbbc 2cab 8e3d
000003c0: cbd2 243d 801e 90bd ce8a 2cbd 93d1 69bd
000003d0: 5490 963c 1d53 72bb 34e9 86bd 242a 763d
000003e0: 6e4f 8b3d 2272 56bd ff71 7dbd 2122 a73c
000003f0: 68d6 043d 0fef 9b3c d669 1cbd 92fd 4e3d

conv_list.1.lin_f.bias f4 [20]
-0.003069092 -0.029178629 0.0421063 -0.121934004 0.14397873 -0.10700454 0.08613503 0.057719752
-0.042419065 -0.026296688 -0.06203899 0.14712134 0.10146661 -0.046126183 0.09512783 -0.010418692
-0.015826289 -0.07341947 0.06563043 0.07418741
00000000: d222 49bb 0508 efbc a877 2c3d 89b8 f9bd
00000010: 296f 133e 3225 dbbd 9067 b03d 8c6b 6c3d
00000020: 9dbf 2dbd 276c d7bc 991c 7ebd faa6 163e
00000030: bacd cf3d cfee 3cbd 61d2 c23d 29b3 2abc
00000040: 22a6 81bc f25c 96bd 3f69 863d 92ef 973d

conv_list.1.lin_s.weight f4 [20, 90]
0.056239072 -0.014239051 -0.0706478 -0.0045411168 0.035158888 -0.07413888 -0.00809993 -0.07865901
-0.07568718 0.0654261 -0.051385965 -0.04627375 -0.009818514 0.047510494 0.024715565 0.05984781
0.02409593 -0.04368974 0.058690578 -0.009809011 0.07625275 0.05582033 -0.0017263686 -0.061954167
0.037324272 -0.022318324 -0.13134202 0.085727 -0.026389755 0.0062462315 0.05859872 0.07504916
0.0046743047 0.039033707 -0.01693434 -0.084545076 -0.062136855 0.01521178 -0.04599322 -0.11593772
-0.07142607 0.033946946 -7.728326e-05 0.02798951 0.036325064 -0.064628616 0.064010136 -0.012374038
0.02863037 0.0682475 0.029243834 0.052340206 0.006694963 -0.03108608 -0.0050147213 0.013965978
-0.030191785 0.098251015 0.10193053 0.05066888 -0.059191126 0.06657106 0.06987076 -0.078126304
0.080543436 -0.042085808 0.08607273 0.069418706 -0.08197633 -0.09386621 -0.09998673 -0.100150764
0.056833357 0.053910248 -0.048121884 0.0052905115 0.024869513 0.069438025 0.028183805 0.04683652
0.11747201 0.0005361769 0.13215862 0.008506886 0.07567336 0.033906005 0.023119409 0.12867011
0.07809394 0.09197622 -0.011710999 0.028906124 -0.050405633 0.06507807 0.031088691 -0.08024106
-0.04656025 -0.09984505 -0.07269862 -0.11500037 0.08884938 -0.06587995 0.08382267 0.10301826
-0.06534681 -0.101810135 -0.094159976 -0.07548694 -0.04120142 -0.04270992 -0.03811774 0.0043746615
-0.011197391 0.043125503 0.10328303 -0.057125654 0.0044132923 0.02906076 0.0014958658 -0.07168386
0.088085555 0.090615936 0.09032251 0.061341364 -0.015787905 0.043900475 -0.059338816 0.061218522
0.020366205 0.017340755 0.012949892 0.07697325 -0.070522465 -0.008700623 0.041243933 0.0899268
0.029655306 0.092051096 0.08088402 -0.007817139 0.059081323 -0.027920289 -0.051289152 -0.071653515
0.08242958 -0.0719955 0.07633478 0.018241996 -0.0023030767 -0.0017558035 0.03440623 0.027279632
-0.062498216 0.025430636 0.03755847 -0.09071754 0.055268 -0.077398956 -0.017329661 0.08150682
0.0490807 0.04200427 0.016483907 0.08977591 -0.06695182 0.07631922 0.013770704 0.02306833
-0.07481383 0.026303696 -0.014293254 -0.088955045 -0.03795205 -0.008924493 0.09526976 0.07848856
-0.031308565 0.087325916 -0.022049677 0.05751308 0.0009760141 0.07336487 0.027577434 -0.09627556
0.04431578 -0.08883517 -0.041353595 -0.08606206 -0.027033629 -0.10064802 0.107999876 -0.09935715
-0.115956195 0.07614731 0.08518081 -0.01653757 0.04396483 -0.010317358 -0.05066853 0.03883108
0.09863311 0.047926154 0.060802586 0.055282317 -0.032560103 0.020143615 0.029598264 0.03981521
0.05239585 0.00045802697 0.021003902 -0.06716632 -0.0024539665 -0.08794376 0.057897568 0.048348617
0.087844156 -0.08965846 -0.04075108 0.0107269185 -0.021241771 0.0857669 0.10023819 -0.044480924
0.067800224 -0.016186858 0.065640606 -0.024370214 -0.002286358 0.0037782784 0.04666723 0.07667066
-0.10505329 -0.038707502 0.077761434 0.011609577 0.022838188 -0.07184157 -0.0599968 0.056699608
0.08565144 -0.029423332 -0.03966223 -0.007972703 0.05939342 0.031729285 0.11817828 0.062123436
0.11166083 -0.040263835 0.057433084 0.00089082844 -0.074368544 -0.067342855 0.064951606 0.08107001
00000000: f15a 663d e94a 69bc cbaf 90bd a6cd 94bb
00000010: c402 103d 20d6 97bd 92b5 04bc fa17 a1bd
00000020: e101 9bbd 1efe 853d 177a 52bd 8b89 3dbd
00000030: d5dd 20bc 5d9a 423d 4c78 ca3c fa22 753d
00000040: d464 c53c 03f4 32bd 8865 703d f9b5 20bc
00000050: 672a 9c3d dca3 643d 5147 e2ba a7c3 7dbd
00000060: 56e1 183d ebd4 b6bc 867e 06be a391 af3d
00000070: 542f d8bc 30ad cc3b 3605 703d 60b3 993d
00000080: e92a 993b cfe1 1f3d e3b9 8abc f825 adbd
00000090: 3783 7ebd d43a 793c 6363 3cbd c170 edbd
000000a0: d547 92bd f40b 0b3d 2213 a2b8 424a e53c
000000b0: 97c9 143d 025c 84bd bf17 833d 7abc 4abc
000000c0: 3d8a ea3c 58c5 8b3d c490 ef3c af62 563d
000000d0: 6c61 db3b 3ca8 febc 8852 a4bb 8fd1 643c
000000e0: c354 f7bc d437 c93d f4c0 d03d 2c8a 4f3d
000000f0: 6572 72bd 6856 883d 6718 8f3d af00 a0bd
00000100: f5f3 a43d 2b62 2cbd e646 b03d 652b 8e3d
00000110: 35e3 a7bd ed3c c0bd d8c5 ccbd d81b cdbd
00000120: 18ca 683d fed0 5c3d 741b 45bd 075c ad3b
00000130: 26bb cb3c 8635 8e3d b9e1 e63c a7d7 3f3d
00000140: 2a95 f03d 398e 0c3a 9754 073e 7760 0b3c
00000150: a2fa 9a3d 06e1 0a3d ea64 bd3c 19c2 033e
00000160: b7ef 9f3d 075e bc3d 7ddf 3fbc 89cc ec3c
00000170: 2376 4ebd a747 853d b6ad fe3c 6d55 a4bd
00000180: f6b5 3ebd 907b ccbd 04e3 94bd 5085 ebbd
00000190: aaf6 b53d 11ec 86bd 38ab ab3d 3dfb d23d
000001a0: 8cd4 85bd d581 d0bd f2d6 c0bd e698 9abd
000001b0: d2c2 28bd 99f0 2ebd 5921 1cbd 5259 8f3b
000001c0: 4375 37bc 5ea4 303d 0e86 d33d 97fc 69bd
000001d0: 619d 903b d510 ee3c ed10 c43a fdce 92bd
000001e0: 3366 b43d d994 b93d 02fb b83d 1541 7b3d
000001f0: a355 81bc fcd0 333d 420d 73bd 46c0 7a3d
00000200: 07d7 a63c 330e 8e3c c92b 543c 27a4 9d3d
00000210: 156e 90bd 0f8d 0ebc 66ef 283d 8b2b b83d
00000220: afef f23c 4985 bc3d 85a6 a53d 7513 00bc
00000230: 42ff 713d 17b9 e4bc 9314 52bd 14bf 92bd
00000240: d7d0 a83d 6072 93bd 6955 9c3d 3d70 953c
00000250: 37ef 16bb fd22 e6ba 8ced 0c3d 8979 df3c
00000260: 21fe 7fbd e953 d03c e9d6 193d 1eca b9bd
00000270: b360 623d 5883 9ebd eff6 8dbc 0ced a63d
00000280: d808 493d ab0c 2c3d 4209 873c 6fdc b73d
00000290: 091e 89bd 404d 9c3d 859e 613c cbf9 bc3c
000002a0: fe37 99bd d97a d73c 412e 6abc 102e b6bd
000002b0: 9c73 1bbd 0938 12bc cb1c c33d 9cbe a03d
000002c0: 693d 00bd eed7 b23d 86a1 b4bc d692 6b3d
000002d0: 33db 7f3a 5240 963d 12ea e13c 1f2c c5bd
000002e0: 7784 353d 37ef b5bd 6362 29bd 4e41 b0bd
000002f0: a175 ddbc 8d20 cebd 0a2f dd3d c37b cbbd
00000300: 717a edbd 1ff3 9b3d 4773 ae3d cc79 87bc
00000310: 7714 343d 230a 29bc ce89 4fbd 570d 1f3d
00000320: 2800 ca3d 374e 443d 220c 793d b66f 623d
00000330: be5d 05bd 3904 a53c 0f78 f23c 4615 233d
00000340: 089d 563d 5723 f039 6010 ac3c 7f8e 89bd
00000350: bad2 20bb dc1b b4bd 0026 6d3d 3309 463d
00000360: a3e7 b33d db9e b7bd 9bea 26bd f5bf 2f3c
00000370: 3903 aebc 8ea6 af3d ae49 cd3d a131 36bd
00000380: d8da 8a3d 4d9a 84bc 956e 863d 0ba4 c7bc
00000390: b9d6 15bb fe9c 773b 2326 3f3d 8205 9d3d
000003a0: 2e26 d7bd c28b 1ebd 6341 9f3d 1836 3e3c
000003b0: 2717 bb3c ac21 93bd 34bf 75bd d93d 683d
000003c0: 066a af3d 3309 f1bc dd74 22bd f19f 02bc
000003d0: 8446 733d 91f6 013d 7407 f23d 2575 7e3d
000003e0: 6fae e43d b1eb 24bd f43e 6b3d 7c86 693a
000003f0: 894e 98bd 0deb 89bd 5905 853d 0908 a63d

conv_list.1.lin_s.bias f4 [20]
0.0302493 0.0506844 0.031200541 -0.021857375 0.00528458 -0.083045855 -0.035976168 -0.036283106
-0.0018392622 0.032493 -0.047094055 -0.07787191 0.011451142 0.026793165 0.038446277 0.03229003
-0.0059333285 -0.099916294 0.086668484 0.07953208
00000000: 61cd f73c 729a 4f3d 4798 ff3c 3d0e b3bc
00000010: 452a ad3b f213 aabd bf5b 13bd 989d 14bd
00000020: 6613 f1ba 6117 053d b2e5 40bd 4f7b 9fbd
00000030: 929d 3b3c 577d db3c d879 1d3d 8d42 043d
00000040: 5e6c c2bb eaa0 ccbd 3f7f b13d b7e1 a23d

conv_list.2.lin_f.weight f4 [20, 90]
-0.0018362383 -0.006284192 -0.07999904 0.12719704 -0.12002142 0.03558286 0.066651665 0.04249734
0.081946805 -0.08125814 -0.013401393 -0.0061216205 0.076449655 0.014963293 -0.0150445625 0.107386835
0.0134406695 -0.06140126 0.030570958 0.09124188 -0.067560546 0.015501649 -0.13094132 0.06530287
0.028440898 -0.007597379 -0.054954737 0.10233585 0.08490233 -0.07830474 -0.04507607 0.011599323
0.027454607 -0.041868128 -0.10920147 -0.052240532 0.0134108085 -0.07640401 0.07093126 0.005404907
0.03791922 -0.036272474 0.03073002 0.04477054 0.057153504 0.09931565 0.05344433 0.122153185
0.014702343 0.079143 -0.005850515 0.04268668 0.12623422 -0.07419909 0.11211518 -0.027112799
0.118021734 0.09321661 0.0914728 0.0181695 -0.075030215 0.008668683 0.0031628709 0.031456303
-0.00771436 -0.010804234 0.0431596 -0.09870803 -0.07147116 -0.0027859784 -0.08460629 0.02753732
-0.090300806 -0.0722769 -0.040110856 -0.07026045 -0.11168538 0.07504585 0.05274642 0.050435483
0.028402204 0.030661015 0.05863116 -0.0482667 0.10798426 -0.017497456 0.070118204 0.0045522233
-0.009930559 -0.032907665 0.08347313 0.041296378 -0.060375143 0.042473394 0.11482091 0.055945445
0.11558085 -0.06171531 0.022579951 0.09900709 -0.013745889 0.06666794 0.007127516 0.06376492
-0.013181573 0.10002038 0.07210504 -0.09054756 0.029088004 0.043242764 0.067636676 0.002171404
0.03708126 -0.041859206 -0.051897172 -0.035769824 -0.09772837 0.03254217 -0.032514267 -0.06420775
-0.007833887 0.0798079 -0.005777842 -0.06578026 0.014151011 0.008420504 -0.09624767 0.085795075
0.09649758 -0.069996275 0.058424078 0.056378197 0.123047195 0.023315113 0.048292555 0.042277906
0.09695091 -0.021142894 0.04025659 0.09390699 0.07344174 -0.014360354 0.040445562 -0.017912464
0.003917157 0.0055690818 0.036688197 -0.07544157 0.11348785 0.01733633 0.030531969 -0.035949048
0.04271974 0.074323736 0.007786049 -0.07838659 -0.03300425 0.022195756 0.034008794 0.08756787
-0.015490276 -0.00023716928 0.08699273 -0.020038662 -0.009663352 -0.009308494 -0.097959846 -0.059776757
0.022646569 0.026161687 -0.036710806 0.054831576 0.050769802 0.08304389 -0.05954855 -0.027234163
0.014618788 -0.062231664 0.029323736 -0.059625488 0.011420983 -0.0014605027 -0.028051326 -0.11521926
0.022265796 0.10634173 0.105424054 0.020852827 -0.06808909 -0.021668635 -0.058585495 -0.05606011
-0.07424977 -0.0067997216 -0.04799892 0.06473553 0.074222885 -0.08501571 7.410841e-05 -0.0046388474
0.11040047 0.006465693 -0.06788924 -0.016436199 0.07086616 -0.042485625 -0.060387343 -0.09268387
-0.04201735 0.05990478 0.017012417 0.018689195 0.009754798 -0.047923695 0.064210564 0.028019413
-0.015503449 0.050643437 -0.04069863 0.04563169 0.065309 -0.07432302 -0.014247497 0.11092185
0.040270954 -0.04213882 -0.024678044 0.032153144 0.012074613 0.06421891 -0.034023557 0.017152956
-0.06631554 0.07908715 0.07847554 -0.09973408 -0.014192652 0.0888472 0.019969437 0.076223455
-0.099696435 0.020297145 0.058081176 0.06416171 -0.06408178 0.047072724 0.061122574 -0.107340455
-0.08731445 -0.07926469 0.05712785 0.035433497 -0.020056698 -0.0064986837 -0.11230035 0.035802823
00000000: efad f0ba a0eb cdbb 89d6 a3bd f13f 023e
00000010: cacd f5bd 55bf 113d ab80 883d b111 2e3d
00000020: bad3 a73d ab6a a6bd 8491 5bbc e097 c8bb
00000030: a391 9c3d 9a28 753c 787d 76bc a1ed db3d
00000040: 4136 5c3c e37f 7bbd f26f fa3c 06dd ba3d
00000050: 2f5d 8abd a1fa 7d3c 7b15 06be 83bd 853d
00000060: e3fc e83c 6ff3 f8bb 3818 61bd 7595 d13d
00000070: 46e1 ad3d 3c5e a0bd afa1 38bd 160b 3e3c
00000080: 7ce8 e03c ea7d 2bbd 05a5 dfbd 2bfa 55bd
00000090: 02b9 5b3c b579 9cbd 6944 913d a51b b13b
000000a0: 2f51 1b3d 7292 14bd 86bd fb3c 5061 373d
000000b0: cb19 6a3d 0166 cb3d 71e8 5a3d 732b fa3d
000000c0: 19e2 703c ba15 a23d adb5 bfbb 3ad8 2e3d
000000d0: 8b43 013e b1f5 97bd a59c e53d a91b debc
000000e0: 61b5 f13d 5ae8 be3d 1756 bb3d 34d8 943c
000000f0: 71a9 99bd 1707 0e3c 2b48 4f3b 53d8 003d
00000100: bec8 fcbb 3e04 31bc 1fc8 303d 7027 cabd
00000110: 795f 92bd f694 36bb 1046 adbd f295 e13c
00000120: a1ef b8bd e905 94bd 484b 24bd b6e4 8fbd
00000130: 4ebb e4bd a3b1 993d a10c 583d 7095 4e3d
00000140: bdab e83c cf2c fb3c 3a27 703d 4eb3 45bd
00000150: da26 dd3d d356 8fbc 229a 8f3d d12a 953b
00000160: c9b3 22bc 30ca 06bd f6f3 aa3d 6426 293d
00000170: ed4b 77bd 95f8 2d3d 3a27 eb3d 0d27 653d
00000180: a7b5 ec3d 31c9 7cbd 97f9 b83c 3bc4 ca3d
00000190: 7036 61bc 3389 883d f08d e93b 2f97 823d
000001a0: 86f7 57bc 7cd7 cc3d cfab 933d 0071 b9bd
000001b0: f749 ee3c 531f 313d 1985 8a3d 1d4e 0e3b
000001c0: 85e2 173d 8f74 2bbd 2192 54bd 6183 12bd
000001d0: d025 c8bd f04a 053d ae2d 05bd 5a7f 83bd
000001e0: b459 00bc 5372 a33d 0d54 bdbb cdb7 86bd
000001f0: a4d9 673c 27f6 093c 801d c5bd 54b5 af3d
00000200: 86a0 c53d 355a 8fbd 164e 6f3d d3ec 663d
00000210: 2b00 fc3d 56ff be3c 6ace 453d 992b 2d3d
00000220: 338e c63d dd33 adbc 18e4 243d 4f52 c03d
00000230: 9f68 963d b147 6bbc 3faa 253d 29bd 92bc
00000240: 7f5b 803b d87c b63b 5d46 163d 1c81 9abd
00000250: 516c e83d eb04 8e3c 2e1e fa3c 4f3f 13bd
00000260: e5fa 2e3d 0b37 983d 1d22 ff3b 2689 a0bd
00000270: 772f 07bd e0d3 b53c ce4c 0b3d c956 b33d
00000280: edca 7dbc a5b0 78b9 3f29 b23d 1f28 a4bc
00000290: 0953 1ebc a782 18bc 2c9f c8bd 79d8 74bd
000002a0: 4c85 b93c 0951 d63c 125e 16bd 1397 603d
000002b0: fff3 4f3d ea12 aa3d 2ee9 73bd 2e1a dfbc
000002c0: a483 6f3c a1e6 7ebd 5538 f03c db39 74bd
000002d0: 131f 3b3c 576e bfba e5cb e5bc 13f8 ebbd
000002e0: c266 b63c b1c9 d93d 91e8 d73d 8cd3 aa3c
000002f0: 4b72 8bbd 6c82 b1bc 58f7 6fbd 499f 65bd
00000300: 4310 98bd 33d0 debb 849a 44bd 1094 843d
00000310: 2b02 983d b71c aebd a66a 9b38 7901 98bb
00000320: a419 e23d 2ade d33b 8409 8bbd 35a5 86bc
00000330: 4722 913d 6805 2ebd b858 77bd 0ad1 bdbd
00000340: 631a 2cbd b75e 753d a05d 8b3c 151a 993c
00000350: 97d2 1f3c a34b 44bd d480 833d f888 e53c
00000360: 2e02 7ebc 7e6f 4f3d 9bb3 26bd 4ce8 3a3d
00000370: bac0 853d ab36 98bd 556e 69bc ff2a e33d
00000380: 28f3 243d c199 2cbd 9c29 cabc 04b3 033d
00000390: 99d4 453c 3485 833d 495c 0bbd 5b84 8c3c
000003a0: 71d0 87bd 72f8 a13d c9b7 a03d 6241 ccbd
000003b0: 4c88 68bc 85f5 b53d f296 a33c 0b1b 9c3d
000003c0: a52d ccbd 3346 a63c 87e6 6d3d 3767 833d
000003d0: 4f3d 83bd 54cf 403d aa5b 7a3d 50d5 dbbd
000003e0: ebd1 b2bd 8755 a2bd e4fe 693d b722 113d
000003f0: f24d a4bc e9f2 d4bb bafd e5bd fba5 123d

conv_list.2.lin_f.bias f4 [20]
-0.036144886 0.0025400117 0.05790076 -0.053243823 0.059467062 -0.082798555 -0.056957886 -0.00061788026
0.049275137 -0.032656807 -0.061639715 -0.006524212 -0.01800718 0.03273053 -0.07717548 -0.016611867
-0.053151947 0.07778513 0.07371721 -0.054389045
00000000: a90c 14bd 5376 263b 5929 6d3d 3216 5abd
00000010: bc93 733d 4a92 a9bd ac4c 69bd 3ef9 21ba
00000020: bad4 493d 25c3 05bd ed79 7cbd 0fc9 d5bb
00000030: cb83 93bc 7310 063d 2e0e 9ebd 9c15 88bc
00000040: dbb5 59bd cf4d 9f3d 0cf9 963d 0cc7 5ebd

conv_list.2.lin_s.weight f4 [20, 90]
0.0150270155 -0.07711118 -0.05735733 -0.05867641 0.014772016 0.011270524 -0.063403316 -0.04042821
-0.11537677 -0.06499673 0.013682325 0.029211177 0.04588768 0.04404281 -0.12250351 -0.016403392
-0.025431268 -0.042166434 0.04368031 -0.15756717 -0.020734143 0.026038961 0.038604006 0.016272623
0.07470773 0.05900714 0.05875224 -0.039815404 -0.017289432 -0.08455683 -0.093806036 0.09324745
-0.09993669 -0.07314187 -0.06702643 -0.054358598 0.039528254 -0.0319171 0.13600771 0.08133963
-0.07200756 0.032600958 0.018754708 0.015916457 -0.01885668 -0.030271068 -0.01826159 0.05547359
-0.04920667 -0.074711226 -0.023484794 0.08859462 0.014231696 0.09041519 0.07421835 -0.04213053
0.030137692 -0.036547184 -0.04053753 0.111708686 0.060260314 0.06781359 0.082880236 0.04122053
0.085438564 -0.05324037 0.10642458 0.016028907 -0.029602848 -0.05508141 0.08098173 0.0028852108
0.043968428 -0.00019250934 0.03781895 -0.011407361 0.10695456 0.087520964 0.018542798 0.03631966
-0.025765557 0.008700762 -0.024487559 -0.0014387439 -0.027740458 0.1274307 -0.030120177 0.13947777
0.047143042 -0.024313213 0.0072942763 -0.04057637 -0.020967677 -0.014599834 0.033253044 -0.038444676
0.089293525 0.038629405 -0.03620319 -0.022084886 0.03692854 0.033772096 -0.0023767217 -0.051724926
-0.06406956 -0.10750115 -0.010356181 0.035635978 0.019855345 -0.13317506 0.023187282 0.117032185
0.0011283793 -0.04334149 -0.03648178 -0.053551055 -0.035358727 -0.054867383 -0.1030339 0.0875252
0.09384197 0.036186192 0.1332595 -0.06717248 -0.08598361 0.09311878 -0.080072924 -0.08992881
-0.07697681 -0.070830084 0.04255265 0.039422803 0.081705555 0.05691422 0.049147796 0.08752158
-0.098490566 0.007935641 -0.008837889 0.044413865 -0.046852425 0.028070059 -0.03919341 0.09474565
0.029814081 -0.088683195 -0.0065024775 0.040735755 0.07612581 -0.08884126 -0.0057406398 0.080907665
-0.10127239 -0.08640061 -0.03591279 -0.09675818 0.004359608 0.03105683 -0.08627365 -0.023727786
-0.08625578 0.09299419 0.037525948 -0.07603448 0.10359051 0.04591162 0.07388071 -0.0659029
0.048669606 0.08405113 -0.025498992 0.057887815 0.025481423 -0.05263046 0.038813073 0.024692373
0.046001058 0.09568392 0.100101456 0.13593872 -0.054117955 0.033795416 -0.14282103 -0.0900861
0.07774548 0.053738568 0.03261347 0.07590443 0.00081933633 0.026366344 -0.08142894 -0.06757394
-0.08318647 -0.053606924 -0.07537472 -0.03581527 0.0022742222 -0.10765563 0.0934477 -0.063831754
0.08969521 -0.07741359 0.0007359572 0.09431197 -0.035964485 0.046034195 0.024138846 -0.078873515
-0.0052101645 -0.03281333 -0.05327583 -0.046010163 0.016948596 -0.10528223 0.03940156 0.09570011
-0.063850015 -0.09503816 0.030015562 -0.09240169 -0.019176677 -0.05957319 -0.037908383 -0.092994966
-0.04007765 0.03769983 -0.036947634 0.012679996 -0.05268544 -0.0023136532 0.018384095 0.017067278
-0.06515925 -0.08484921 -0.007364353 0.017913157 -0.041253507 -0.074442625 0.014825656 -0.088915505
-0.08478977 -0.013991682 0.102710836 -0.011119184 0.05578059 -0.09032033 -0.105144955 0.04303693
-0.05871535 0.07586549 -0.047190912 -0.04933567 0.008702036 0.079763554 0.045993604 -0.01671851
00000000: df33 763c 77ec 9dbd 85ef 6abd ad56 70bd
00000010: 5306 723c 01a8 383c 99d9 81bd 0d98 25bd
00000020: a84a ecbd 011d 85bd d52b 603c 474c ef3c
00000030: b8f4 3b3d 3c66 343d 1fe3 fabd 6860 86bc
00000040: 3c55 d0bc b6b6 2cbd 20ea 323d 4a59 21be
00000050: a6da a9bc a94f d53c 3c1f 1e3d 2a4e 853c
00000060: 5e00 993d 79b1 713d 30a6 703d 7a15 23bd
00000070: 91a2 8dbc 222c adbd 611d c0bd 85f8 be3d
00000080: 9bab ccbd 68cb 95bd 2745 89bd 1fa7 5ebd
00000090: 61e8 213d 81bb 02bd 9b45 0b3e 6495 a63d
000000a0: b378 93bd 9588 053d 79a3 993c 3b63 823c
000000b0: 5379 9abc 08fb f7bc 5499 95bc 4638 633d
000000c0: ef8c 49bd 3302 99bd 2f63 c0bc 1971 b53d
000000d0: 0f2c 693c 992b b93d caff 973d 1091 2cbd
000000e0: 52e3 f63c 80b2 15bd ae0a 26bd 86c7 e43d
000000f0: 85d3 763d dae1 8a3d 1dbd a93d dcd6 283d
00000100: 6afa ae3d 9312 5abd 21f5 d93d 0e4f 833c
00000110: ac81 f2bc 0b9d 61bd c0d9 a53d ce15 3d3b
00000120: 3d18 343d 55dc 49b9 0be8 1a3d f1e5 3abc
00000130: fe0a db3d 313e b33d 11e7 973c ecc3 143d
00000140: 4a12 d3bc a48d 0e3c 229a c8bc 3c94 bcba
00000150: f53f e3bc 327d 023e 97be f6bc 43d3 0e3e
00000160: 1019 413d 812c c7bc d304 ef3b 6833 26bd
00000170: 68c4 abbc 2434 6fbc 5834 083d 2a78 1dbd
00000180: 86df b63d de39 1e3d cc49 14bd 5deb b4bc
00000190: 6142 173d 9c54 0a3d c6c2 1bbb 84dd 53bd
000001a0: e736 83bd 9029 dcbd f9ac 29bc 08f7 113d
000001b0: ada7 a23c 0b5f 08be 41f3 bd3c 92ae ef3d
000001c0: 20e6 933a d986 31bd eb6d 15bd 5a58 5bbd
000001d0: 50d4 10bd 9fbc 60bd 7003 d3bd 6940 b33d
000001e0: 3830 c03d f937 143d 2e75 083e ba91 89bd
000001f0: 2d18 b0bd 0fb5 be3d 46fd a3bd 992c b8bd
00000200: 05a6 9dbd 5d0f 91bd b04b 2e3d ce79 213d
00000210: 3e55 a73d e31e 693d 334f 493d 843e b33d
00000220: 6cb5 c9bd 7e04 023c cbcc 10bc 50eb 353d
00000230: 54e8 3fbd 2ef3 e53c 4589 20bd 020a c23d
00000240: a93c f43c 899f b5bd bc12 d5bb 89da 263d
00000250: d9e7 9b3d 68f2 b5bd fa1b bcbb ebb2 a53d
00000260: e667 cfbd cef2 b0bd 4a19 13bd 2729 c6bd
00000270: 0bdb 8e3b e56a fe3c 3db0 b0bd c660 c2bc
00000280: dfa6 b0bd bd73 be3d cfb4 193d f7b7 9bbd
00000290: 4327 d43d d30d 3c3d c54e 973d 1af8 86bd
000002a0: c859 473d 0023 ac3d 43e3 d0bc c61b 6d3d
000002b0: 6bbe d03c 0a93 57bd 75fa 1e3d a947 ca3c
000002c0: 9b6b 3c3d eef5 c33d fe01 cd3d 8533 0b3e
000002d0: caaa 5dbd 106d 0a3d ad3f 12be 107f b8bd
000002e0: 0639 9f3d f91c 5c3d b495 053d c873 9b3d
000002f0: bbc8 563a 3bfe d73c 37c4 a6bd 3564 8abd
00000300: ab5d aabd ef92 5bbd 105e 9abd 08b3 12bd
00000310: 1e0b 153b 8e7a dcbd 8261 bf3d 39ba 82bd
00000320: 1fb2 b73d 048b 9ebd 40ed 403a a226 c13d
00000330: 7f4f 13bd 5a8e 3c3d d4be c53c 7088 a1bd
00000340: 07ba aabb 4567 06bd c237 5abd 2775 3cbd
00000350: c8d7 8a3c 369e d7bd 8863 213d 6bfe c33d
00000360: ccc3 82bd 5ea3 c2bd 32e3 f53c 193d bdbd
00000370: 6818 9dbc 0403 74bd d245 1bbd 2574 bebd
00000380: 7628 24bd 236b 1a3d 6756 17bd c2bf 4f3c
00000390: b0cc 57bd a9a0 17bb 3e9a 963c add0 8b3c
000003a0: 3672 85bd 6cc5 adbd ac50 f1bb 9dbe 923c
000003b0: 70f9 28bd 6075 98bd 4fe7 723c 5519 b6bd
000003c0: 42a6 adbd 5e3d 65bc 0f5a d23d 3d2d 36bc
000003d0: 307a 643d ddf9 b8bd 3d56 d7bd 7e47 303d
000003e0: 827f 70bd 5e5f 9b3d 424b 41bd 3314 4abd
000003f0: fc92 0e3c 135b a33d ca63 3c3d 42f5 88bc

conv_list.2.lin_s.bias f4 [20]
-0.0640145 0.086586475 0.073871486 -0.003089914 0.07472933 -0.06280932 0.027928233 -0.0535516
-0.009571111 -0.018577855 0.061386667 0.08564998 -0.06538841 -0.07037427 0.06740913 0.057961155
0.09549652 0.0983356 -0.023388034 0.0012798066
00000000: 091a 83bd 4054 b13d ef49 973d 2880 4abb
00000010: b10b 993d 2ca2 80bd c0c9 e43c ec58 5bbd
00000020: 26d0 1cbc 9630 98bc 9670 7b3d 4269 af3d
00000030: 5cea 85bd 6320 90bd cc0d 8a3d ad68 6d3d
00000040: ae93 c33d 2d64 c93d 4398 bfbc 2fbf a73a
