Model Results/CGCNN-MMFF94/my_model.pth (torch, 371369 bytes, 140 tensors)

pre_lin_list.0.weight f4 [20, 117]
000000 0b 84 d7 bd e2 2e 41 3d e3 69 59 bd fb ef 8f bd
       -0.10523232 0.04716385 -0.053079497 -0.070281945
000010 da f4 99 bd aa e3 10 3d 6f e6 12 3e 74 84 ac bd
       -0.07517405 0.035373367 0.14345716 -0.08423701
000020 5c 43 74 bd 02 f0 11 bd 7e de 61 bd 28 f6 45 3d
       -0.05963455 -0.03562928 -0.055143826 0.048330456
000030 e2 d3 67 3d 13 12 b6 bd ba 27 fc bc 3f 7d 95 bd
       0.05659855 -0.08890166 -0.030780662 -0.072992794
000040 a9 3e 29 3d 3e 62 b0 3d 96 f1 30 3d d4 cb b7 3d
       0.041319523 0.08612488 0.043199144 0.08974424
000050 31 25 ad bc c3 c1 af bd 1d 2f 84 bd c6 ab fe bc
       -0.021135898 -0.08581879 -0.06454299 -0.031087767
000060 77 02 8d 3d e4 4a d9 3b 42 0c 6c 3d 7e 15 5b 3d
       0.06885236 0.006631242 0.057628877 0.053487293
000070 50 65 a4 bd a0 a0 a2 3d 8c 7a 52 bd a4 14 02 3d
       -0.08027136 0.07940793 -0.0513864 0.031757966
000080 c6 bb a7 bd 73 7b aa bc 8c fb 1b 3c b2 9c 6b 3d
       -0.08190112 -0.020810818 0.009520423 0.057522483
000090 c4 f3 64 bc 8c 62 a0 bd 1b ca ad 3d 42 8f 71 3d
       -0.013974134 -0.07831296 0.08485814 0.058974512
0000a0 b8 86 d8 3c 70 cc 9f bb e9 2f 89 3d bf 5e aa bd
       0.026431426 -0.004876666 0.06698591 -0.08318853
0000b0 17 a7 8c 3d fe 84 23 3d c4 70 83 bd 5f 52 81 3d
       0.06867807 0.039921753 -0.06417993 0.06314539
0000c0 3c ae 9c 3c aa cc 4c 3d 0c e8 9b bc ac 01 f4 bc
       0.01912605 0.04999987 -0.019031547 -0.029785953
0000d0 9e 8b 8f 3b a7 e0 87 3d 25 fe b9 bd b2 84 7a 3d
       0.0043806573 0.06634646 -0.09081677 0.061161704
0000e0 60 8c 7d bd aa b7 ec bc 3d 99 d1 3c 36 c8 21 3d
       -0.06190145 -0.028896172 0.025585765 0.039497577
0000f0 13 c0 83 3d 6d 01 b3 bd 5e c0 9b 3d f4 b5 88 bc
       0.064331196 -0.08740506 0.076050505 -0.016688325
000100 8c b0 c5 bb f9 70 85 3d 5a d0 38 bd bc 01 3d 3c
       -0.006033009 0.065156884 -0.045120575 0.011536058
000110 dc d9 85 bc 82 15 11 bd 2d 1f 80 3d c6 a5 41 3d
       -0.016339235 -0.035420902 0.06255946 0.047277234
000120 16 20 63 3d 59 a1 b1 bd 85 7f 9a 3d d2 4a 09 bd
       0.05545052 -0.08673353 0.07543854 -0.03351862
000130 b5 b9 9a 3d f3 1c 85 3d 32 2e 65 3d e2 3a 44 3d
       0.07554952 0.06499662 0.05595226 0.047907718
000140 90 3d 77 bb f0 7d 2a bd 0e e6 9b bd 07 c7 f3 bc
       -0.0037725903 -0.04162401 -0.07612239 -0.02975799
000150 38 73 aa 3a 91 65 82 bd af ea a1 3d f6 12 b0 bd
       0.0013004309 -0.063670285 0.079060905 -0.085973665
000160 86 95 72 3d 36 10 08 3d 48 e1 4a bd 38 b7 8f 3c
       0.059224628 0.033218585 -0.04953125 0.01754342
000170 ec 8d bd bb 30 5b 77 3c 18 61 62 bc 80 c9 93 3b
       -0.0057847407 0.015097424 -0.013817094 0.0045101047
000180 e5 2f b9 3d 6e 09 1b 3d 79 0a 82 3d 9c 9b 4d 3b
       0.09042338 0.03785079 0.06349654 0.0031373268
000190 f3 59 5b bd 33 82 76 3d da 22 2b 3d e8 de f6 3c
       -0.05355258 0.06018276 0.041781284 0.030135587
0001a0 70 22 80 ba 5f e9 8f bd c0 91 af 3c 03 b4 a7 bc
       -0.0009775888 -0.07026934 0.021431804 -0.020471578
0001b0 db f8 b9 3d 66 28 5a 3d 25 07 b2 bd cf 8c 83 3d
       0.090806685 0.053261183 -0.08692769 0.064233415
0001c0 2d da 07 bd 84 48 0d 3c 7f 59 35 3d e2 46 f5 bb
       -0.033167053 0.008623246 0.044274803 -0.0074852565
0001d0 ec e0 28 3d 35 d6 dd 3b c7 1e 5c bd 9e 36 09 bd
       0.041230127 0.0067699202 -0.05374029 -0.033499353
0001e0 ff 46 8b 3a ee 60 56 bd ca 5f 52 3d c2 48 40 3d
       0.0010626017 -0.052338533 0.051360883 0.046944387
0001f0 86 e7 83 bd 5e 12 59 3d fd d9 66 bd 16 0f de bc
       -0.06440644 0.052996032 -0.056360234 -0.027106803
000200 0d 15 b0 3d 0a 52 09 3d 0d 06 4d bd e7 f0 8a 3d
       0.08597765 0.033525504 -0.0500546 0.0678423
000210 c2 6f 31 3d 79 eb a2 3d 90 78 1c 3c b8 50 bc bc
       0.04331947 0.07955069 0.009550229 -0.022987708
000220 19 46 21 bd b0 6e 68 bd ee ed 0d bd dc a6 94 3c
       -0.03937349 -0.056746185 -0.034650736 0.018145971
000230 11 c3 b9 bd 78 1d 10 bc db c6 a7 bc fe bf a5 bd
       -0.09070409 -0.008796088 -0.020480564 -0.0809326
000240 2c 1e d1 bc 23 39 95 3c 82 fa 26 3d ce fd 0c 3d
       -0.025527082 0.018215721 0.040766247 0.034421735
000250 df cb 64 bd 1e c7 03 3d 48 01 e7 3c 10 65 88 bd
       -0.05585849 0.032172315 0.028198853 -0.06659901
000260 29 5e b8 3d 8d 38 9b 3d 02 4a 17 3d 42 ec 44 3d
       0.090023346 0.075791456 0.036935814 0.048076876
000270 7b d0 8d 3d 4b a9 e1 bc 39 ca 93 3d b9 09 9e 3d
       0.0692453 -0.027546545 0.07216305 0.07716698
000280 6f 56 91 bd a6 3d 2a bd 2f 7c 0d bd b0 28 cc 3c
       -0.07096564 -0.0415627 -0.03454226 0.024921745
000290 cc 24 60 bc 0e 68 35 3d 7c f0 84 bd e7 a4 27 bd
       -0.013680648 0.044288687 -0.06491181 -0.040928748
0002a0 ad 59 6b bd 5d 8c 12 bc f2 21 8f bd 3b 19 12 3c
       -0.05745857 -0.008944598 -0.069888964 0.008917148
0002b0 96 5f aa bd 36 dd 0c 3d 46 20 08 3d 37 bd a7 3d
       -0.08319013 0.03439065 0.033233903 0.08190387
0002c0 8f 14 5a bd bc af 9c bc 33 57 8d 3d 6e cb 65 3d
       -0.053242262 -0.019126765 0.069013976 0.05610221
0002d0 88 1f 02 bc 62 16 f1 3c ea 85 19 3d 40 e3 04 bd
       -0.007942088 0.029429618 0.037481226 -0.032443285
0002e0 8a a0 1a bd 4e f4 55 3d fc da 72 3d 7e a1 2b 3d
       -0.03775076 0.05223494 0.05929087 0.041902058
0002f0 70 f9 a6 3c f6 43 31 3d 26 b3 7a 3d a5 bd 97 bd
       0.020382613 0.043277703 0.061206006 -0.07409219
000300 16 18 08 bd 75 b6 a3 3d d2 33 3f 3d 2c 49 d2 3c
       -0.033226095 0.07993785 0.04668028 0.025669657
000310 d0 52 0d bd b0 c4 09 bd 67 1f 95 3d e3 14 bb 3d
       -0.034502804 -0.03363484 0.0728138 0.09134843
000320 01 33 38 bd 5c aa 51 bd 47 b1 8f 3d 51 07 38 bd
       -0.044970516 -0.051187858 0.07016235 -0.044928852
000330 a8 76 f3 bb 37 b8 a7 3d de d7 4d 3d 29 9b 86 3d
       -0.0074299164 0.08189433 0.050254695 0.06572563
000340 f9 88 47 bd 36 5c 5a 3c c1 74 2e bd 93 98 a5 bd
       -0.04871461 0.013327649 -0.042591814 -0.08085742
000350 10 26 2d bd 15 6f 8a bd 14 8b e4 3c 22 bf 4f 3d
       -0.042272627 -0.067594685 0.027898349 0.050719388
000360 0e a1 4d bd 98 2c dc bc 82 92 b9 bd 0e 50 a7 bc
       -0.05020242 -0.026876733 -0.09061147 -0.020423915
000370 78 ca 01 bc 9d 14 ba bd ad fa b0 bd c4 6e 24 3d
       -0.0079218075 -0.09085963 -0.086415626 0.040144697
000380 46 52 04 3d 56 81 6e 3d 36 08 b9 bd 9c 36 18 bd
       0.032305025 0.058228813 -0.09034769 -0.037161455
000390 ed b9 a2 3d a0 ac 25 3d 80 45 73 bd f7 1a d2 3a
       0.07945619 0.04044783 -0.059392452 0.0016029765
0003a0 ec 6c ac bc 4b 82 90 bd 72 91 48 bd e2 90 93 bd
       -0.021048032 -0.070561014 -0.048966832 -0.072053686
0003b0 21 e5 22 bd a2 07 fa bc da ff b9 bd f4 de 0b 3c
       -0.039769296 -0.030521218 -0.09082003 0.008537043
0003c0 ce 96 5c bd 05 e3 3b bd b2 ef 84 bd 68 1b 53 3b
       -0.053854756 -0.0458708 -0.06491031 0.003221238
0003d0 f7 5e 60 bd 0f 7e 8f 3d d7 5b 69 bb a4 d2 eb 3c
       -0.054778066 0.07006466 -0.003560772 0.028786965
0003e0 b8 3d e2 3c 83 aa a4 bd 56 7c a1 3d 51 67 0c bd
       0.02761732 -0.08040335 0.07885043 -0.034278218
0003f0 33 db 95 3c 91 5d a1 3d e4 c2 fb bc 28 05 44 3c
       0.018292999 0.078791745 -0.03073258 0.01196412

pre_lin_list.0.bias f4 [20]
000000 45 d8 27 3d 35 a1 84 bd e4 4e af 3d 94 6f d4 bc
       0.040977735 -0.0647606 0.08559969 -0.02593211
000010 92 40 a9 3d 24 98 a9 3d a5 bf 8c 3d 78 67 aa bd
       0.08264269 0.08280972 0.06872491 -0.08320516
000020 07 0c 3d bd 94 39 aa ba 50 2b c3 bc 10 fd 95 3d
       -0.04615405 -0.001298713 -0.023824364 0.073236585
000030 c0 21 45 bc a8 49 83 3d b8 29 e0 3d a3 4a 79 3d
       -0.012031972 0.06410533 0.10945457 0.060862195
000040 4e bc 4d bd 7a c7 77 bd d3 99 34 3c 0a dc 2f 3d
       -0.05022841 -0.06049297 0.011023003 0.042934455

conv_list.0.lin_f.weight f4 [20, 90]
000000 77 50 e1 bb f3 f4 e7 3d c4 f3 83 bd e1 d4 63 3d
       -0.0068760472 0.11326017 -0.06442979 0.05562294
000010 c6 49 a2 3d 1d c6 9c bd 80 ed ef bd 18 6b 54 3d
       0.079242274 -0.076549746 -0.117152214 0.051859945
000020 f6 fc 07 3d 53 45 6a bd 26 e9 9c 3d 68 41 65 3d
       0.033200227 -0.05719502 0.07661657 0.05597058
000030 59 48 ae 3c 61 c0 31 3d 10 57 dc 3d f7 ce 08 bc
       0.021274732 0.043396357 0.10758793 -0.0083501255
000040 02 28 fb bc 3c e0 24 bd b6 a0 88 3c 83 89 55 3d
       -0.030658726 -0.04025291 0.016678195 0.052133095
000050 6f 94 6c bd a0 b9 35 3d a5 1e 05 bc ad 10 bf 3d
       -0.057758745 0.04436648 -0.008124982 0.093293525
000060 e4 28 31 3b d5 f3 d0 3d ea 48 d9 bd 2f b9 63 bd
       0.002703243 0.10202757 -0.106096104 -0.055596527
000070 0e ff 68 bd cd 7e 7f bd 6b 85 72 3d 96 f2 87 bd
       -0.056883864 -0.062376786 0.05920927 -0.066380665
000080 f8 e6 e2 3c 0e db 02 bd db 7e 5f 3c 1b 77 54 3d
       0.027698025 -0.031947188 0.013641085 0.0518714
000090 d7 6c 67 bc 5f 37 93 bd 8b 92 ab 3c 4e d3 d8 bd
       -0.014125071 -0.071882956 0.0209439 -0.10587178
0000a0 56 7d 0c 3d 99 83 58 bd 8f b4 93 3d 6c e1 32 3d
       0.034299217 -0.052859876 0.07212173 0.04367201
0000b0 59 af 58 3d 2e 29 a8 bd 07 da c1 bd 65 5e 6b bd
       0.0529016 -0.082109794 -0.094654135 -0.05746307
0000c0 8b cd b5 3d a2 b7 9a 3c b1 1d 92 3c 24 3a 21 bd
       0.08877095 0.018886391 0.017836424 -0.039362088
0000d0 48 30 9e 3d fe 1b 03 3d 3d 5d a0 bd 30 ff 73 3d
       0.07724053 0.032009117 -0.07830284 0.059569538
0000e0 49 e3 f1 bd d9 8a dd bd c4 cc 78 bd 57 89 9e bc
       -0.11810929 -0.10817499 -0.060742155 -0.019352598
0000f0 48 5c 36 3d 3c 35 ef bd 60 78 e3 bd 7d a7 d4 bd
       0.0445216 -0.116800755 -0.11106944 -0.10383508
000100 02 d0 79 3c 8b 2d 9e bd b8 f1 b3 ba 7c 61 51 3d
       0.015247347 -0.077235304 -0.0013728654 0.05111836
000110 53 25 ab 3d 51 fd d6 3c 88 43 b8 bc 7a ba 75 3d
       0.083567284 0.026243838 -0.022493139 0.05999229
000120 1c 6f 79 bc 88 02 a7 bd 87 bf 9f bd f3 a6 25 bd
       -0.015224244 -0.0815478 -0.07800203 -0.04044242
000130 f9 ab 1e 3d 87 ef 82 bd df de 6a 3d 3e 6d a3 39
       0.038738225 -0.063933425 0.057341453 0.00031171174
000140 76 96 32 bd 1c ed a8 3d 9c f3 d4 3d e2 dc 1b 3d
       -0.043600522 0.0824835 0.10398027 0.038052447
000150 f0 0c 04 3e 05 21 1d 3d d3 6b 7b bd 27 68 42 bc
       0.1289556 0.038361568 -0.061382126 -0.011865652
000160 b9 23 c7 3d 20 32 47 3d d8 1e 5a bd e4 64 cc bc
       0.097236104 0.048631787 -0.05325207 -0.024950452
000170 b5 5d 0f 3d 98 b8 af bc d1 53 b9 bd fa 3c 31 3d
       0.035001475 -0.021450326 -0.0904919 0.043271042
000180 0e bf 90 bb 9c 14 b6 bd 5d b1 11 bd 75 6f 08 3d
       -0.0044173067 -0.0889065 -0.035569537 0.03330942
000190 17 f1 c5 3d c1 e4 49 3c 07 6c fc 3c 19 6b 21 3d
       0.09665125 0.012322606 0.03081323 0.039408777
0001a0 14 c8 f1 3c f1 43 14 bd 21 28 df bc 0a 4f 26 bd
       0.02951435 -0.036197606 -0.027240815 -0.04060272
0001b0 4a 54 c5 bd 39 a7 32 3b d3 a3 e9 bd 9b 83 cc bd
       -0.096352175 0.0027260317 -0.114082 -0.09986039
0001c0 1d cd e8 bb 6a 43 95 3d 4e d3 7f bd b5 05 b0 3a
       -0.0071045295 0.07288249 -0.062457375 0.0013429435
0001d0 3b 6a 8b 3d fc 46 96 bd 83 2f 6d 3b 01 d8 01 be
       0.06807371 -0.07337758 0.003619165 -0.12680055
0001e0 35 df 74 3b c8 73 c5 3d 91 6b c8 3d 7e 8b 97 bb
       0.0037364487 0.09641224 0.09786142 -0.004624783
0001f0 36 c6 f1 bb a4 8d 57 3c 95 4b ab bd 46 39 3d bc
       -0.007378365 0.013156328 -0.083640255 -0.0115493
000200 b3 9f dd 3c 54 3f 62 bd 43 26 76 bd 1c 28 b2 bc
       0.02705369 -0.055236176 -0.060095083 -0.021747641
000210 0c 2f ac 3d 3a 40 78 3d 59 7f 5d 3d e6 2f 44 bd
       0.08407411 0.060608126 0.054076526 -0.047897242
000220 a2 97 ef 3c 6b fc dc bc 5a 72 76 3d 43 09 96 3d
       0.029247109 -0.026975831 0.060167648 0.07325985
000230 97 b4 06 bc 8d 48 90 bd 2e 30 0f bd 27 39 e4 3c
       -0.008221767 -0.07045088 -0.034958057 0.027859284
000240 d0 66 5b bb bc c6 c1 bd fd 44 e1 3c 39 1b 81 bd
       -0.003347803 -0.09461734 0.027498716 -0.063040204
000250 e1 b7 2e bd 2a 19 1c 3d 70 6b ed 3b a9 65 3a 3d
       -0.04265583 0.038109936 0.0072454736 0.045507107
000260 73 f3 d1 3d 00 b4 ad 3d 63 ba bd 3a 01 55 de 3d
       0.102515124 0.08481598 0.0014475103 0.10856057
000270 06 11 8c bd a4 bb 94 3c 63 d1 2e 3d 22 70 d0 3d
       -0.068391845 0.01815588 0.042680155 0.10177638
000280 b3 bf 8e bd db d2 49 bd 63 7f 64 3d a3 42 25 bd
       -0.069701575 -0.049273353 0.055785548 -0.040346753
000290 b3 c3 07 bd f5 88 35 bd 67 92 3a bd a7 d4 c9 bd
       -0.033145618 -0.044320066 -0.045549776 -0.09855013
0002a0 ee b3 96 bc 16 7f f8 bc 4f b5 8e 3c 2d eb fb 3c
       -0.018396344 -0.030334037 0.017420439 0.030751789
0002b0 00 7f 02 3d dd 28 d9 bd da 8b de bd ab f4 b3 bd
       0.031859398 -0.10603497 -0.10866518 -0.08786901
0002c0 48 19 10 be 40 e6 d8 bd 0e 66 a6 bd 42 59 ce bc
       -0.14072144 -0.10590792 -0.08124934 -0.025189046
0002d0 20 8e ee 3d c9 1d 03 3e 4a ca 38 3d e4 af b7 3b
       0.11648202 0.12804331 0.045114793 0.0056056846
0002e0 59 0a 46 3d 9c 25 1a 3d 3c ad b6 3d b2 9a a4 bd
       0.048349712 0.037633523 0.089197606 -0.08037318
0002f0 60 63 b0 bd 2f 65 8f 3d a9 d4 1d bd 04 9e 9b 3c
       -0.08612704 0.07001721 -0.038532887 0.018996246
000300 1c f8 88 bc 99 c2 ba 3b 79 34 92 bd e3 f5 0f ba
       -0.01671987 0.0056994674 -0.071389146 -0.0005491657
000310 c0 7f 61 bd 47 bc 8f 3d a2 b6 5f bc e6 ea ca bd
       -0.055053473 0.07018333 -0.013654383 -0.099080846
000320 ec 09 91 bc 67 69 0a bd 47 67 1b 3b 83 4e 7e 3d
       -0.017704926 -0.033791926 0.002371268 0.062086593
000330 08 6a c2 bd a6 1a 42 bd d1 b6 ca bc 2e 8f 5e bd
       -0.0949288 -0.047388695 -0.024745377 -0.054335766
000340 1c 04 f0 bd fa b9 26 bd 86 42 a6 bd 6b e5 38 bd
       -0.11719534 -0.040704705 -0.08118157 -0.045140665
000350 37 79 43 bc 8f 4f 07 3d 1d d7 8b 3d 07 3a bd 3d
       -0.011930755 0.033034857 0.06828139 0.092395835
000360 d1 e2 32 3d bc f8 a2 3c af 3a 4b 3d 21 bb 28 3d
       0.04367334 0.019893996 0.049616512 0.041194085
000370 26 60 fb 3c a7 82 a5 3d ac 6a a2 bd 20 38 04 3d
       0.030685496 0.080815606 -0.07930502 0.032280087
000380 75 83 77 bd 3a 32 79 3d 03 e2 8c bd 68 8d 4e 3d
       -0.0604281 0.060838915 -0.06879046 0.050427824
000390 c1 f9 96 bc 72 6e 9d 3d 73 d1 c5 bd 9d 64 41 3c
       -0.018429639 0.076870814 -0.0965909 0.011803773
0003a0 4f f0 95 3d ef 50 a2 bd 26 4f 0d bd 3b e4 72 3d
       0.07321226 -0.07925593 -0.03449931 0.05929969
0003b0 3e 3f 68 bd 78 d6 a5 bd d2 39 73 3b 5a 3c bc bd
       -0.056700937 -0.08097547 0.003711332 -0.09191199
0003c0 55 97 b5 3d f0 52 3c 3d dd dd b6 bb 33 22 87 3d
       0.08866755 0.045977533 -0.0055806474 0.0659832
0003d0 5e 53 7f bd fc aa 0d 3c 23 b6 de 3d fc 90 9f bd
       -0.062335365 0.008646723 0.108745836 -0.077913254
0003e0 7f fe 69 bd c3 02 13 bc 6e c0 ab 3d ed a2 b4 3d
       -0.057127472 -0.008972826 0.083863124 0.08820138
0003f0 2e 95 a4 bd 49 06 a6 bd e3 0a 89 bd f7 db 66 bd
       -0.08036266 -0.081066675 -0.066915296 -0.05636212

conv_list.0.lin_f.bias f4 [20]
000000 de b7 0d be be ba 7b bd 3b e6 b3 bc b0 21 94 3b
       -0.13839671 -0.061457388 -0.021960368 0.0045206174
000010 e3 5c 44 3b 4e 9c c5 bd 4e 86 48 3d d3 62 33 3b
       0.0029962591 -0.096489534 0.048956208 0.0027372136
000020 9e 48 89 3d bb b9 7a bd 0d e2 7b bd 5a 80 a6 bd
       0.06703304 -0.061212283 -0.061494876 -0.0812995
000030 79 9a b2 bd af 2a 9e bd 33 c6 26 3d 9f 19 e1 3d
       -0.087208696 -0.07722985 0.04071636 0.10991215
000040 84 c9 8a 3d f6 6e 24 bc 0d ac 4c 3c 4b 4b 7c bc
       0.06776717 -0.010036221 0.012492192 -0.015398811

conv_list.0.lin_s.weight f4 [20, 90]
000000 aa de 94 3c 8e 39 68 3d de 11 a3 3d 5c 81 f5 3c
       0.01817258 0.056695513 0.07962392 0.02996891
000010 5c f1 96 36 bc e2 bf b9 39 d1 04 3d b9 4b f6 bc
       4.4984463e-06 -0.0003659929 0.032426093 -0.030065404
000020 e7 29 da 3d 91 04 7a bc 5f 85 f4 3d 76 b3 87 3d
       0.106525235 -0.015259878 0.11939501 0.06626026
000030 3f 80 c6 3d 5a 6a 57 3d 9e 68 87 bd 22 78 76 3a
       0.0969243 0.05259166 -0.06611751 0.00094020565
000040 1e e4 bb bc 6e f1 d2 3d 4d 37 ab bd 78 45 76 bd
       -0.022935923 0.10299955 -0.08360157 -0.060124844
000050 1b 84 57 3d e9 6c 1b 3c 0b 17 ae 3d b0 c1 90 3c
       0.05261622 0.009486415 0.08500489 0.017670482
000060 40 c5 96 ba f7 8b c7 3d 23 90 36 bd 54 ce 0c 3b
       -0.0011502877 0.09743493 -0.044571053 0.0021485286
000070 a2 2a d5 bb 0e dd 68 3d ab 2d 3e 3c 87 8a 63 bd
       -0.0065053264 0.05685144 0.011607568 -0.05555203
000080 00 0f 30 bc 8b 05 e1 bc ff c1 bd bd 7c 30 7a bd
       -0.010745764 -0.027468463 -0.092655174 -0.061081395
000090 6d de 0a bd 36 ce d4 bc df 3f 7e bb d7 1d 05 bd
       -0.033903528 -0.025977235 -0.0038795394 -0.03249916
0000a0 1b 0c 8e bd fc e7 c5 bd b9 7c b3 3d 27 28 93 3d
       -0.06935903 -0.09663388 0.08764023 0.07185393
0000b0 46 6f 83 3d c9 3d 7b bd 7e a8 43 bd e3 4d 41 bd
       0.06417708 -0.06133822 -0.04776811 -0.04719342
0000c0 36 dd 2a bd b2 58 53 3d 2f c6 a5 3d 49 ff a4 39
       -0.04171487 0.05159826 0.08094441 0.0003147072
0000d0 40 04 32 3d 7c c2 a3 bd 11 a6 45 bd 35 01 02 3d
       0.043461084 -0.07996079 -0.048254076 0.031739432
0000e0 9f 2a 01 bd 9b 43 26 3d 97 0b 60 bd 39 e3 e8 bb
       -0.031534787 0.040591817 -0.054698553 -0.007107165
0000f0 b9 70 cd bd 41 a3 52 3b 3d 05 eb bd 42 5d 6e 3d
       -0.10031266 0.0032140764 -0.114756085 0.058194406
000100 74 5a bc bc 51 a3 0d bd 90 57 df bd c7 7a 25 3d
       -0.02299235 -0.03457958 -0.10905373 0.040400293
000110 f7 b4 0f 3d e7 24 d4 3b 48 f2 d2 3a 99 ea 51 bd
       0.03508469 0.0064741257 0.0016093934 -0.05124912
000120 5d f0 31 bd 11 7b bb 3d 80 85 23 bd 6c dd 4a bd
       -0.04344212 0.091543324 -0.039922237 -0.04952757
000130 c7 14 24 3d 06 27 8c bd 9b 75 ec 3c 2c bf 8e 3d
       0.040058877 -0.06843381 0.028864672 0.06970057
000140 30 3e a3 bd c9 a4 6d bc b1 98 74 3c d1 c3 1a 3d
       -0.07970846 -0.01450462 0.014928983 0.0377844
000150 f6 fd 4b bd 99 ea 00 3e 55 ca 01 bd a8 b3 1a 3d
       -0.049802743 0.12589492 -0.0316871 0.03776899
000160 04 f8 bd 3d 97 57 b9 bc 07 70 39 3c 69 2e 80 bc
       0.09275821 -0.022624774 0.011318213 -0.01564713
000170 6d ba 68 3b ae 80 36 bd 9b f6 20 3d 8e d7 1a bd
       0.003551151 -0.044556312 0.03929768 -0.037803225
000180 4e 40 c4 bd a3 4b 73 3d e7 d8 7e 3d 4f 0f e4 bd
       -0.09582578 0.059398305 0.062218573 -0.111357324
000190 db 3e 39 bd e8 de 71 3d 9e 26 49 bd c1 87 d7 bc
       -0.04522596 0.05905047 -0.049109094 -0.02630985
0001a0 27 d7 f5 3d de e8 0f bd 34 fe 96 3c 97 01 b4 bc
       0.12003928 -0.03513419 0.01843176 -0.021973414
0001b0 7d 67 62 bd 0e 2b ec bc fa e1 2c be e1 52 a8 bd
       -0.055274475 -0.028829124 -0.16883078 -0.08218933
0001c0 2c 7a 18 be 95 c8 bb 3c a6 cc 96 bc 40 fd cc bc
       -0.14890355 0.022922793 -0.01840813 -0.025023103
0001d0 f2 f6 9c bd 2a e2 bb 3d e6 5b ab 3d 75 f7 3b 3d
       -0.076642886 0.09173997 0.083671376 0.04589029
0001e0 c3 12 c0 3d 29 da a2 3d 96 8a b5 3d e3 95 e6 3b
       0.093785785 0.07951767 0.08864324 0.007036911
0001f0 80 0b a1 bc 1d 5f 3b 3c aa 76 84 bd 0a 03 ad 3d
       -0.019658804 0.011436251 -0.06467946 0.08447845
000200 91 4b d2 bd 1b 24 45 3d 4b 1b 23 3d ac 0f 7f 3b
       -0.102683194 0.048130136 0.03982095 0.0038919253
000210 70 7d 94 3c 7d ce a1 bd d5 f7 9a bc a0 08 ae 3d
       0.01812622 -0.07900713 -0.018917004 0.08497739
000220 dd 87 aa 3c c2 11 0c bb b0 d5 c8 3d 83 c4 ec 3c
       0.020816738 -0.002137289 0.09806383 0.028902298
000230 e2 f3 2e 3b da 08 ce 3d 16 f4 0e 3d ee 82 ab bd
       0.0026695658 0.10060282 0.034900747 -0.08374582
000240 4c a5 17 bd 3a 48 04 bd a2 ed 28 bd 84 0d d1 bd
       -0.037022874 -0.032295443 -0.04124225 -0.10207656
000250 d9 49 84 bc 13 1d 80 3d ce 3c 80 bd 13 ba a4 3d
       -0.016148495 0.062555455 -0.062615976 0.08043303
000260 a7 30 73 3d 9a bf 54 bd 35 b9 52 3d cb da cf 3d
       0.05937257 -0.051940538 0.05144616 0.10149153
000270 0c b1 d2 bb 7b b7 e3 bc 1a 8d 81 3d 80 82 48 3a
       -0.006429797 -0.027797451 0.06325741 0.00076488405
000280 7b a6 8d 3c 18 b4 9c bd 8e df a7 3d ec 8f 2d 3d
       0.017291298 -0.07651538 0.081969365 0.042373583
000290 54 f5 48 3d 55 f5 85 3d 8d 0f ce bb 14 52 53 3d
       0.049062088 0.06540934 -0.006288475 0.051591948
0002a0 e4 3e 8f 3d 38 61 ae bd ba 00 21 3d 50 52 81 b9
       0.06994417 -0.08514637 0.039307334 -0.00024666125
0002b0 d6 db e3 bd fb b7 0f bd e7 0d 0a 3d 91 83 1a 3d
       -0.11125915 -0.035087567 0.033704665 0.037723128
0002c0 9b 54 0d bc dd ae 95 bd d9 22 48 3d 76 0b 0f be
       -0.008626129 -0.07308743 0.04886136 -0.13969216
0002d0 3d f7 6c bd 4f 54 00 3d a7 f1 fe 3d 90 46 cc 3c
       -0.057852972 0.031330403 0.12448435 0.02493599
0002e0 cd 05 1b 3c de f7 45 39 77 54 c8 bd b0 f8 81 3d
       0.009461832 0.00018879722 -0.097817354 0.063462615
0002f0 7b 99 8f 3d a4 2b 23 3d 77 70 16 3d 49 4b 0a 3d
       0.07011696 0.03983654 0.03672835 0.033763204
000300 1c 1a 63 3d be ac a3 3c 0f b5 d0 3d 3b 6d 94 3d
       0.05544482 0.01997983 0.10190784 0.072473966
000310 f6 14 31 3d d7 c5 4d bd 69 6b b8 3c 58 2a f2 bd
       0.04323288 -0.050237503 0.022512155 -0.11824483
000320 f1 b3 6e bd 53 7c 90 3c a6 65 e4 3d 6b 06 82 3d
       -0.058277074 0.017637407 0.111522004 0.063488804
000330 3d 7c 47 bd 1d be 3b bd 66 77 c3 bd e9 b8 21 bd
       -0.048702467 -0.045835603 -0.09544258 -0.039482985
000340 e3 04 96 bd a0 27 01 bd f7 d6 7e bd 18 ed dd 3d
       -0.07325151 -0.03153193 -0.062216725 0.10836238
000350 46 cb b6 bd 82 58 17 3d 11 89 c6 3d ae 47 af bc
       -0.0892549 0.036949642 0.09694112 -0.021396484
000360 c3 d3 a8 3c d7 a3 cb 3c 8e 48 9d 3d 11 ed 09 bc
       0.020608788 0.024858398 0.07679854 -0.008418337
000370 cb bd 02 3c 51 01 ce bd cc d2 a3 bc 8a 5d 16 bb
       0.0079798205 -0.10058845 -0.019997977 -0.0022943937
000380 1a 45 d8 bd d5 96 64 bd db 05 1d bc a9 71 ab bd
       -0.10560055 -0.055807907 -0.009583916 -0.08371288
000390 10 02 78 3d 27 5d 2a 3d 25 06 26 bd b8 5d 2e bd
       0.060548842 0.041592743 -0.040533204 -0.042569846
0003a0 19 80 ab bb 1d 6a fd 3c e5 29 8d 3d 8c 96 9c bd
       -0.0052337763 0.030934388 0.068927564 -0.07645902
0003b0 4f b3 3f bd ee 34 89 3d a7 75 9e 3a c9 61 88 bd
       -0.04680186 0.06699549 0.0012089506 -0.06659276
0003c0 90 3a d5 bb 71 f4 b1 bd 3d 82 e6 3c f2 c8 3f 3d
       -0.0065072253 -0.086892016 0.028138274 0.046822496
0003d0 1c 0f fd 3c 91 18 53 3d 15 b8 3e bd 85 f6 c5 3b
       0.030890994 0.0515371 -0.046562273 0.0060413503
0003e0 6b 0a bc bc 86 e0 72 3d 86 85 7f bc 0e 4f 88 3d
       -0.022954186 0.059296153 -0.015595799 0.066557035
0003f0 47 61 ff 3c 05 a9 b0 bd 77 bf 30 3c a2 30 a2 3d
       0.031174315 -0.08625988 0.010787836 0.07919432

conv_list.0.lin_s.bias f4 [20]
000000 ce ef df bd 1e 5a 16 3d 27 f4 8e bd 47 2a ea bd
       -0.10934411 0.036707036 -0.06980162 -0.11433845
000010 a0 aa 52 3c 19 cc fb bc b6 52 18 3b 90 24 c9 3d
       0.012858063 -0.03073697 0.002324266 0.09821427
000020 b4 00 ca bd 1a b9 76 3d d0 c7 a3 bd 98 dc 12 bd
       -0.09863415 0.06023512 -0.079970956 -0.035854906
000030 de 13 8a bd c9 7c 7c bd ab 88 85 bc 28 79 5c 3d
       -0.067420706 -0.061642442 -0.01630052 0.05382648
000040 2e 06 e3 bd 7c 1e 27 bb 60 d8 47 bd c6 f8 ab bd
       -0.11085163 -0.0025500348 -0.048790336 -0.08397059

conv_list.1.lin_f.weight f4 [20, 90]
000000 97 37 8c 3d 61 07 9c 3d af e5 8d bd c9 86 0a bd
       0.068465404 0.07618595 -0.06928574 -0.033819947
000010 57 f0 91 bd 9b e4 a7 bd 05 79 c0 3c 49 f5 90 bd
       -0.07125919 -0.081979 0.023495207 -0.070780344
000020 fe a6 ca bc 07 81 f3 bc e1 01 c5 bd 83 42 bb bd
       -0.024737831 -0.029724611 -0.09619499 -0.091435455
000030 d1 97 03 be a4 ce 9b bd fd 4a 84 bd 64 97 44 ba
       -0.12850882 -0.07607773 -0.064596154 -0.00074993656
000040 4f 00 b8 bd e6 af 97 3d f6 1f dd bc 3c f1 30 bd
       -0.08984434 0.07406597 -0.02699278 -0.04319881
000050 2b 87 5b bd d2 b1 93 bd 28 5c e3 bd 7d e4 22 3d
       -0.053595703 -0.07211651 -0.11101562 0.039768685
000060 c6 3a c1 3c eb b1 a1 bd 03 ad 1b bd 7c e2 3e bd
       0.023587596 -0.07895263 -0.038006794 -0.04660271
000070 82 04 1a bd ef 05 c2 3d 50 f4 0f 3c f0 53 3a 3c
       -0.037601955 0.09473788 0.008786276 0.011372551
000080 a7 e6 d8 bd 68 45 6a 3c 01 16 4f bd 72 93 43 bd
       -0.105908684 0.014298774 -0.050558094 -0.047748037
000090 91 6a a3 3c 66 cf a1 3d ea b2 75 3d 37 20 57 3d
       0.019948276 0.07900886 0.05998508 0.052520957
0000a0 16 08 53 bd 12 95 7d bd 75 a9 a4 3d 64 ba b4 3c
       -0.051521383 -0.061909743 0.08040134 0.022061534
0000b0 88 b5 8d bd 8b 76 ed ba 44 43 7d bd 72 ee 30 3d
       -0.0691939 -0.0018116994 -0.061831728 0.04319615
0000c0 9e ce ca 3c ef 4b 7c 3d 16 92 4a 3d 63 71 81 bd
       0.024756726 0.061595853 0.049455725 -0.06320455
0000d0 06 95 e5 bd 78 a1 81 3d 84 66 48 3d aa af 0c bd
       -0.112100646 0.06329626 0.04892589 -0.034347214
0000e0 02 ff bc bd 4c b8 e5 3c 0a 0b 72 3d b7 81 29 bd
       -0.092283264 0.028041981 0.05909256 -0.04138347
0000f0 73 fa 45 3d 08 eb bc 3d 19 34 bc 3d 10 45 84 bc
       0.04833455 0.09224516 0.09189624 -0.016146213
000100 66 44 ae bd 59 e5 d6 bc b9 d1 92 3d cf 69 81 bd
       -0.0850914 -0.026232408 0.07168908 -0.063190095
000110 bd b9 81 3d 9e 22 5b 3d ee dd d6 3d d0 bb 05 bd
       0.06334255 0.05349981 0.104915485 -0.032649815
000120 a6 eb d3 3d 57 3d 06 3d b9 bb 7b 3c d4 4e 4b 3d
       0.10347681 0.032773342 0.015364581 0.049635723
000130 81 56 69 3d bf 1b 7a bd bf 4c ab 3d f2 9f 68 bd
       0.056967262 -0.061061617 0.083642475 -0.05679316
000140 c9 1a 91 3c fc c0 9a bd 5a 81 10 bd 04 e1 55 bc
       0.017712967 -0.0755634 -0.03527961 -0.013054136
000150 67 a1 a5 3d 25 2b 33 3d 9a c7 a8 3d 4d 0a f5 bb
       0.08087426 0.043742318 0.08241196 -0.0074780346
000160 07 30 27 bd 94 b3 16 3e 48 79 f4 3b e7 bb 06 3e
       -0.040817287 0.14716941 0.007460747 0.13157617
000170 8c f2 4c 3d d6 16 07 3e 6e 9d 98 bd c5 5b 38 bd
       0.050036 0.13192305 -0.07451902 -0.045009393
000180 95 f7 ae 3d 12 6d 5d 3c e9 df 94 3d 4d cd a3 bd
       0.08543316 0.013514774 0.0726927 -0.079981424
000190 8d 71 f7 3d 68 16 88 3d 9c 33 01 3e ca 5e 92 3c
       0.12082205 0.06644899 0.12617344 0.017867465
0001a0 5f 48 ae 3d 82 6b a4 3d 9f 77 80 bd cb 9f 0e 3d
       0.085098974 0.08028318 -0.06272816 0.03482036
0001b0 d0 92 6c 39 fe 70 77 3d c3 32 14 3d ec f0 dc bc
       0.00022561406 0.060410492 0.036181223 -0.02697035
0001c0 a0 0a be 3b ab 71 c7 3d cd fc bd bd 7e 2e 8b bc
       0.0057996064 0.09738477 -0.092767335 -0.016989943
0001d0 42 b8 14 bd ae bf 74 bd 47 36 60 bc 07 bd a7 bd
       -0.036308534 -0.059753112 -0.013684816 -0.08190351
0001e0 17 35 ac 3d c8 0e 92 3b e8 9b 80 bd ba 56 ef bc
       0.084085636 0.0044573285 -0.06279737 -0.02921616
0001f0 01 67 1d 3d 7b 71 76 3d cb 04 e2 bd 6d d9 8c 3b
       0.03842831 0.060166817 -0.110360704 0.00429838
000200 f4 2c 3d bd 3b 55 c7 3d 2d 14 a2 bd 73 9e 71 3d
       -0.04618545 0.09733053 -0.079140045 0.058989
000210 57 bc 90 bd b2 29 86 3d 5b c2 f2 3d df c6 18 bd
       -0.07067173 0.065509215 0.118534766 -0.037299033
000220 b6 e8 e9 bc 58 be 83 bd 59 59 22 3d f5 fa e5 3d
       -0.028553348 -0.064327896 0.03963599 0.11229507
000230 5f 57 3e bd 56 46 4f 3c 66 fc 88 bd cb c6 39 bb
       -0.046470042 0.012651047 -0.06688766 -0.002834725
000240 17 b1 a9 bc 81 06 1a bd 5d ef 18 3d e5 81 45 3d
       -0.020714326 -0.03760386 0.03733765 0.04821958
000250 6a db 7a bd 17 6e 88 3c 33 fb 99 3c 40 24 60 bd
       -0.061244406 0.016654057 0.018796539 -0.05472207
000260 35 04 8e 3d 84 44 a7 bc 42 00 17 3e f2 27 81 3d
       0.06934396 -0.020418413 0.14746192 0.06306447
000270 5e 5d b9 3d ea 15 87 ba 9b 25 28 3d f7 a6 37 3e
       0.090510115 -0.0010306214 0.04105149 0.17934786
000280 f9 f9 0f 3e d3 43 d7 3d ac 37 91 3d e4 44 b8 3d
       0.14060201 0.10510983 0.07090697 0.08997515
000290 f2 61 88 3d 8e 44 1d 3d 1c f1 a8 3d e0 6d 0a 3e
       0.066593066 0.038395457 0.08249113 0.13518476
0002a0 aa c5 d1 3d 7d 94 ad 3c 72 2c 54 3d dc f9 8a 3c
       0.102427796 0.021188969 0.0518002 0.016964845
0002b0 9a 17 93 3d 14 d7 97 3d 60 52 5b bd a1 00 bf 3d
       0.07182236 0.0741407 -0.053545356 0.09326292
0002c0 48 4c 84 3c 5a 7c 83 3d 11 3a 60 bd a3 29 e6 3a
       0.016149655 0.064202026 -0.054742876 0.0017560016
0002d0 fe 1e a1 3c 31 87 e2 bc b5 b6 a9 3c e1 1a 2f 3d
       0.019668099 -0.027652355 0.020717004 0.042750243
0002e0 8c 54 08 3e c8 28 20 3d eb 51 98 bd 5b 3e c7 bd
       0.13313502 0.039101392 -0.074374996 -0.0972869
0002f0 e5 0a a2 3c 3d f1 92 bd ec b0 17 bd cd cd 31 bd
       0.019780586 -0.07174919 -0.03703396 -0.043409158
000300 b5 41 b0 3c 6f df 5f bd ad 0b 7a 3d 94 42 7c bd
       0.021515707 -0.054656442 0.06104629 -0.06158693
000310 1f fc 36 3d 9c a3 00 be 53 bd 0a be 23 56 d8 bd
       0.044674035 -0.12562412 -0.13548784 -0.10563304
000320 4c 25 41 bd f7 44 c0 3a 48 15 d2 3d 23 89 aa bd
       -0.04715471 0.0014668991 0.10257965 -0.08326938
000330 0d 6a af 3d 61 0d 15 bd df df 8b bc 29 08 87 3d
       0.085651495 -0.036389712 -0.017074523 0.06593353
000340 9d 78 bd bc b9 a2 c4 3d 6b 11 19 3d bd 4f ae 3b
       -0.023128802 0.096013494 0.037370127 0.005319564
000350 41 1a 0b 3d f8 ab 80 bd 8f 96 a4 3d 93 60 86 bd
       0.033960585 -0.062828004 0.08036529 -0.06561389
000360 85 87 42 3c 74 ab 6b 3d 80 31 ac 3b 39 1d 19 b9
       0.011873131 0.057536557 0.0052549243 -0.00014602103
000370 ba 33 c4 3c ad d2 4b bd c0 e1 1b bd fd e0 a6 bd
       0.023950446 -0.049761463 -0.03805709 -0.08148382
000380 45 0f 5c 3d bb 04 cd bd f8 d8 91 3d a3 7f e1 bc
       0.0537255 -0.10010668 0.07121462 -0.027526682
000390 9f fe 87 3d 07 1a a0 bd e3 0d 9e 3d 72 57 16 bd
       0.06640362 -0.07817464 0.077174924 -0.036704488
0003a0 0c be bb bd aa 1f ad 3d 70 bd c3 3d a4 d9 8b bd
       -0.09167108 0.08453305 0.09557617 -0.06828621
0003b0 1d 74 fc 3c 00 c7 39 bd b2 1b 3a bd bf 2e 29 bd
       0.030817086 -0.045355797 -0.04543657 -0.041304346
0003c0 b7 04 7c b9 1a a2 67 bd 4f e4 87 bc 35 0d 08 bd
       -0.00024034349 -0.056551076 -0.016588358 -0.03321572
0003d0 23 69 48 bb 58 88 9b bd 08 2f 64 3c c1 72 3e 3d
       -0.0030580244 -0.07594365 0.013927229 0.046496157
0003e0 06 32 59 3d 6b f1 d1 3c 16 72 ce 3d 50 df a9 bd
       0.05302622 0.025627812 0.10080354 -0.082945466
0003f0 8f be 0e bd 41 96 d9 3c 7c d0 7f bd 69 70 d5 3c
       -0.0348497 0.026560904 -0.062454686 0.026054578

conv_list.1.lin_f.bias f4 [20]
000000 e7 99 0c 3c 51 a2 56 bd 67 c7 1d 3d b3 ac 0d 3c
       0.008581615 -0.05240089 0.038520243 0.008647132
000010 60 a0 d4 bd 0e 45 92 3c bc 9b ce 3c 0e e0 6c bd
       -0.103821516 0.017855193 0.025220744 -0.057830863
000020 18 c3 09 3d 3c 5c 23 bd 0a 2a 88 3d 8d 43 cb bc
       0.03363332 -0.039882883 0.06648643 -0.024812484
000030 ad 35 53 3d bf b8 30 bd ac 7b a1 3d 94 82 cf 3d
       0.05156486 -0.043144938 0.07884917 0.10132328
000040 4f 28 89 bd a7 71 a5 3d 1a c9 69 3d 9a 63 a6 bd
       -0.066971414 0.08078318 0.05707655 -0.08124466

conv_list.1.lin_s.weight f4 [20, 90]
000000 35 20 ce 3c 1a a8 7d 3d ee ed 65 bd 82 e8 47 3d
       0.025161842 0.061927892 -0.05613511 0.04880572
000010 33 97 b4 3d a4 09 d5 bd 37 00 f7 3d 62 53 9b 3d
       0.088179015 -0.104022294 0.12060588 0.075842634
000020 f3 35 2b 3c 65 86 0b bd 6e d3 93 bc 13 14 41 bc
       0.010449874 -0.034063715 -0.018045153 -0.011784571
000030 37 e2 23 bd 61 cc 84 3d 43 f0 54 bd be f3 11 bd
       -0.040010657 0.06484295 -0.051986944 -0.03563284
000040 e0 7b 0f 3b 0a 08 e4 3d dd 1e 62 3c 62 49 eb bc
       0.0021893904 0.11134346 0.013801304 -0.028721515
000050 78 c7 6a bd bf 92 4f 3d 70 79 f7 bd c9 e3 7d bd
       -0.057319134 0.050677057 -0.12083709 -0.06198481
000060 dc 3b ab 3c c6 25 7b 3d 4c 6f e2 3d 3d 81 59 3d
       0.020902567 0.06131532 0.110563844 0.053101767
000070 39 58 f4 3c 7b 75 a9 3d 2e 1b b5 bd ca b7 44 3c
       0.029827224 0.08274361 -0.08843075 0.012006709
000080 5a 5b 87 bb fa f3 d6 bd 88 37 9d 3c 6e cf 91 3d
       -0.004130763 -0.104957536 0.019191518 0.07119642
000090 a3 9c da bd 76 e5 a1 3d 2b fe da bb d6 9a 07 3e
       -0.10674407 0.07905094 -0.006683131 0.13242659
0000a0 47 ba 1a bc 79 ac 53 3d 2d 46 00 be 50 df e4 bc
       -0.009443826 0.051678155 -0.1252677 -0.027938515
0000b0 15 f4 9a bb b8 c0 04 3d b4 11 b8 bd 75 16 8f bc
       -0.004728804 0.032410353 -0.089877516 -0.017466763
0000c0 0d 20 b3 bd bb 18 28 bd 88 68 85 3d 73 1c af bd
       -0.087463476 -0.04103921 0.065140784 -0.08550348
0000d0 d2 c5 24 3d e7 1a 24 bd f6 ba 65 bd 6c db 17 bd
       0.04022772 -0.04006472 -0.056086503 -0.03707449
0000e0 77 30 a0 3a c0 9b ed bd bd e4 a1 3d 90 90 03 ba
       0.0012221475 -0.116019726 0.079049565 -0.0005018795
0000f0 ea fd bc bc 7b f8 c9 bd b4 57 af bd a7 78 e2 3d
       -0.023070294 -0.09861847 -0.0856165 0.11058169
000100 83 a3 58 bd 40 9c f6 3d c7 3b 11 bc df 44 a1 3d
       -0.052890312 0.12041521 -0.00886435 0.07874464
000110 ff e4 04 3e 24 fc 38 bc 41 d0 02 3d 08 f8 86 3d
       0.1297798 -0.011290584 0.031936888 0.06590277
000120 3a cc 39 bd 09 d8 87 bd b5 7d 32 bd d5 e9 0a bd
       -0.04536078 -0.06633002 -0.043576915 -0.033914406
000130 8a bf 00 bd ae f5 ca 3d 2d 99 36 bd d7 13 bf bb
       -0.031432666 0.09910141 -0.044579674 -0.0058312225
000140 d2 ae 4e 3d 09 b5 d8 3d 5c 61 ae 3d 30 e7 55 bd
       0.05045969 0.10581405 0.085146636 -0.05222243
000150 20 6b 91 3d b7 7b 27 3d af 70 7d bd b8 e9 3e bd
       0.071005106 0.040889468 -0.06187504 -0.04660961
000160 51 0e ca bc eb 0d 76 3d ee b3 19 bd 13 d7 38 bd
       -0.02466503 0.060071867 -0.03752511 -0.045126986
000170 e4 89 4f bd 77 f6 7b bd ed c4 ca bd a9 2d c5 bd
       -0.050668612 -0.061514344 -0.09900842 -0.096278496
000180 89 9a b8 3d b8 06 62 3d 60 87 5a 3c 82 18 10 bd
       0.0901385 0.05518219 0.01333794 -0.035179622
000190 ef d3 44 bd 64 82 c7 3d eb 27 78 bd 5b e0 3c bc
       -0.048053678 0.09741667 -0.060584944 -0.0115281
0001a0 70 41 c4 3b be 63 aa bb eb 6d 4a 3d a1 7c 23 bc
       0.005989246 -0.0051998785 0.049421232 -0.009978444
0001b0 c1 49 c1 bd de ba 9e 3d 94 ca 50 be a3 21 ed 3d
       -0.094378956 0.07750486 -0.20389777 0.11578681
0001c0 df 3d fb bd 0a e7 b2 3c 4c 4c ad bd 6f f4 e7 bd
       -0.1226766 0.021838684 -0.08461818 -0.11325919
0001d0 c4 9e 35 bd 61 a8 5e 3d 1b e0 90 3b a2 24 e6 3c
       -0.044340864 0.054359797 0.0044212467 0.02809364
0001e0 63 05 f6 3d b1 a1 0c 3c 07 0e 53 3d dc 5f 99 3d
       0.12012746 0.008583472 0.05152705 0.07488987
0001f0 69 91 78 3d 5c 10 8d bd 04 58 83 3d 39 a4 e8 3d
       0.06068555 -0.06887886 0.06413272 0.11359448
000200 18 cf 14 3d 44 e4 14 3e e9 c6 21 bd f1 4e 2a 3d
       0.036330312 0.14540201 -0.039496336 0.04157919
000210 be 2f 01 3e f6 fc 7d bc 91 c1 ac 3d f6 5e 6c 3d
       0.12615868 -0.015502205 0.08435357 0.05770775
000220 eb e3 41 bc 9e 45 2b 3e ba 99 d5 3d 3a b8 07 3e
       -0.011834125 0.16725776 0.10429712 0.1325387
000230 f1 cc dd 3c bd 13 bb 3c 6e 43 11 3e 55 70 b1 3d
       0.027075263 0.02283656 0.14185879 0.08664004
000240 8e 6e 22 3e 43 6f d6 3c 18 55 35 3e 53 fb 0d 3e
       0.15862486 0.0261761 0.17708242 0.13865404
000250 4f 75 1b 3e 4a 96 f5 3d f3 06 3b 3e 77 8c 49 3e
       0.15181468 0.11991556 0.1826437 0.1968249
000260 15 fc f8 3d aa 96 df 3d a4 a4 25 3e 14 c2 11 3d
       0.12157456 0.10917409 0.16176087 0.035585478
000270 3d 57 6d 3d 73 d8 a3 3d 59 d9 08 3e 0e b3 ae bc
       0.057944525 0.08000269 0.13364162 -0.021325614
000280 8b 84 dd 3d 0e dd fe 3c b7 d5 a9 3d 98 ad 21 3d
       0.10816296 0.031111266 0.08292716 0.039472193
000290 21 34 09 bd 30 00 e0 bc f3 fb 70 bc b1 b1 99 3d
       -0.03349698 -0.02734384 -0.014708507 0.07504595
0002a0 ab e0 04 bc 99 fb 6a 3b bb fd e3 3c 26 5e e4 bd
       -0.008110206 0.003585553 0.027830949 -0.1115077
0002b0 f7 d7 5e 3d a3 cb 01 ba e5 a4 3d bd be 9f 67 3d
       0.05440518 -0.00049513037 -0.046299834 0.056548826
0002c0 fd 87 cb 3c b7 01 7e bd c0 8e 78 bd 46 43 c0 bd
       0.024845118 -0.062013354 -0.060683012 -0.093878314
0002d0 ea d5 9f 3d 92 04 9c bc 32 44 33 3d 43 4d 89 3d
       0.07804473 -0.019045148 0.043766208 0.0670419
0002e0 8e ad 85 3d 3c 4c 10 3d 81 f6 22 3d 04 be c1 bd
       0.065272436 0.035228953 0.039785866 -0.09460071
0002f0 d0 05 26 bd 41 d8 8d 3d c1 f7 87 bc 81 4d 0a 3d
       -0.040532887 0.06926013 -0.01659763 0.03376532
000300 68 ff bc 3b d5 9a 76 3d 71 79 ce 3d dd 6a e3 bc
       0.0057677515 0.060206253 0.10081757 -0.027760917
000310 52 d0 b3 bd 80 8c 3f 3c 7e 3c fd bd e9 3b d9 bd
       -0.08779968 0.011691213 -0.123650536 -0.1060713
000320 d0 e3 fd 3d 98 a0 a5 3d c6 ca a2 3d 6b ce 07 3d
       0.123969674 0.080872715 0.07948832 0.03315584
000330 4e 3c 63 3d cf 15 b2 3d 89 d5 e4 bc b5 fb 27 bd
       0.055477433 0.08695566 -0.027933853 -0.04101153
000340 c5 b3 38 bc 25 bf 01 3e 09 94 85 3c cd 32 7b bd
       -0.011273329 0.12670572 0.01630594 -0.061327744
000350 8f 1d 28 bd 96 8c 82 3c 6c 07 30 bd 8f 25 84 bd
       -0.041043814 0.015936177 -0.042975828 -0.06452476
000360 d5 9b 93 bd 3c 55 d1 bd e4 0e 01 3b cf 13 c0 bd
       -0.07207457 -0.10221335 0.0019692713 -0.09378778
000370 9b ae b9 3d 35 1f e1 3c 22 90 07 3d 3b 90 be 3d
       0.090665065 0.027480701 0.03309644 0.093048535
000380 1f 93 b1 3c 0f 73 a0 bd 0f d9 c9 bd 17 3f cb bc
       0.021676598 -0.07834446 -0.09855854 -0.024810357
000390 85 dc d0 bd 2a 11 b1 3d 34 38 14 3d 54 65 90 3c
       -0.10198311 0.08645852 0.036186412 0.017626442
0003a0 89 30 d2 3d ca 9a 7e 3d 55 f0 cd 3d 1e ef 6b 3d
       0.102631636 0.062159337 0.10055605 0.057601087
0003b0 20 eb 90 bd e9 92 29 3d f5 12 4d 3d a1 58 ca 3b
       -0.070760965 0.04139987 0.050066907 0.006175116
0003c0 a7 77 e4 3c a8 3a b9 bd 2e 72 69 3d 1f 7b 8b bc
       0.027889086 -0.09044391 0.056993656 -0.017026482
0003d0 ec 69 ce 3b c3 98 87 3d e0 fe 29 3d 47 f9 be bb
       0.006299248 0.06620934 0.041502833 -0.005828056
0003e0 54 2a 23 bd 71 28 28 3d 93 e9 60 bc 9e ca 44 3d
       -0.03983529 0.041054193 -0.013727563 0.048044793
0003f0 77 c2 fa 3b cc ba 37 3d 0a 07 cb bd 24 95 da 3a
       0.0076525765 0.044855878 -0.09913452 0.0016676527

conv_list.1.lin_s.bias f4 [20]
000000 44 94 9d bd fd 37 1c 3e ea 5a 1b bd 82 7c 6f bc
       -0.07694295 0.15255733 -0.0379285 -0.014617087
000010 67 46 97 3d b4 9e a1 bb 70 2b 5a 3d 03 47 ad 3d
       0.07386475 -0.004932249 0.05326408 0.0846081
000020 c2 47 68 bd 0a d4 ba 3b 2a 54 81 3d 86 c0 31 bd
       -0.05670906 0.0057015466 0.06314881 -0.043396495
000030 63 19 61 3d a4 ab bd 3d 78 2b 20 bd e4 39 f8 bb
       0.05495585 0.092612535 -0.039103955 -0.0075752605
000040 47 8b 7e bd 18 3a 85 3c 09 14 93 3c 5b f2 61 bb
       -0.062144544 0.016263053 0.01795389 -0.003447673

conv_list.2.lin_f.weight f4 [20, 90]
000000 51 a9 08 bd a7 c6 a1 3d 46 39 57 3d db 60 fe bd
       -0.033364598 0.07899218 0.052544855 -0.124208175
000010 d3 19 f9 3c 22 c3 c4 bd f3 99 a7 3c 79 91 30 bc
       0.030407822 -0.09607531 0.02045915 -0.010776871
000020 12 64 c4 bc 6b 46 8a 3d 17 fc e7 3c 4a c7 a0 3a
       -0.023973498 0.067517124 0.028318448 0.0012266424
000030 63 e0 ae bd 17 1d 93 bd 15 26 4f 3d fd 82 b9 3b
       -0.08538892 -0.07183283 0.050573427 0.005661367
000040 09 93 47 3d de 31 06 3e 91 27 4c 3d 69 d8 00 3d
       0.048724208 0.1310496 0.04984242 0.031456385
000050 77 81 38 3c 62 9b 85 bd bd 21 da 3c 0f 0c 2f bc
       0.011261336 -0.065237775 0.026627416 -0.010684027
000060 91 da 03 be 17 56 2d bd df 9e 30 3d b9 21 03 3e
       -0.12876345 -0.04231843 0.04312026 0.12805833
000070 5a 04 dc bd ef 48 48 3d 33 59 0d bd fb 04 3b 3d
       -0.107430175 0.04889768 -0.034508895 0.045659047
000080 52 9c b2 bd 39 41 7c 3d 90 b3 a0 bc a2 50 ca bb
       -0.08721222 0.06158564 -0.019616872 -0.006174163
000090 11 ac 47 3d 21 01 46 3d 4a 05 76 3d 59 81 f9 3c
       0.04874808 0.04834092 0.060063638 0.030457186
0000a0 a9 b2 dd 3d d9 3a 1c bd 9a 18 02 3e f1 6b e9 3d
       0.10825092 -0.03814206 0.12704697 0.11397541
0000b0 53 a8 8e 3d 62 0a 45 3d bc e3 06 3e e9 78 29 3d
       0.06965699 0.048105605 0.13172811 0.041375075
0000c0 1c 1f f8 3d af bb b0 3d 5c fc 8e bd b0 32 97 3d
       0.12115309 0.08629548 -0.069817275 0.07382715
0000d0 0d 49 60 bd 0e ad 8c 3d 51 2d 7c 3d f1 b3 95 bc
       -0.054757167 0.06868945 0.061566655 -0.01827428
0000e0 d7 ad d2 3d 20 9b 34 bd 76 89 84 bd aa b4 a2 3d
       0.102870636 -0.04409325 -0.06471531 0.07944615
0000f0 bc 0d 93 3c a8 39 9c 3d ae 7b 0b 3e 56 24 43 3d
       0.017950885 0.076281846 0.13621399 0.047642075
000100 33 35 1c bd 71 6d e1 bc ba 17 7c 3d 5e 8a d6 bc
       -0.038136672 -0.027518006 0.061546065 -0.026189025
000110 73 f5 b9 bb 9e 9f 2f bd ae 78 21 3c d0 74 de 3d
       -0.005675012 -0.042876832 0.009855432 0.10862124
000120 ea 44 03 3d ac 76 03 3c 3c 6f d9 3d 59 7f 12 3d
       0.032048143 0.008023899 0.106169194 0.03576598
000130 d1 2e a3 3d ea a7 54 3d 35 7e 71 3c aa fc 78 bc
       0.07967914 0.051917948 0.014739563 -0.015196959
000140 13 60 f3 3c 79 14 fc 3c ed 9e 09 3e 9f 47 ca bc
       0.029708898 0.03077148 0.13439532 -0.024692355
000150 77 ba b2 bc 58 2c bf bc 67 09 14 3e a4 b6 98 3c
       -0.021817429 -0.023336574 0.14456712 0.018641777
000160 ef dc 8b 3d 18 0d 94 bc c9 91 96 bd 6d 01 11 3a
       0.06829249 -0.01807265 -0.07352025 0.00055315235
000170 50 b5 fd bd 22 b6 36 3d 0b 5d bf bd 17 db 09 3d
       -0.12388098 0.04460729 -0.093439184 0.033656206
000180 64 8f 42 3d 3e 00 00 3c d2 f3 1e 3b 74 f3 e0 bd
       0.04750003 0.007812558 0.0024254215 -0.10983935
000190 7b ca 15 3d e2 b4 f7 3d 02 6d d8 bd fb 50 b0 3d
       0.036570054 0.120950475 -0.105676666 0.08609196
0001a0 89 7f ee 3d df e6 29 bd 2a 0c 7e 3d d8 2c b8 3d
       0.11645419 -0.04147994 0.06202332 0.08992928
0001b0 a3 70 1c 3d cb 71 51 bd 7a ca 2a be b9 39 54 3d
       0.038193356 -0.051133912 -0.16678801 0.05181286
0001c0 9b d4 70 bd 01 cd d9 bd e9 4d b9 3c 4b e9 02 bd
       -0.058796506 -0.106348045 0.022620158 -0.031960767
0001d0 32 8d c6 bd db 0c 37 3d 72 49 ad 3d 80 10 f8 bb
       -0.096948996 0.044689994 0.08461274 -0.0075703263
0001e0 f2 ff f3 bc 06 49 ed bb c9 3c c6 bc 19 b8 e9 bd
       -0.02978513 -0.007241371 -0.024198906 -0.11412067
0001f0 de 91 08 3e f6 ac f8 3d ec f4 7f bc d1 fd 05 bd
       0.13336894 0.12142365 -0.015622359 -0.03271276
000200 dd df 28 bd 07 0c 3b bd 11 2d 8a 3d 82 d1 b9 3d
       -0.041229118 -0.045665767 0.06746877 0.090731636
000210 80 21 e3 3d 0c f8 34 3d 44 86 97 3c 92 9e cb 3c
       0.11090374 0.04418187 0.01849664 0.024855886
000220 2b 2b e9 bc d7 1b 81 3d 60 37 fb 3c ec d9 74 bd
       -0.028462967 0.06304138 0.030666053 -0.05977814
000230 32 f4 40 bc 83 ac 9b bd 26 a9 ba bd a3 47 9c 3d
       -0.011776971 -0.076012634 -0.09114294 0.07630851
000240 1f 56 8f bd 27 66 3a bc f9 dd c3 bc 25 03 46 bd
       -0.06998848 -0.011376894 -0.023909556 -0.048342843
000250 83 dd 90 bd 52 00 70 3d be 57 8d bd b4 2c b4 3d
       -0.070735 0.058594055 -0.06901501 0.08797589
000260 13 53 f4 3b 1a e4 47 3c 6a 95 d1 3c 22 de 88 3d
       0.0074561923 0.01220038 0.025583941 0.066829935
000270 45 01 e7 3d 8b e6 84 bc 3e 0d e5 3d f4 fa 22 bd
       0.11279539 -0.016223213 0.11184166 -0.03979011
000280 7f a6 bc 3d 46 47 a8 bd 66 94 1c 3d 7f b7 c6 3d
       0.09211444 -0.08216719 0.03822746 0.09702968
000290 93 36 83 3d 59 8f 45 3d 0b 6b a1 bc 09 7c 63 3d
       0.064068936 0.04823241 -0.019704362 0.05553821
0002a0 19 12 08 bc 87 c1 67 3d fb bd 88 bd 03 1b fa bc
       -0.008305096 0.056581046 -0.06676861 -0.030530458
0002b0 99 cc 03 be 12 a1 26 be 79 4d 02 be 79 eb a6 bc
       -0.12871017 -0.16272381 -0.12724866 -0.020375954
0002c0 fb 24 32 be 1d f8 9c bd cf 30 d9 bd ae 45 f8 bd
       -0.1739692 -0.07664511 -0.106050126 -0.12122665
0002d0 dd cd 1e 3d 9f 0d b0 bd 9e 45 dc 3c 32 de 98 bd
       0.038770545 -0.08596348 0.026888665 -0.074642554
0002e0 f6 52 d5 bc 5c 26 8a bd 82 f1 4b 3d c4 e2 a7 bb
       -0.026040535 -0.06745598 0.049790867 -0.005123468
0002f0 c5 4d 3f bd c9 21 c7 bd eb ce f1 3d 8a e0 8f bd
       -0.046705026 -0.09723241 0.118070446 -0.07025249
000300 3a 06 7a bd c2 c7 0c 3b ef 87 ac 3d d9 43 9e 3d
       -0.061041094 0.002148137 0.08424365 0.07727785
000310 d6 5e 96 bd d5 a6 b3 3a 6c a2 34 bd 5b c7 da bd
       -0.07342307 0.0013706336 -0.04410021 -0.10682555
000320 a4 2d e3 3d 0a 54 d1 bc fd 54 99 bc 8b d8 3f 3d
       0.1109269 -0.025552768 -0.018717283 0.04683737
000330 df dd b2 3d 4d b2 8a 3d db 29 20 bd d7 cc ae bd
       0.08733725 0.067722894 -0.039102416 -0.08535164
000340 51 5c ea bc ea 1e 40 bc 33 bc 5a bd af ab 00 3d
       -0.028608473 -0.0117261205 -0.053402137 0.03141373
000350 42 41 ae 3d 5e 0d a2 3d 9a b5 c3 bd 5f a7 9d bd
       0.08508541 0.07912706 -0.09556122 -0.07697939
000360 61 eb b7 bc 58 d9 ab 3d c7 79 ee bd be 3f 01 3d
       -0.022451105 0.083910644 -0.11644321 0.03155493
000370 fd 09 69 3d c4 9c 8a bc d2 84 ba bb 14 a2 ec bc
       0.05689429 -0.016920455 -0.005692103 -0.028885879
000380 a4 11 85 bb b1 44 5b 3d 7f d6 91 3d 3b 4d 44 bd
       -0.004060941 0.053532306 0.0712099 -0.047925215
000390 51 8f 3a 3d 11 2d b3 bd 1e 14 ad 3d 52 08 95 bc
       0.045546833 -0.0874883 0.08451103 -0.018192444
0003a0 3b d6 61 3d 6e 02 a4 3d 3e 9a 82 3d 09 a0 a5 bc
       0.055135947 0.08008276 0.063770756 -0.020217912
0003b0 84 d7 05 3d dd 59 bf 3d 8b 54 89 bd 12 48 d5 bd
       0.032676235 0.09343312 -0.067055784 -0.10414137
0003c0 42 b7 a5 3c eb 76 ba bc 62 4f af bd db 33 a0 bb
       0.020228986 -0.022761783 -0.08560063 -0.004888994
0003d0 90 f3 86 3d 91 b1 37 bd c9 cc d1 bd b4 09 a3 bc
       0.065894246 -0.044847075 -0.10244138 -0.019902088
0003e0 e8 dd 4c 3d 69 e2 bf bb e9 6e e7 bc c8 cc d2 bd
       0.050016314 -0.0058558476 -0.028251128 -0.10292965
0003f0 11 49 b2 bd 41 e1 1c bc ee 32 b0 bc 43 e3 c6 bc
       -0.087053426 -0.009575189 -0.02150866 -0.024278289

conv_list.2.lin_f.bias f4 [20]
000000 6e c0 34 3d 73 ba b0 bd d4 05 b4 3d 9d 35 0d bd
       0.044128828 -0.08629312 0.08790174 -0.034474958
000010 36 b5 39 bd 43 97 08 bd 9c 61 0f 3d 56 5e e9 3d
       -0.04533883 -0.03334738 0.035005197 0.11394946
000020 32 4b 50 3d 95 71 60 bc 89 92 dc 3d 4c 2a 95 bd
       0.05085296 -0.013698955 0.10770137 -0.07283458
000030 55 90 d5 3d c4 28 ac b9 22 b0 ef bc 72 4f bb bd
       0.1042792 -0.0003283677 -0.029258791 -0.09146012
000040 43 21 f4 3d b0 b2 c9 3d e5 25 bd 3d 20 be c3 3c
       0.11920407 0.09848535 0.092357434 0.02389437
