Model Results/CGCNN-UnOp/my_model.pth (torch, 371369 bytes, 140 tensors)

pre_lin_list.0.weight f4 [20, 117]
0	0x3c175e5d	0.009238807
1	0x3d6c8e76	0.05775305
2	0x3d3bc4f6	0.045842133
3	0xbd89db31	-0.067312606
4	0xbd31a240	-0.043367624
5	0xbd81b443	-0.0633321
6	0xbce7896a	-0.028263766
7	0xbdae032b	-0.08496698
8	0xbc72102c	-0.0147743635
9	0x3dac84ef	0.084237926
10	0xba43b3f0	-0.00074654724
11	0xbca24fc0	-0.019813418
12	0x3c48b988	0.012251265
13	0x3d12b7cf	0.035819825
14	0xb98437d4	-0.00025218597
15	0x3d26fe6a	0.040769972
16	0x3d4c9eb4	0.04995604
17	0xbd96a004	-0.07354739
18	0xbd123445	-0.03569438
19	0x3ca3d53c	0.019999139
20	0x3d6a16f1	0.057150785
21	0xbc5de988	-0.013544448
22	0xbc92beb1	-0.017913194
23	0xbdb8409b	-0.089966975
24	0x3d09962e	0.033590488
25	0x3c824d58	0.015906021
26	0x3cd6d8a4	0.02622635
27	0xbd73b017	-0.059494104
28	0xbcf3062c	-0.029666029
29	0xbcc3ef94	-0.02391795
30	0xbc2458f4	-0.010030974
31	0x3ba94fbe	0.0051669767
32	0x3d769905	0.060204525
33	0xbd274688	-0.04083875
34	0xbd8b3026	-0.06796293
35	0x3cf451e8	0.029824212
36	0x3d0381dd	0.03210627
37	0xbd0049cd	-0.031320382
38	0x3c23b6b4	0.00999229
39	0x3d22eac2	0.039774664
40	0x3d4b1c10	0.04958731
41	0xbce898b8	-0.028393134
42	0x3d39ae9a	0.04533253
43	0xbd5753ea	-0.05257026
44	0x3d0bafca	0.034103192
45	0x3d23ac6a	0.03995935
46	0xbd4a3007	-0.04936221
47	0xbb902645	-0.0043990933
48	0x3da01bb7	0.07817786
49	0xbdb38a5f	-0.087666266
50	0x3d5a1526	0.053242825
51	0x3c719b0a	0.014746437
52	0xbd99ba54	-0.075062424
53	0x3da22f9e	0.079192385
54	0xbcc6a1de	-0.024247106
55	0xbd87e255	-0.06634966
56	0x3d1865fa	0.037206627
57	0x3cf7d3f8	0.030252442
58	0xbd9a7a58	-0.075428665
59	0xbcffd36a	-0.03122874
60	0x3d2158ee	0.03939145
61	0xb9f6d189	-0.00047076892
62	0xbcf6e7ee	-0.03013989
63	0xbd851fdc	-0.06500217
64	0x3d36387e	0.04448747
65	0xbd902c42	-0.070396915
66	0x3bbaea88	0.005704228
67	0xbd81f6a2	-0.063458696
68	0x3ce3e878	0.02782081
69	0x3c942ab4	0.018086769
70	0xbd167bea	-0.036739267
71	0x3dbac286	0.09119134
72	0x3cf0f710	0.029414684
73	0xbd7f1c4f	-0.062282857
74	0xbbebcdcc	-0.0071961638
75	0x3d8bb717	0.06822031
76	0x3d92c66f	0.071667545
77	0x3d0ea01e	0.03482067
78	0x3da335bd	0.07969234
79	0xbcf2335c	-0.029565506
80	0xbd6469eb	-0.055765074
81	0x3d61803f	0.055053946
82	0x3d6a2dd6	0.05717262
83	0x3d549f26	0.05190959
84	0x3d3b8966	0.04578533
85	0xbd0e612d	-0.034760643
86	0x3cc24be0	0.02371782
87	0xbd932932	-0.07185592
88	0x3c74f228	0.014950313
89	0x3d0082c0	0.031374693
90	0x3d57e1e2	0.052705653
91	0xbb43421b	-0.002979404
92	0x3db0b131	0.086275466
93	0x3d90decb	0.070737444
94	0xbc05c76c	-0.008165222
95	0xbcb6bff8	-0.022308335
96	0xbda600ec	-0.081056446
97	0x3db6f1a9	0.08932812
98	0x3d318832	0.043342777
99	0x3c8ce120	0.017197192
100	0xbd15cc12	-0.03657157
101	0x3d5e4df6	0.054273568
102	0xbd8b1363	-0.06790807
103	0x3deccdcf	0.115626924
104	0x3db5c118	0.0887472
105	0xbcb206ba	-0.021731723
106	0xbda9dc9c	-0.08294031
107	0xbc836974	-0.016041495
108	0xbd21b349	-0.03947762
109	0xbcac4a80	-0.021031618
110	0xbc892df0	-0.016745538
111	0xbcc088c3	-0.023502713
112	0x3d445792	0.047935076
113	0x3d0d99cc	0.0345705
114	0xbda1def2	-0.079038516
115	0x3dce0cfa	0.10061069
116	0x3c803f90	0.015655309
117	0xbd86813d	-0.06567619
118	0x3dbadd49	0.09124238
119	0xbb9ee9af	-0.0048496346
120	0xbdaf9ea3	-0.085751794
121	0xbd90f272	-0.07077493
122	0xbd7ce6cb	-0.06174354
123	0xbdba8c57	-0.09108799
124	0x3b0b0b0a	0.0021216297
125	0x3b92ca8e	0.004479713
126	0xbdb7a1ca	-0.08966406
127	0xbce7fbd5	-0.028318325
128	0xb7bf74e7	-2.2823411e-05
129	0x3db0c52b	0.08631357
130	0x3d266f2b	0.04063336
131	0x3cf6ea8a	0.030141134
132	0xbd28bd98	-0.041196436
133	0xbd9814cc	-0.07425842
134	0xbda5303e	-0.08065842
135	0xbd0f0ddc	-0.034925327
136	0xbd21332f	-0.039355453
137	0x3d33df2e	0.043914013
138	0xbdae3d24	-0.085077554
139	0xbd025684	-0.03182079
140	0x3dba52cf	0.09097826
141	0x3db71603	0.08939745
142	0xbd3c74f6	-0.04600998
143	0x3d301226	0.042986058
144	0xbd6056ff	-0.054770466
145	0xbd913945	-0.070910014
146	0x3d231399	0.03981361
147	0x3ca84a50	0.020543247
148	0xbd6ab5f1	-0.05730242
149	0x3d7fa116	0.062409483
150	0xbcbe0588	-0.023195997
151	0xbcd3eb6c	-0.025869094
152	0xbd7fc3a5	-0.06244244
153	0xbd830362	-0.063971296
154	0xbd074277	-0.03302237
155	0x3d9aeb5d	0.07564423
156	0xbdb84373	-0.0899724
157	0xbd6fcb53	-0.058543514
158	0xbdb54f89	-0.08853061
159	0x3d2393c6	0.03993585
160	0xbdb2eab2	-0.08736171
161	0xbc6b0e7b	-0.014346714
162	0x3cda856c	0.026674949
163	0xbc86226c	-0.016373836
164	0xbd1b9f8e	-0.03799396
165	0xbda7d1bf	-0.08194303
166	0x3c140a1c	0.009035613
167	0x3dac9883	0.08427527
168	0xbd963cc5	-0.073358096
169	0xbdb5b9c8	-0.088733256
170	0x3d51013a	0.05102656
171	0x3d85b8fd	0.06529424
172	0x3b314197	0.0027047151
173	0x3db97fe5	0.09057597
174	0xbcf26828	-0.029590681
175	0xbdb41929	-0.087938614
176	0xbc4eb0e5	-0.012615417
177	0x3c807fc4	0.015685923
178	0xbcf2c3d4	-0.029634394
179	0xbda4eadf	-0.080526106
180	0xbd5fde12	-0.054655142
181	0x3c698cd0	0.014254764
182	0x3dacda21	0.08440042
183	0xbc7a60f0	-0.015281901
184	0x3d5b1546	0.053487085
185	0x3ce4560c	0.027873062
186	0x3d6125a2	0.05496753
187	0xbda88830	-0.08229101
188	0x3c8f621c	0.017502837
189	0x3c8d7400	0.017267227
190	0xbd8049b0	-0.06264055
191	0xbd94cd7e	-0.07265757
192	0xbab17357	-0.0013538402
193	0x3d7e1a5e	0.062036864
194	0xbd7223e9	-0.059116278
195	0xbd51752a	-0.051137127
196	0x3d38dc16	0.045131765
197	0x3b8e34c0	0.0043397844
198	0xbdab9ac1	-0.08379126
199	0x3d9562db	0.07294246
200	0x3c8bb1d4	0.017052568
201	0x3d654595	0.05597456
202	0x3ce4ed41	0.027945163
203	0x3d430b0e	0.047617964
204	0xbd80755a	-0.06272383
205	0xbd548e83	-0.051893722
206	0x3c16caa4	0.009203587
207	0x3aac2570	0.0013133716
208	0x3d831989	0.06401355
209	0x3d8cbeab	0.068723045
210	0xbd4818f3	-0.04885192
211	0x3c969f68	0.018386558
212	0xbd168364	-0.036746398
213	0x39ada4bc	0.00033119868
214	0xbcb0abfc	-0.021566384
215	0x3d4f76b8	0.05065033
216	0x3d8c66f9	0.06855578
217	0x3d0975c6	0.033559583
218	0x3db13907	0.08653455
219	0x3cf90a80	0.030400515
220	0xbcce6ea8	-0.02519925
221	0x3d821f43	0.06353619
222	0xbd017de5	-0.031614203
223	0x3c80c3f2	0.015718434
224	0x3d75bd12	0.059994765
225	0x3d9825e5	0.07429103
226	0x3dd3f6d4	0.10349813
227	0x3d405bac	0.046962425
228	0x3d3ac759	0.04560027
229	0xbd974d72	-0.073878184
230	0xbdb41edb	-0.08794948
231	0x3d3e543e	0.04646706
232	0x3d666e8e	0.056257777
233	0xbd4f4229	-0.050600205
234	0xbc2f20f8	-0.010689013
235	0xbcfc7719	-0.030818509
236	0xbd360f6a	-0.044448294
237	0xbd1ed4ab	-0.038777035
238	0xbd31232c	-0.043246433
239	0x3d35c627	0.044378426
240	0xbd5cd8ec	-0.05391781
241	0xbd8b8bd7	-0.06813782
242	0xbd3c7ffa	-0.046020485
243	0x3d9bf13e	0.07614373
244	0x3d3cccc6	0.046093725
245	0x3c269fa0	0.0101698935
246	0xbd5e0637	-0.054205146
247	0x3d9ba8ac	0.07600531
248	0xbdb797f0	-0.08964527
249	0x3d9147ae	0.0709375
250	0x3e280783	0.16409115
251	0xbd069eba	-0.032866217
252	0xbd95e4ed	-0.07319055
253	0x3d6bad42	0.05753828
254	0x3ce5d23c	0.02805435
255	0x3b963e8d	0.0045850934

pre_lin_list.0.bias f4 [20]
0	0xbd400b88	-0.046885997
1	0xbd55aa63	-0.052164447
2	0xbd188dd1	-0.03724462
3	0x3d3e3def	0.046445783
4	0xbdb57e33	-0.08861961
5	0xbda1600a	-0.07879646
6	0xbc6c7929	-0.014433184
7	0x3cfe1797	0.031017108
8	0x3cc97483	0.02459169
9	0x3de0312d	0.109468795
10	0xbd824712	-0.06361212
11	0x3da2ec35	0.07955209
12	0xbd9d6659	-0.07685537
13	0x3d5b8766	0.053595923
14	0x3d80f1ad	0.06296096
15	0xbd262439	-0.04056189
16	0x3c3c1f88	0.011482127
17	0x3d3ab418	0.045581907
18	0x3e167772	0.14694002
19	0x3ddd86ab	0.108167015

conv_list.0.lin_f.weight f4 [20, 90]
0	0xbc7fd58a	-0.0156148765
1	0xbe38199c	-0.17978519
2	0xbd2672e8	-0.040636927
3	0xbd703b10	-0.058650076
4	0x3d653864	0.05596198
5	0x3df74b92	0.12074961
6	0x3dd8db4b	0.10588702
7	0xbd6dd693	-0.058065962
8	0x3d5e5a5d	0.054285396
9	0x3d26d064	0.04072608
10	0xbc7be1b8	-0.01537364
11	0xbde1be5a	-0.11022635
12	0xbbad2ae8	-0.005284656
13	0xbdb3adf2	-0.08773412
14	0x3c961a9c	0.018323235
15	0x3d287147	0.041123655
16	0x3dab03c3	0.08350327
17	0xbd880d06	-0.06643109
18	0xbd1d0250	-0.038332283
19	0x3cb33c1c	0.021879248
20	0x3d929e63	0.07159116
21	0xbd8f008c	-0.06982526
22	0x3ca89d26	0.020582747
23	0x3c81a451	0.015825422
24	0x3dac0890	0.08400071
25	0x3e055e7d	0.13024326
26	0x3d92ad3f	0.0716195
27	0x3bcc9782	0.006243647
28	0xbd2bf789	-0.041984115
29	0x3c13881a	0.009004617
30	0x3b2c0e1f	0.0026253534
31	0xbd9b9c02	-0.075981155
32	0xbdbbf671	-0.09177864
33	0xbd1a8cc3	-0.037731897
34	0xbd0a5409	-0.03377155
35	0x3d596351	0.05307323
36	0x3d5805a5	0.052739758
37	0xbc554822	-0.013017686
38	0x3def0447	0.11670738
39	0x3d9906bd	0.07471988
40	0xbc0f26e1	-0.008737297
41	0xbbce9984	-0.0063049216
42	0xbda4ab4f	-0.08040487
43	0x3d86cdf4	0.06582251
44	0x3c664547	0.014054603
45	0x3d603158	0.054734558
46	0xbcfd83fc	-0.030946724
47	0x3dac3497	0.08408468
48	0xbcc849e2	-0.024449293
49	0x3c33a419	0.010964417
50	0xbd3b2a13	-0.045694422
51	0xbd217437	-0.03941747
52	0xbd6c8eea	-0.05775348
53	0xbc8a1113	-0.016853845
54	0x3d216412	0.039402075
55	0x3d63d094	0.055618837
56	0xbba4bd15	-0.005027423
57	0xbcaeb37d	-0.021325821
58	0xbd1b24ff	-0.03787708
59	0x3d533eda	0.05157361
60	0x3d55d75d	0.05220734
61	0x3dedfbdf	0.11620306
62	0xbd149496	-0.036274515
63	0x3d27e34b	0.040988248
64	0x3ded66ff	0.115919106
65	0xbd873678	-0.06602186
66	0x3dedb676	0.11607067
67	0x3d9b4976	0.07582371
68	0xbc80d108	-0.015724674
69	0x3dd40973	0.10353365
70	0xbd5d5bc0	-0.054042578
71	0x3dce52e8	0.10074407
72	0xbd766034	-0.06015034
73	0x3c905b60	0.017621696
74	0x3dae752c	0.085184425
75	0xbb588a8c	-0.0033041565
76	0xbcbcec58	-0.023061916
77	0xbd9e868a	-0.07740505
78	0x3dce2ae8	0.100667775
79	0x3d3d880e	0.04627233
80	0xbd2afd4d	-0.041745473
81	0xbc8286fd	-0.015933508
82	0x3d9c5ad3	0.07634511
83	0xbd2aa956	-0.041665398
84	0xbc993766	-0.018703174
85	0xbcc34eb2	-0.023841236
86	0x3dc0de63	0.09417417
87	0xbdaa7bc7	-0.0832439
88	0xbdc410e6	-0.095735356
89	0x3d1c65cc	0.03818302
90	0x3e3aef3f	0.18255328
91	0xbcbb7a11	-0.022885354
92	0xbde233f2	-0.11045064
93	0xbdab400b	-0.083618246
94	0xbd7dc49c	-0.06195508
95	0x3c881e74	0.016616084
96	0xbcb793db	-0.02240937
97	0x3cdaaf70	0.026694983
98	0x3cc0d44e	0.023538735
99	0x3dbb427c	0.0914354
100	0xbcd27712	-0.025691543
101	0x3d82be04	0.06383899
102	0x3d985eeb	0.07439979
103	0xbcab0897	-0.02087812
104	0xbca1b3d3	-0.019739067
105	0xbd809bf7	-0.06279748
106	0xbd89ebba	-0.067344144
107	0xbd99eab1	-0.07515467
108	0x3da02287	0.078190856
109	0xbd243197	-0.040086355
110	0x3da2f8f5	0.07957641
111	0x3d7e4e5c	0.062086448
112	0x3daf5ca8	0.08562595
113	0xbc319331	-0.010838316
114	0xbda7bde7	-0.08190518
115	0x3e110e88	0.141657
116	0x3dc843e8	0.09778577
117	0xbd9073ae	-0.07053314
118	0x3ddfb772	0.10923661
119	0x3d86c00c	0.06579599
120	0x3c0bf1eb	0.008541564
121	0xbe02f853	-0.1279004
122	0x3d99357b	0.07480904
123	0x3dc1b233	0.09457817
124	0x3c6f99c9	0.014624068
125	0xbdbf9950	-0.09355414
126	0x3db027ef	0.08601367
127	0xbd876213	-0.06610503
128	0xbd3dd566	-0.04634609
129	0xbd874c3c	-0.066063374
130	0xbc28ab9d	-0.010294822
131	0x3d85d57d	0.0653486
132	0xbdab1f87	-0.08355623
133	0x3d547eb2	0.05187864
134	0xbdb07b82	-0.08617307
135	0x3d20f39a	0.039294817
136	0x3cffbde4	0.031218477
137	0x3dc433a5	0.09580163
138	0x3d6b53e9	0.05745307
139	0x3d8920f1	0.06695736
140	0xbdae1338	-0.084997594
141	0xbd63ea81	-0.055643562
142	0x3c64e3cd	0.013970328
143	0x3da46042	0.08026172
144	0xbd1fe4ca	-0.03903655
145	0x3d21aee0	0.039473414
146	0xbc9ab4a4	-0.018884964
147	0xbda5493d	-0.0807061
148	0x3d756ea3	0.059919965
149	0x3ba15889	0.0049238843
150	0x3d8fc5fa	0.07020183
151	0x3cfb2b11	0.030660184
152	0xbd86ca76	-0.06581585
153	0xbd9a64c9	-0.075387545
154	0xbcaeb4e3	-0.021326488
155	0xbddb1d7a	-0.106989816
156	0x3d55191e	0.052025907
157	0x3d3a8b1f	0.045542832
158	0xbdcda2a2	-0.10040785
159	0x3bbe24a2	0.005802707
160	0x3dbbc673	0.091687106
161	0xbdae613f	-0.08514642
162	0xbd086823	-0.033302438
163	0xbd10abde	-0.035320155
164	0xbd0242ca	-0.031801976
165	0x3bb48339	0.005508807
166	0x3dde2a35	0.10847894
167	0xbd8a03bd	-0.06738994
168	0x3d959aa6	0.073048875
169	0x3d0d1011	0.03443915
170	0x3ca57fe1	0.020202579
171	0x3d1a8bf9	0.037731145
172	0xbc30cd23	-0.010791096
173	0x3db07dc2	0.086177364
174	0x3cba7eb8	0.022765502
175	0x3d8b1a1b	0.067920886
176	0x3dff9fa2	0.124816194
177	0x3dfdae92	0.12386812
178	0x3d5e7000	0.05430603
179	0xb8f10c97	-0.000114941206
180	0x3deeed5f	0.11666369
181	0x3d4e6909	0.050393138
182	0x3d159aae	0.036524467
183	0xbe02a367	-0.12757646
184	0x3d624d7c	0.055249676
185	0xbe62f581	-0.22163965
186	0x3cb68f58	0.022285149
187	0x3d1cb90a	0.038262405
188	0xbccf2a78	-0.025288805
189	0x3d7366bf	0.05942416
190	0x3cc2c352	0.023774777
191	0x3d8ba44c	0.068184465
192	0xbb82f1ab	-0.003996094
193	0x3e0f1659	0.13973369
194	0x3d377cd4	0.04479678
195	0xbcf9326c	-0.03041955
196	0xbd8da1e9	-0.069156475
197	0x3db7baaf	0.08971154
198	0xbda5d203	-0.08096697
199	0x3dfdc7a3	0.12391593
200	0x3d9e980f	0.077438466
201	0x3c1745cf	0.009232952
202	0x3d5d2611	0.05399138
203	0xbdcefe9b	-0.10107156
204	0x3c881c87	0.016615165
205	0xbddbce31	-0.10732687
206	0x3d4e7546	0.05040481
207	0xbd3569e5	-0.044290442
208	0x3d834231	0.064091094
209	0x3d37ba64	0.04485549
210	0x3d7d3f39	0.061827872
211	0x3d9f5d2a	0.077814415
212	0x3dff076e	0.12452589
213	0xbd6dea89	-0.058085
214	0x3728f236	1.0069974e-05
215	0xbdb636c7	-0.08897167
216	0xbd759daa	-0.059964813
217	0x3d842d6e	0.064539775
218	0x3c7f889f	0.015596538
219	0xbd72cecf	-0.05927926
220	0xbdce2c0d	-0.10066996
221	0x3d333087	0.04374745
222	0xbdcc8b4e	-0.09987508
223	0x3d0528d2	0.032509632
224	0xbd80f5ac	-0.06296858
225	0x3db39be5	0.08769969
226	0xbd4c82fa	-0.049929596
227	0xbcaf176e	-0.021373477
228	0xbd6c6863	-0.05771674
229	0x3cc6417b	0.024201145
230	0x3d8f6026	0.07000761
231	0x3baa806b	0.005203297
232	0x3d642832	0.055702396
233	0xbda46c14	-0.08028427
234	0x3d8ac02a	0.06774934
235	0x3ce0dccf	0.02744904
236	0xbdbc649f	-0.091988795
237	0xbd1816df	-0.037131187
238	0x3dada85e	0.08479379
239	0x3da76a32	0.08174552
240	0x3d7503d0	0.05981809
241	0xbddb227b	-0.10699936
242	0x3d54e991	0.05198056
243	0xbccffd37	-0.025389297
244	0xbdbc9670	-0.09208381
245	0x3d46ad1d	0.048504937
246	0xbdc40210	-0.09570706
247	0x3ca6f0b5	0.02037845
248	0x39e7ee44	0.00044237275
249	0x3d958b84	0.07302001
250	0xbd3c00b2	-0.0458991
251	0xbd146a56	-0.036234222
252	0x3d983220	0.074314356
253	0xbd74a9e5	-0.059732337
254	0x3c873b42	0.016507749
255	0xbd5e9e5a	-0.054350235

conv_list.0.lin_f.bias f4 [20]
0	0x3c890bd5	0.016729275
1	0x3d9f9389	0.07791812
2	0x3d9bfa22	0.076160684
3	0xbc0d54d2	-0.00862618
4	0xbd7e495d	-0.062081683
5	0xbca28a32	-0.019841287
6	0x3cc1f08b	0.02367427
7	0x3d2002f0	0.0390653
8	0x3cc919f4	0.024548508
9	0xbd945f2c	-0.07244715
10	0xbda1efe2	-0.07907082
11	0xbdf794b3	-0.12088909
12	0x3d783312	0.06059558
13	0x3cc15c7c	0.02360367
14	0x3ca5831e	0.020204123
15	0x3ddcfbbb	0.10790201
16	0xbc89c5b1	-0.0168179
17	0xbd56db64	-0.05245532
18	0x3d4a3cfb	0.04937456
19	0x3d85b5c9	0.065288134

conv_list.0.lin_s.weight f4 [20, 90]
0	0x3d7f0e97	0.062269773
1	0xbe527840	-0.20553684
2	0xbe0cb4f1	-0.13740899
3	0x3c0cedbf	0.008601605
4	0xbd9a4aee	-0.07533823
5	0x3dfd1f3b	0.12359472
6	0xbc2237ef	-0.009901031
7	0xbde5906d	-0.11209188
8	0xbd9812ec	-0.07425484
9	0x3cb79387	0.022409214
10	0xbe0750a1	-0.13214351
11	0x3d97572d	0.07389674
12	0x3d398a1b	0.045297723
13	0xbc93e13c	-0.018051736
14	0x3c30021d	0.010742691
15	0x3a6129c8	0.0008589295
16	0x3d813411	0.06308759
17	0xbdec48f1	-0.1153735
18	0x3d6fa9f8	0.058511704
19	0x3dabff23	0.08398273
20	0x3d531508	0.05153373
21	0xbe56180d	-0.20907612
22	0x3d1c9115	0.0382243
23	0x3d26ce21	0.040723924
24	0x38f23034	0.00011548438
25	0x3cb9937e	0.022653338
26	0x3e3842cd	0.17994232
27	0x3db29515	0.087198414
28	0x3dab24fc	0.083566636
29	0xbd5f4136	-0.05450555
30	0x3d7a2aa6	0.06107583
31	0x3ca80c47	0.020513667
32	0xbacc1b03	-0.0015572015
33	0x3ca94b77	0.020665867
34	0xbe091a3b	-0.13388912
35	0x3e083e6e	0.13305065
36	0xbc9bbd23	-0.019011086
37	0xbd484a14	-0.04889877
38	0xbbccef84	-0.0062541384
39	0xbddc0cc8	-0.10744625
40	0xbe011dc7	-0.12609015
41	0x3d44536f	0.04793113
42	0x3cb0856a	0.021547992
43	0x3d0323ef	0.03201669
44	0xbd8ca8b3	-0.06868114
45	0x3cc3e1d5	0.023911396
46	0xbd179127	-0.037003662
47	0xbd5371ab	-0.051622074
48	0xbceafd53	-0.028685248
49	0xbd7ea30e	-0.06216722
50	0x3cee332b	0.029077133
51	0x3d7ab434	0.06120701
52	0x3d8d2c6e	0.0689324
53	0xbc0d8fde	-0.008640258
54	0x3daa8252	0.08325638
55	0xbd905cc0	-0.07048941
56	0xbdac6df5	-0.0841941
57	0x3dcc8b7e	0.099875435
58	0xbd3eeddc	-0.04661356
59	0x3d0385e4	0.03211011
60	0x3df6d3f9	0.12052149
61	0xbd897054	-0.06710878
62	0x3c012efe	0.007884739
63	0x3d1582c7	0.036501672
64	0xbcfc1afd	-0.030774588
65	0xbcacce54	-0.021094479
66	0xbd53a97c	-0.051675305
67	0xbc06c886	-0.008226519
68	0x3cf3aab5	0.029744485
69	0xbc6300b4	-0.013855148
70	0x3b8678a1	0.0041037356
71	0xbda9ecd1	-0.08297122
72	0x3d62a07b	0.055328827
73	0xbc5a354d	-0.013318372
74	0x3c9b2ecd	0.018943215
75	0xbd9f1866	-0.077683255
76	0x3c3d7a2e	0.011564774
77	0x3ca1fb10	0.019773036
78	0x3dc4b0b4	0.09604016
79	0x3cb9c307	0.022676004
80	0x3da9ffe9	0.08300764
81	0x3d951b52	0.072806016
82	0xbdb10cf7	-0.08645051
83	0xbc938289	-0.01800658
84	0x3d9f1cd3	0.0776917
85	0x3d89110e	0.06692706
86	0x3db53430	0.088478446
87	0x3cd63469	0.026148038
88	0x3da56a8c	0.08076963
89	0xbd132795	-0.03592642
90	0x3e3f5305	0.18684013
91	0xbe080544	-0.13283259
92	0xbdb8aa6f	-0.09016883
93	0xbd6f6967	-0.05845013
94	0x3b554e6b	0.0032547961
95	0x3cc8e763	0.024524396
96	0x3d757779	0.05992839
97	0xbd473eb9	-0.0486438
98	0x3d9d71fa	0.07687755
99	0xbd701481	-0.058613304
100	0xbc42e156	-0.011894545
101	0xbc7af133	-0.015316295
102	0x3dbfc4ff	0.09363746
103	0xbd758445	-0.059940595
104	0xbd8e8771	-0.06959427
105	0x3daffc9a	0.08593102
106	0xbce51c9f	-0.02796775
107	0x3cf1e54d	0.029528284
108	0xbd62723c	-0.055284724
109	0x3daaf7b9	0.083480306
110	0x3e4b5d3e	0.19859788
111	0xbde6a5a6	-0.11262064
112	0xbcab3252	-0.020898018
113	0x3cfe791b	0.031063607
114	0xbd3d939a	-0.046283342
115	0x3e1dc4fb	0.15407173
116	0x3dd95e0b	0.106136404
117	0xbd023323	-0.03178705
118	0x3cb958b6	0.022625308
119	0xbd91e32b	-0.07123407
120	0x3cf18979	0.029484497
121	0xbdfd795e	-0.123766646
122	0xbdb1be00	-0.08678818
123	0xbc798a3e	-0.015230713
124	0xbdc94bca	-0.09828909
125	0xbdd05821	-0.10173059
126	0x3d1097d7	0.035301056
127	0x3cab96fc	0.020946018
128	0xbcf02a6f	-0.029317109
129	0xbbca22e1	-0.0061687087
130	0x3d9dda02	0.07707597
131	0x3d957482	0.07297613
132	0xbd735ccc	-0.05941467
133	0x3dd6fb40	0.10497141
134	0xbdaccb5d	-0.08437226
135	0x3c92dbab	0.017927011
136	0x3d85231f	0.065008394
137	0x3cd4baa7	0.025967909
138	0x3bc5bd0b	0.0060344986
139	0x3d9b5687	0.07584863
140	0x3dd8c9b1	0.105853446
141	0x3ddd8ac6	0.108174846
142	0x3dd767c5	0.10517839
143	0x3d902a4e	0.07039319
144	0xbd25fab8	-0.040522307
145	0x3da46aaf	0.08028161
146	0x3d852587	0.065012984
147	0x3d04f7c5	0.032462854
148	0x3d050552	0.032475777
149	0x3cbd9ae6	0.02314515
150	0x3d9bfa62	0.07616116
151	0x3d895e5c	0.06707451
152	0xbd266d42	-0.04063154
153	0xbd049463	-0.032368075
154	0x3d31b063	0.043381106
155	0xba95c77d	-0.001142725
156	0xbd3eecbd	-0.04661249
157	0x3c59fc0d	0.0133047225
158	0xbdcd2fef	-0.10018908
159	0x3d38329e	0.044970147
160	0xbd5373fb	-0.05162428
161	0xbd995759	-0.07487363
162	0x3d41af60	0.04728639
163	0xbdc522bf	-0.09625768
164	0x3dad7b08	0.08470732
165	0x3dd83319	0.10556621
166	0xbd25fb38	-0.040522784
167	0x3d6bc638	0.057562083
168	0x3ddcb7d7	0.10777252
169	0x3d147c71	0.03625149
170	0xbcaa1524	-0.020762034
171	0x3cacee9e	0.021109875
172	0xbd03075d	-0.031989444
173	0x3d97e756	0.07417171
174	0x3da90c75	0.08254329
175	0x3dc76775	0.0973653
176	0x3deda4a0	0.11603665
177	0x3c4afe65	0.012389754
178	0x3b15df47	0.002286868
179	0xbd201bf0	-0.039089143
180	0x3e285f6f	0.16442655
181	0xbd765985	-0.060143966
182	0xbd85b526	-0.06528692
183	0xbd9bdd50	-0.076105714
184	0x3dc2cf3c	0.09512183
185	0xbcce4821	-0.025180878
186	0xbdda9f06	-0.106748626
187	0xbd72255c	-0.05911766
188	0xbd8bff44	-0.068357974
189	0x3ca003b5	0.019533018
190	0xbcd7bbcf	-0.026334671
191	0x3d1324a8	0.03592363
192	0xbcf5fc1c	-0.030027442
193	0xbc963143	-0.018334037
194	0xbb8fa306	-0.0043834476
195	0xbde92ed2	-0.113858834
196	0xbc73b409	-0.014874467
197	0x3d09b610	0.033620894
198	0xbdcc9e3d	-0.09991119
199	0x3abdf507	0.001449258
200	0x3d5c52e9	0.053790007
201	0x3d22634e	0.039645486
202	0x3ceba45e	0.0287649
203	0xbd889a89	-0.066701
204	0x3c693154	0.014232952
205	0x3afafd9a	0.0019149065
206	0xbd6c115c	-0.057633743
207	0x3d8318c6	0.064012095
208	0xbc144f60	-0.009052128
209	0xbd5837de	-0.052787654
210	0xbd47a2b3	-0.048739146
211	0xbce1c26f	-0.027558533
212	0x3deddabe	0.116139874
213	0xbd5af27b	-0.053453904
214	0x3dffb2c9	0.124852724
215	0x3cca2d14	0.024679698
216	0x3cb65f0b	0.022262117
217	0xbdde02ea	-0.108403996
218	0xbe07c7bf	-0.13259791
219	0x3dd89b53	0.10576501
220	0xbd68b7b6	-0.056815825
221	0xbd1d00f9	-0.038331006
222	0xbd290f56	-0.04127439
223	0x3dc566d9	0.09638757
224	0x3d94d155	0.072664894
225	0xbda79f41	-0.08184672
226	0x3db0f6aa	0.086407974
227	0x3dae7ab5	0.08519498
228	0x3d5f174b	0.054465573
229	0x3c02c8df	0.007982462
230	0xbd5a0f62	-0.053237326
231	0xbd88c613	-0.06678405
232	0xbd6c5c51	-0.057705227
233	0xbce3b3af	-0.02779564
234	0x3d0bca51	0.03412849
235	0x3cdb4bd7	0.026769562
236	0x3d2bd4b5	0.0419509
237	0xba09f059	-0.000526195
238	0xbd9d3555	-0.07676188
239	0x3d2d89ef	0.04236787
240	0x3d089362	0.03334368
241	0xbd8c272a	-0.068434075
242	0x3d5b87e9	0.05359641
243	0x3d4f04bf	0.050541636
244	0x3c24d483	0.010060432
245	0x3dc6baf2	0.09703626
246	0xbcb2aa2f	-0.021809665
247	0x3dc413b8	0.095740736
248	0xbd4f7613	-0.050649714
249	0xbdbe350a	-0.0928746
250	0x3cecb5a7	0.028895212
251	0xbd9437eb	-0.07237228
252	0x3d82c40a	0.06385048
253	0xbcd9e7a6	-0.026599716
254	0x3d968fa6	0.073516175
255	0x3d981762	0.07426335

conv_list.0.lin_s.bias f4 [20]
0	0xbdb4e3c2	-0.08832504
1	0x3db40ebf	0.08791875
2	0xbd1b4cc1	-0.037914995
3	0x3d55ad28	0.052167088
4	0xbd9f84b8	-0.07788986
5	0x3daa35e2	0.083110586
6	0x3c3a7d1e	0.011382369
7	0xbcace5e1	-0.021105709
8	0xbd83f6db	-0.06443568
9	0xbdb902e9	-0.09033758
10	0x3cd71123	0.026253289
11	0xbd4346b2	-0.047674842
12	0xbd8aaeba	-0.06771608
13	0xbdadd439	-0.08487744
14	0xbc6c39ae	-0.014418049
15	0x3d5b8258	0.053591102
16	0x3cf0d56d	0.029398644
17	0xbdf61a56	-0.12016742
18	0x3d677fdc	0.05651842
19	0xbd6bda9e	-0.057581536

conv_list.1.lin_f.weight f4 [20, 90]
0	0x3d301550	0.042989075
1	0xbd71d31d	-0.059039224
2	0x3d800f37	0.06252902
3	0x3d3c597e	0.045983784
4	0x3cc70db4	0.024298526
5	0xbd6e10a2	-0.05812133
6	0xbc8fb525	-0.017542431
7	0x3d5f4b6c	0.054515287
8	0xbcfca39b	-0.030839732
9	0x3da18c1b	0.07888051
10	0xbd5fa217	-0.05459794
11	0x3d910f2c	0.07082972
12	0xbdc97780	-0.09837246
13	0xbd270f47	-0.040786054
14	0xbd21d380	-0.039508343
15	0x3df1ea1a	0.118122295
16	0x3d2aedfa	0.04173086
17	0x3d64d551	0.055867497
18	0x3aa10385	0.0012284374
19	0x3d806502	0.06269266
20	0xbc93d759	-0.018047022
21	0x3accb919	0.0015619128
22	0xbdf2e2b3	-0.11859646
23	0x3c717058	0.0147362575
24	0x3d99b375	0.07504932
25	0x3d02ad6f	0.03190368
26	0x3d959d57	0.07305401
27	0x3bfe85af	0.007767401
28	0x3b63d347	0.0034763382
29	0xbcf7324a	-0.030175347
30	0x3d9d6c44	0.07686666
31	0xbe03dd9a	-0.12877503
32	0x3d707991	0.058709685
33	0xbc581660	-0.013188928
34	0xbded6189	-0.11590869
35	0x3d7a39cb	0.061090272
36	0xbdcfcb07	-0.10146146
37	0xbddc3110	-0.107515454
38	0xbd2f1d2c	-0.04275243
39	0xbda97183	-0.08273604
40	0xbbf43a5d	-0.0074532465
41	0xbe099c0f	-0.13438438
42	0xbd974956	-0.073870346
43	0xbd8609f1	-0.06544865
44	0xbbbc5166	-0.005747008
45	0x3d06fad1	0.03295404
46	0xbd8df3c2	-0.06931259
47	0xbd2ba833	-0.041908454
48	0x3cf163e2	0.029466573
49	0xbc7f9052	-0.0155983735
50	0xbe006f93	-0.12542562
51	0xbdb4705c	-0.08810493
52	0xbd032d79	-0.032025788
53	0xbdb8a36b	-0.090155445
54	0x3d7c59f5	0.061609227
55	0xbdc09b86	-0.09404664
56	0x3d87bb81	0.066275604
57	0xbde43e8e	-0.11144744
58	0x3cea46b1	0.028598161
59	0x3c64ac8b	0.013957153
60	0xbd720290	-0.059084475
61	0xbdcef1b7	-0.10104697
62	0xbd7293da	-0.059223033
63	0x3c5f0dbe	0.013614116
64	0xbd564473	-0.052311372
65	0xbdbdcb08	-0.09267241
66	0xbd307a9d	-0.043085683
67	0x3c55e2db	0.013054575
68	0xbd9720ce	-0.07379304
69	0x3dec7914	0.11546531
70	0xbd0e8582	-0.03479529
71	0xbd860345	-0.06543592
72	0xbcbe5ebd	-0.023238534
73	0x3db2c1bb	0.087283574
74	0x3d3179ff	0.043329235
75	0xbd5d470a	-0.054022826
76	0xbc973ee1	-0.0184626
77	0xbd923f8c	-0.07141027
78	0x3db360e5	0.087587155
79	0xbddb1c04	-0.10698703
80	0xbc1f6f80	-0.0097311735
81	0xbde3d525	-0.111246385
82	0x3d83d5e3	0.0643728
83	0xbd080731	-0.033209983
84	0xbdda7296	-0.10666387
85	0xbd4f602a	-0.05062882
86	0xbdc40d02	-0.095727935
87	0xbdedb2a6	-0.1160634
88	0x3cf40192	0.029785905
89	0x3d4afaa8	0.04955545
90	0xbd09963d	-0.033590544
91	0xbd4e90b8	-0.050430983
92	0xbdab67bc	-0.08369395
93	0x3dca3525	0.09873418
94	0xbe074bba	-0.13212481
95	0xbc611827	-0.0137386685
96	0x3baaa21a	0.0052073123
97	0xb7be3f89	-2.267935e-05
98	0x3c841350	0.01612249
99	0x3d6be805	0.057594318
100	0xbdc6d5ab	-0.09708723
101	0x3d56b020	0.05241406
102	0xbde8942c	-0.113563865
103	0xbde5b98e	-0.112170324
104	0xbddfc13e	-0.1092553
105	0xbdb2e5a8	-0.0873521
106	0x3dcc361d	0.09971259
107	0xbd8f8024	-0.07006863
108	0xbda866bd	-0.08222721
109	0x3c5341be	0.012894092
110	0x3d986b2b	0.07442316
111	0xbd0d6032	-0.034515567
112	0xbdd3ce0d	-0.103420354
113	0x3de171a3	0.110080026
114	0xbda3ffd0	-0.08007777
115	0x3cafdece	0.021468546
116	0xbd5af06a	-0.053451933
117	0x3ce11a81	0.027478458
118	0xbd0d9999	-0.03457031
119	0x3d44b457	0.048023548
120	0x3d365925	0.04451861
121	0xbac45312	-0.001497837
122	0x3cba8cdf	0.02277225
123	0xbdbfb54b	-0.09360751
124	0xbd004b99	-0.031322096
125	0x3dcd6d42	0.10030605
126	0xbd539882	-0.051659115
127	0xbd8c57ee	-0.06852709
128	0x3d35a84f	0.044349965
129	0x3b14873d	0.0022663616
130	0x3c7700b8	0.015075855
131	0xbbeea7e1	-0.0072831963
132	0xbc526ffa	-0.01284408
133	0x3d54e65c	0.0519775
134	0xbdc28d8a	-0.09499653
135	0xbd976bb3	-0.07393589
136	0xbe020c23	-0.12699942
137	0x3d38de98	0.045134157
138	0xbd26cf8d	-0.04072528
139	0xbd968119	-0.07348842
140	0x3ceedf45	0.029159198
141	0xbd276cb9	-0.04087517
142	0x3d02ba79	0.031916115
143	0xbd121926	-0.035668515
144	0x3d9344ac	0.071908325
145	0xbcdf2009	-0.027236955
146	0x3a9a53bb	0.0011774221
147	0xbd39d391	-0.04536778
148	0xbd871d9c	-0.065974444
149	0xbd99f4a7	-0.07517367
150	0x3d8ea605	0.069652595
151	0x3d49f556	0.049306236
152	0x3db844f8	0.0899753
153	0x3d94ea60	0.07271266
154	0x3b073f9b	0.0020637277
155	0xbd9fb069	-0.077973194
156	0xbbdc7750	-0.0067280903
157	0xbd32dbbf	-0.043666597
158	0x3dd61663	0.10453489
159	0x3dfa963b	0.122356854
160	0xbd6cca7f	-0.057810303
161	0xbd294ce6	-0.0413331
162	0x3dbc5983	0.091967605
163	0x3dc833d9	0.09775514
164	0x3d5b8ffd	0.053604115
165	0x3d8f528a	0.06998165
166	0xbcb2b0c3	-0.021812802
167	0x3df173c0	0.11789656
168	0x3df73643	0.120708965
169	0x3df40c0b	0.119163595
170	0x3d351f84	0.04421951
171	0x3d6b8776	0.057502232
172	0x3c8f06cc	0.017459296
173	0x3dce1f05	0.1006451
174	0xbd50ea31	-0.051004592
175	0x3d97355e	0.07383226
176	0x3d912fc2	0.07089187
177	0x3da85bad	0.08220611
178	0xbc6704cc	-0.014100265
179	0xbd7c5e21	-0.061613206
180	0xba9ef924	-0.0012128693
181	0xbbd0c8c6	-0.0063715903
182	0xbe0e24e1	-0.13881256
183	0x3d82d0c0	0.06387472
184	0xbdde916d	-0.108675815
185	0xbdf274e8	-0.11838704
186	0xbd8b4dcd	-0.06801949
187	0xbcfd2efe	-0.030906197
188	0xbccc1bc5	-0.024915585
189	0x3d79a727	0.060950425
190	0xbd2796f1	-0.040915433
191	0x3d1cd3a8	0.03828779
192	0xbc8c2de4	-0.017111726
193	0xbd67b4b0	-0.0565688
194	0xba21f1fa	-0.000617772
195	0xbc0754b1	-0.008259938
196	0x3dc66cd7	0.09688728
197	0x3d2581b3	0.040406894
198	0xbd8aa1a0	-0.06769109
199	0x3b8ea8af	0.0043536047
200	0xbc0e4ea0	-0.008685738
201	0xbd125701	-0.035727505
202	0x3da2bae5	0.079458036
203	0xbd076ecf	-0.03306466
204	0xbcd4936a	-0.025949199
205	0x3c898b51	0.016790064
206	0x3d9266b1	0.07148493
207	0x3d8d1d70	0.068903804
208	0xbabe25d1	-0.001450712
209	0xbd0d0571	-0.034429017
210	0x3d86e297	0.06586187
211	0xbd3ac613	-0.045599055
212	0xbd94ad68	-0.07259637
213	0xbdd40407	-0.10352331
214	0x3cad1287	0.021126999
215	0x3d042dfc	0.032270417
216	0xbcb97e0b	-0.02264311
217	0xbd9de2c0	-0.07709265
218	0x3cc38b3a	0.0238701
219	0x3dabb632	0.083843604
220	0xbdc3e8bb	-0.09565874
221	0xbcf5feb2	-0.030028675
222	0x3d9f8c69	0.07790453
223	0xbd79afdd	-0.060958732
224	0xbc68c5d1	-0.014207319
225	0x3d1cef53	0.038314175
226	0x3cc84cc4	0.024450667
227	0xbd04da9b	-0.03243504
228	0xbd06c030	-0.032898128
229	0x3cfd6d47	0.030935897
230	0xbda6c878	-0.08143705
231	0x3ddf365a	0.108990386
232	0x3d972c87	0.0738154
233	0x3cb97a9f	0.022641478
234	0xbd93b801	-0.0721283
235	0x3ce6b3cc	0.028161906
236	0x3d5a4d45	0.053296346
237	0xbcdeb3a7	-0.027185274
238	0x3ddf2544	0.1089578
239	0x3d5bba25	0.053644318
240	0xbd7c4d36	-0.06159707
241	0xbcb57323	-0.022149628
242	0x3dcd24db	0.10016795
243	0x3db493bb	0.0881724
244	0x3c11b87d	0.008894083
245	0xbd0d8d52	-0.0345586
246	0xbbc4f9e4	-0.0060112346
247	0x3da413c4	0.080115825
248	0x3d161c27	0.036647942
249	0x3d9f1fd4	0.077697426
250	0x3c40f9e6	0.01177833
251	0x3cf9ba55	0.030484358
252	0x3dc3dbf6	0.095634386
253	0x3d2fd4fb	0.042927723
254	0x3d108dd1	0.035291497
255	0x3d29af43	0.04142691

conv_list.1.lin_f.bias f4 [20]
0	0xbde07d4e	-0.109614
1	0xbd4f4f1a	-0.050612547
2	0x3d9c607f	0.07635593
3	0xbd8f7a37	-0.070057325
4	0x3dd897b4	0.1057581
5	0xbca310c7	-0.019905461
6	0x3ce8513e	0.028359052
7	0xbc964fcf	-0.018348603
8	0x3dbe9cc8	0.093072474
9	0x3dd0f8a2	0.10203673
10	0xbde68480	-0.11255741
11	0xbc3bc15a	-0.011459673
12	0xbd16c577	-0.03680941
13	0x3d469f8a	0.048491992
14	0x3db29767	0.08720284
15	0xbc7c3266	-0.015392875
16	0xbd9770e8	-0.07394582
17	0x3dfdc871	0.12391747
18	0xbc7e6015	-0.015525837
19	0xbdd6ca17	-0.10487764

conv_list.1.lin_s.weight f4 [20, 90]
0	0xbcd5f2a3	-0.026116675
1	0x3bf4a981	0.0074664955
2	0x3cf27c85	0.029600391
3	0xbc899488	-0.016794458
4	0xbdde3408	-0.10849768
5	0x3d62495c	0.055245742
6	0x3de25959	0.11052198
7	0xbda0e652	-0.0785643
8	0xbdc38b49	-0.09548051
9	0x3d3f7675	0.04674383
10	0xbceda301	-0.02900839
11	0xbd9eec96	-0.07759969
12	0xbdb7de47	-0.08977943
13	0x3c8055cc	0.015665911
14	0x3ad0b039	0.0015921659
15	0x3e013ed8	0.12621629
16	0xbd20fec2	-0.039305456
17	0xbda1402c	-0.07873568
18	0x3d9b4ec9	0.075833865
19	0xbc9c358e	-0.019068506
20	0x3dcbf200	0.09958267
21	0xbde946e7	-0.11390477
22	0x3d5d99a5	0.054101605
23	0xbbc6bae4	-0.0060647596
24	0xbd63218a	-0.055451907
25	0x3d9e18ff	0.077196114
26	0x3d9cdc51	0.076592095
27	0x3c96d193	0.01841048
28	0xbd9c8d76	-0.07644169
29	0xbd98c8aa	-0.07460149
30	0xbce78c8e	-0.028265264
31	0xbc2854b7	-0.010274104
32	0xbce4fa70	-0.02795145
33	0xba6040e2	-0.000855459
34	0x3d81af2f	0.06332242
35	0xbdc07667	-0.093975835
36	0xbd781bfd	-0.060573567
37	0x3cc12516	0.023577254
38	0xbdd3b986	-0.1033812
39	0xbca8e2a9	-0.020615892
40	0x3d0f3fc7	0.034972932
41	0x3d39b347	0.045336988
42	0xbc27fa72	-0.010252582
43	0xbde5b5da	-0.11216326
44	0xbd4f5c9c	-0.05062543
45	0x3d564f33	0.052321624
46	0xbd0d1e22	-0.034452565
47	0xbcba8f66	-0.022773456
48	0x3d069fb0	0.032867134
49	0xbda24b6f	-0.07924544
50	0x3d4c1f6d	0.049834657
51	0xbd72e01b	-0.059295755
52	0xbdfc76b7	-0.123273306
53	0xbdbf1431	-0.09330023
54	0x3d200373	0.03906579
55	0xbd47ee22	-0.048811086
56	0xbdaf180d	-0.08549509
57	0x3a1a6d03	0.0005890878
58	0x3d63ec77	0.055645432
59	0xbd23eb83	-0.040019523
60	0x3db5034f	0.08838522
61	0x3d96473c	0.07337806
62	0x3d9e34c5	0.07724909
63	0xbd6c2421	-0.057651643
64	0x3d9cf207	0.076633506
65	0xbd4265ea	-0.047460474
66	0xbcb47520	-0.022028506
67	0xbd3478a2	-0.044060357
68	0xbdb0fd01	-0.08642007
69	0x3df3117e	0.11868571
70	0x3de9397a	0.11387916
71	0xba9347ab	-0.0011236569
72	0x3d87112d	0.06595073
73	0x3dc1a29b	0.09454843
74	0x3d816507	0.063180976
75	0xbd8fc0cd	-0.07019196
76	0xbdb539ab	-0.0884889
77	0x3d82c92a	0.06386025
78	0xbdb40b41	-0.08791209
79	0xbc2329e7	-0.009958721
80	0xbac1b315	-0.0014778102
81	0xbd12434f	-0.03570872
82	0xbc87dfed	-0.016586268
83	0xbd9b646b	-0.075875126
84	0xbe043b45	-0.12913235
85	0xbb8d7d1f	-0.004317894
86	0xbc9cdbff	-0.019147871
87	0xbdd01b6a	-0.10161479
88	0xbde435f9	-0.11143107
89	0x3d0f7afd	0.0350294
90	0x3d2f240d	0.04275899
91	0xbe0fc6d3	-0.14040689
92	0xbc817567	-0.015803052
93	0xbd8b12eb	-0.06790718
94	0xbdfa3041	-0.12216235
95	0xbd1821ea	-0.037141718
96	0xbbeecd28	-0.00728764
97	0xbe0c10cc	-0.13678282
98	0xbca04692	-0.0195649
99	0xbc82a31d	-0.01594692
100	0xbdf9ece7	-0.12203389
101	0x3d5a3020	0.05326855
102	0xbd306eb1	-0.043074314
103	0x3c95d04d	0.018287802
104	0xbdca772a	-0.0988601
105	0xbdaefbad	-0.08544097
106	0xbc92a7ba	-0.017902244
107	0xbd42b33c	-0.047534212
108	0xbc174ca4	-0.009234581
109	0xbdbdf5e0	-0.092754126
110	0x3dd6e375	0.10492603
111	0xbe08dd2d	-0.13365622
112	0xbd0cfa80	-0.034418583
113	0x3e018ee0	0.12652159
114	0xbdc7f8c0	-0.09764242
115	0x3d3c2da4	0.045941964
116	0x3d139f35	0.036040504
117	0xbaec83af	-0.0018044616
118	0x3d878e1d	0.06618903
119	0x3c335006	0.010944372
120	0x3cd91356	0.026498478
121	0x3d9fa2c8	0.0779472
122	0xbd474ad7	-0.048655357
123	0x3cde1599	0.027109908
124	0x3cfbb1d7	0.03072445
125	0xbd1c27f4	-0.03812404
126	0x3daf9c0b	0.08574685
127	0x3d3828ec	0.0449609
128	0x3da34e74	0.07973948
129	0xbd225724	-0.039633885
130	0xbd82d2f2	-0.06387891
131	0xbd8331e1	-0.06405998
132	0xbd5aa876	-0.053383313
133	0xbcc36ff1	-0.023857089
134	0x3da2c194	0.07947078
135	0x3d28766c	0.04112856
136	0x3b8b3147	0.0042478177
137	0xbdd7f0c9	-0.10543973
138	0x3c59108b	0.013248573
139	0x3c79e1f6	0.015251627
140	0xbcbf849c	-0.023378663
141	0xbb2b082a	-0.0026097395
142	0x3d91344c	0.07090053
143	0x3cdf8406	0.027284633
144	0xbd5ad29f	-0.05342352
145	0x3c9a9946	0.018871915
146	0xbd8d517e	-0.06900309
147	0x3d54b0d2	0.05192644
148	0x3dd258cd	0.10270844
149	0xbb7908a8	-0.0037999544
150	0x3c02cb6a	0.007983068
151	0xbdadde37	-0.0848965
152	0x3dba748f	0.09104263
153	0xbd732d04	-0.059369102
154	0xbd915cd8	-0.07097787
155	0xbd3359cb	-0.043786805
156	0x3daaae28	0.08333999
157	0x3b0770a4	0.0020666504
158	0xbd9dbbcb	-0.07701834
159	0x3d2ef026	0.042709492
160	0xbd96963b	-0.07352873
161	0xbd8d24b2	-0.06891765
162	0xbcc42ca7	-0.023947073
163	0xbcd0300a	-0.025413532
164	0x3d04540c	0.032306716
165	0x3dab0e5d	0.08352349
166	0xbd0386a1	-0.032110814
167	0x3d93c231	0.072147734
168	0x3bfbccec	0.0076843407
169	0x3da97a9b	0.08275338
170	0xbd8a6de5	-0.06759242
171	0x3dcf0f35	0.101103224
172	0xbd7ad437	-0.06123754
173	0x3d90d906	0.07072644
174	0x3e089104	0.13336569
175	0x3bc34a3a	0.005959776
176	0xbc3e357f	-0.011609434
177	0x3dd40119	0.10351772
178	0xbd400232	-0.046877094
179	0xbd6455d0	-0.0557459
180	0x3d99b5eb	0.07505401
181	0xbc006946	-0.007837599
182	0x3c387abf	0.011259734
183	0xbdc0ee71	-0.09420479
184	0xbc237456	-0.009976467
185	0xbcde8b1c	-0.027165942
186	0xbce82ef7	-0.028342707
187	0xbdace0da	-0.084413245
188	0xbc42959d	-0.011876491
189	0xbd45ebac	-0.048320457
190	0xbcf20de4	-0.02954764
191	0x3d47ee1c	0.048811063
192	0xbc8172cc	-0.01580181
193	0xbde690fb	-0.112581216
194	0xbdb773f5	-0.08957664
195	0x3dd19e52	0.10235275
196	0x39a739f8	0.00031895912
197	0xbd4755d2	-0.04866583
198	0x3ce16c1f	0.027517376
199	0x3dc28070	0.09497154
200	0x3d9d4ad2	0.076802865
201	0xbc0b4634	-0.008500624
202	0xbd98bc4b	-0.07457789
203	0x3c5f9068	0.013645269
204	0xbda9df5b	-0.08294555
205	0xbcf09495	-0.029367724
206	0x3dadc0c2	0.08484031
207	0x3d4a8e04	0.049451843
208	0x3d4c3c8c	0.04986243
209	0x3c7fc5b1	0.015611098
210	0xbda5ee7e	-0.081021294
211	0x3c87acbb	0.016561856
212	0xbd4c5f39	-0.0498955
213	0xbdf28685	-0.11842064
214	0xbd9c4829	-0.07630951
215	0xbd325f15	-0.04354771
216	0x3d1090bb	0.035294276
217	0x3cf8ddaf	0.030379144
218	0x3caec852	0.021335755
219	0xbdc4796b	-0.09593471
220	0xbadaa1d8	-0.0016680313
221	0x3d36d780	0.04463911
222	0xbddf20e3	-0.108949445
223	0xbd09ff3f	-0.033690687
224	0xbdc69d26	-0.096979424
225	0x3d1be5b3	0.038060855
226	0xbdc46ebe	-0.09591435
227	0xbcfff5b0	-0.031245083
228	0x3db68d3f	0.08913659
229	0x3d06d022	0.032913335
230	0xbcf3b06e	-0.029747214
231	0xbcd3848f	-0.025820045
232	0x3d5dc780	0.054145336
233	0xbbf96cb5	-0.007611836
234	0x3dee17e9	0.11625654
235	0x3daa490b	0.08314713
236	0xbd880f84	-0.06643584
237	0xbd87051b	-0.06592771
238	0xbd347d70	-0.04406494
239	0x3c94da96	0.018170636
240	0xbd6563cb	-0.056003373
241	0xbcb3a458	-0.021928951
242	0xbd567d40	-0.05236554
243	0x3bb526be	0.0055283
244	0x3c17bb7f	0.009261011
245	0x3db5eace	0.08882676
246	0x3da6d82b	0.081466995
247	0x3dc7249d	0.0972378
248	0x3d76f62e	0.06029337
249	0xbc373d35	-0.0111840265
250	0xbc92c826	-0.017917704
251	0x3dddb44c	0.108254045
252	0x3d1bea4f	0.03806525
253	0x3db2543b	0.08707472
254	0x3da07f2e	0.078367576
255	0xbdc65dff	-0.09685897

conv_list.1.lin_s.bias f4 [20]
0	0xbe0800d5	-0.13281567
1	0xbca6d24b	-0.020363947
2	0x3d8814dc	0.066446036
3	0xbbe495f6	-0.0069758845
4	0x3de5e83e	0.11225937
5	0x3d2ec3a8	0.04266706
6	0x3d970184	0.07373336
7	0x3ddcaf1f	0.10775589
8	0x3cd60fb7	0.02613054
9	0x3c9ece2a	0.019385416
10	0xbd34eb85	-0.04416992
11	0xbd66adf7	-0.05631825
12	0xbdadc7f7	-0.08485406
13	0xbd36fbeb	-0.04467384
14	0xbd9dc2dd	-0.07703183
15	0x3d54f328	0.051989704
16	0xbd926f3c	-0.071501225
17	0x3cd1a9e9	0.025593715
18	0x3d246ada	0.040140964
19	0xbdf64580	-0.12024975

conv_list.2.lin_f.weight f4 [20, 90]
0	0xbc8e56d1	-0.017375382
1	0x3d67657e	0.056493275
2	0x3d5ef756	0.054435097
3	0xbae5dd7b	-0.001753732
4	0x3d7eb7c9	0.06218699
5	0x3df18be6	0.11794262
6	0x3c870850	0.016483456
7	0x3d29e280	0.041475773
8	0xbdb3e1de	-0.08783315
9	0xbe24d513	-0.16096906
10	0x3dbc6b09	0.09200103
11	0x3bc6e2dc	0.006069524
12	0xbdca38bd	-0.09874103
13	0x3d28d75f	0.04122102
14	0x3cccfe4e	0.025023606
15	0xbd3409a2	-0.0439545
16	0xbdfb301c	-0.122650355
17	0xbcba1247	-0.022713793
18	0x3dd88483	0.105721496
19	0x3e0b29a7	0.13590108
20	0x3d3c9ff8	0.046050996
21	0xbd7e377b	-0.06206463
22	0x3c6e8656	0.014558395
23	0x3dd58b64	0.10426977
24	0x3db733b1	0.08945406
25	0x3dc70fec	0.09719834
26	0x3d8f36f6	0.06992905
27	0x3cf550fb	0.029945841
28	0x3d527903	0.051384937
29	0x3d1cd038	0.03828451
30	0xbc010ea4	-0.007877026
31	0xbe0dc3a6	-0.13844165
32	0xbd99da80	-0.07512379
33	0x3cce918c	0.025215887
34	0x3cb7f8f3	0.022457575
35	0xbe04bbec	-0.12962312
36	0x3ac6fae5	0.0015180974
37	0xbd2f0894	-0.04273279
38	0xbd99a6dd	-0.0750253
39	0x3c261a61	0.010138125
40	0xbda9a894	-0.08284107
41	0x3da53355	0.080664314
42	0x3dde9cda	0.10869761
43	0x3d9e1353	0.077185296
44	0xbd1c85b2	-0.03821344
45	0x3d3fd880	0.04683733
46	0x3dbdd08e	0.09268294
47	0xbdbeccb7	-0.0931639
48	0x3c0039fe	0.007826326
49	0x3d3a1cb0	0.045437515
50	0xbd639922	-0.05556596
51	0x3bd5b112	0.0065213526
52	0xbd2ced6e	-0.042218618
53	0x3a528d5f	0.000803193
54	0x3da7ef87	0.08199983
55	0xbd9e6fac	-0.077361435
56	0xbce6a613	-0.028155362
57	0xbd80af74	-0.06283465
58	0xbdaeb912	-0.08531393
59	0x3c594b3b	0.013262565
60	0xbdadc800	-0.084854126
61	0xbd9c899f	-0.07643437
62	0x3d2129df	0.039346572
63	0xbdadef78	-0.08492941
64	0x3a91bfbb	0.0011119762
65	0xbd1d7c53	-0.038448643
66	0xbd322d3d	-0.043500174
67	0xbd90b3f7	-0.070655756
68	0x3dec6fe0	0.11544776
69	0xbd8d16cf	-0.06889116
70	0xbd866540	-0.06562281
71	0xbd744e51	-0.059645
72	0x3d52fc5a	0.051510192
73	0x3dec71f2	0.11545171
74	0x3c3f828c	0.01168884
75	0xbd1bb26c	-0.038011953
76	0xbca3250a	-0.019915123
77	0xbd2bf5d4	-0.041982487
78	0x3db31be9	0.08745558
79	0xbdbcd72f	-0.092207305
80	0x3d489235	0.04896756
81	0x3da95c07	0.08269506
82	0x3d30a013	0.04312141
83	0x3d925b74	0.071463495
84	0xbd4fc7a3	-0.050727498
85	0x3d31d8bc	0.043419585
86	0xbdcb6c99	-0.09932823
87	0xbd4e048b	-0.0502973
88	0x3da9dfe9	0.082946606
89	0xbdb0f3c6	-0.08640246
90	0xbc9042cc	-0.017609976
91	0xbde79284	-0.113072425
92	0x3d90a9cf	0.070636384
93	0x3cc14de4	0.023596711
94	0xbdeb699a	-0.11494751
95	0xbde08c63	-0.10964277
96	0x3be64097	0.0070267427
97	0x3d5caae7	0.053873923
98	0xbc35ebfd	-0.011103627
99	0x3b7b44fb	0.0038340676
100	0xbbe78571	-0.007065468
101	0xbd9fc536	-0.07801287
102	0x3d1ecc18	0.038768858
103	0x3d9a72da	0.075414374
104	0xbce24f23	-0.027625626
105	0x3da5009a	0.08056755
106	0xbd96a904	-0.07356456
107	0xbdd7e5b0	-0.10541856
108	0xbdba16cc	-0.090863794
109	0x3baa35ff	0.005194425
110	0x3e13cdae	0.1443393
111	0xbd7ef60b	-0.062246364
112	0xbd97e4bc	-0.074166745
113	0x3dd5e23f	0.10443544
114	0xbdbfbe79	-0.09362502
115	0x3d12e960	0.035867095
116	0x3d85841b	0.06519338
117	0xbc3281e0	-0.010895222
118	0x3d9e9c67	0.07744675
119	0xbd3c9d68	-0.04604855
120	0x3d383515	0.044972498
121	0xbe242b1c	-0.1603207
122	0x3d8913f3	0.06693258
123	0x3cca3fe5	0.02468867
124	0xbdbdea1d	-0.09273169
125	0x3d08024f	0.033205327
126	0x3d132265	0.035921473
127	0xbd945d36	-0.07244341
128	0xba89d042	-0.0010514336
129	0xbd625dd6	-0.05526527
130	0x3ce83c86	0.028349172
131	0x3d28eb15	0.041239817
132	0x3d22c6f9	0.039740536
133	0xbde4b609	-0.11167533
134	0x3cb5fd95	0.022215644
135	0x3b763c5e	0.0037572603
136	0x3da42be5	0.08016185
137	0x3caa1d8d	0.020766044
138	0xbd0c615d	-0.03427254
139	0xbd4fa715	-0.05069645
140	0xbdd92e0c	-0.10604486
141	0x3c00f440	0.007870734
142	0xbdc77b3b	-0.09740301
143	0xbcea4a41	-0.02859986
144	0xbd748c61	-0.05970419
145	0xbd7ed67c	-0.062216267
146	0xbd968f15	-0.073515095
147	0xbc483e17	-0.012221835
148	0xbdaf0e52	-0.08547653
149	0xbd37a502	-0.044835098
150	0xbd1b29d2	-0.03788168
151	0xbd97b714	-0.07407966
152	0xbca4bcdd	-0.020109588
153	0xbd84c768	-0.06483346
154	0x3defe00c	0.117126554
155	0x3d267ea5	0.04064812
156	0x3cf4bcdb	0.02987521
157	0x3db7088d	0.08937178
158	0x3dd242ff	0.10266685
159	0x3dfe66bc	0.12421939
160	0xbd8d1918	-0.06889552
161	0x3d675fbf	0.056487795
162	0x3d428b0c	0.047495887
163	0x3deb8b84	0.1150122
164	0xbb75556d	-0.003743495
165	0xbd498c63	-0.04920615
166	0x3d518a12	0.051157065
167	0xbd3f23c9	-0.046664987
168	0x3e04ec92	0.1298087
169	0xbd7d2f6e	-0.06181281
170	0x3d53d36e	0.051715307
171	0x3dfb91f9	0.122837014
172	0xbce6787c	-0.028133623
173	0x3bc419f5	0.0059845396
174	0x3d073082	0.033005245
175	0xbc929156	-0.017891567
176	0xbca18265	-0.019715497
177	0x3d9b8884	0.07594398
178	0x3d24b565	0.040212054
179	0x3cf1d2d9	0.029519485
180	0xbd14e13e	-0.03634762
181	0xbd54325f	-0.05180585
182	0x3d818c47	0.06325584
183	0xbb804d08	-0.003915433
184	0x3cfc3c4e	0.030790474
185	0xbda11628	-0.07865554
186	0x3d78bb17	0.060725298
187	0x3de88a67	0.11354523
188	0xbd5d1201	-0.053972248
189	0x3d0a1176	0.03370806
190	0xbd9fefc5	-0.07809404
191	0x3d836e60	0.06417537
192	0xbd34b0a9	-0.04411379
193	0x3d97e84b	0.07417353
194	0xbd6dd440	-0.058063745
195	0x3dc362d0	0.09540331
196	0xbc108c1d	-0.008822468
197	0x3d450f15	0.048110086
198	0xbd844ff7	-0.064605646
199	0xbcdb930e	-0.02680352
200	0x3cf1bf9f	0.029510317
201	0x3d5ac113	0.053406786
202	0x3cd76993	0.026295459
203	0x3c802f33	0.015647506
204	0xbda610c8	-0.081086695
205	0x3db0cba1	0.08632589
206	0xbc2c0d63	-0.0105012385
207	0x3be08055	0.006851236
208	0x3d345f32	0.044036098
209	0xbc9781ad	-0.018494451
210	0xbd35e13c	-0.044404253
211	0xbdc7166e	-0.09721075
212	0x3dd0065f	0.10157465
213	0x3d0b9945	0.034081716
214	0x3d8cf766	0.06883125
215	0x3da5b238	0.08090633
216	0xbd3aa89c	-0.045570955
217	0xbdce2d34	-0.100672156
218	0xbd925496	-0.0714504
219	0xbd8ad3d9	-0.06778688
220	0xbde9611f	-0.113954775
221	0xbd7048b7	-0.058663096
222	0xbdbd8b94	-0.09255138
223	0xbce076be	-0.02740037
224	0x3d655fb9	0.05599949
225	0xbd83c525	-0.06434087
226	0xbdd70be8	-0.10500318
227	0x3dc1135a	0.09427519
228	0xbda47154	-0.08029428
229	0xbb9a4fa1	-0.0047091995
230	0x3d90c818	0.07069415
231	0x3db93e42	0.09045078
232	0x3d687627	0.056753304
233	0xbd9b9d2a	-0.07598336
234	0xbd820058	-0.06347722
235	0x3d9e885a	0.07740851
236	0xbddbc875	-0.107315935
237	0x3d572b31	0.052531425
238	0x3d94cc0c	0.07265481
239	0xba619d67	-0.00086065236
240	0x3c0bcb73	0.008532393
241	0x3c8d40e9	0.017242866
242	0xbd764640	-0.06012559
243	0x3d99cb46	0.075094745
244	0xbd15aef1	-0.03654379
245	0x3d5d002e	0.05395525
246	0x3cbcebbd	0.023061628
247	0x3d9dc0ef	0.07702815
248	0xbdd54eef	-0.10415446
249	0xbdc29358	-0.0950076
250	0xbb4ccb57	-0.003124913
251	0xbb8a2e9b	-0.0042169816
252	0xbd334944	-0.043771043
253	0x3d75e856	0.060036026
254	0x3c7fe18b	0.0156177385
255	0x3d8c7540	0.06858301

conv_list.2.lin_f.bias f4 [20]
0	0xbdb18e54	-0.08669725
1	0x3d43a1e7	0.047761824
2	0xbd2747a9	-0.040839825
3	0xbdb43159	-0.08798475
4	0xbd134a98	-0.03595981
5	0x3b9df827	0.004820842
6	0x3d00d6bf	0.031454798
7	0x3d8a6ade	0.067586645
8	0xbd15db3f	-0.036586042
9	0x3dc20d8a	0.094752386
10	0xbd76875c	-0.060187683
11	0xbd1c7445	-0.03819682
12	0xbdafe295	-0.08588139
13	0x3d6b6823	0.05747236
14	0xbd834365	-0.06409339
15	0xbdc72d73	-0.097254656
16	0xbd946a40	-0.07246828
17	0x3d34573a	0.0440285
18	0xbdd38781	-0.1032858
19	0x3d051d77	0.032498803
