Model Results/GCN-MMFF94/my_model.pth (torch, 693314 bytes, 40 tensors)

pre_lin_list.0.weight f4 [170, 117]
-0.07458694 0.049008124 0.07420281 0.0006805067 -0.08406937 -0.07197091 0.113133445 0.023972591
-0.037662167 0.029130332 -0.0074515063 -0.048431117 0.031002775 -0.026311506 -0.07978872 0.010665975
0.057835437 -0.07148701 0.01052985 0.06365868 -0.07411891 0.08880069 -0.08704751 -0.05557638
-0.042443216 0.0006373422 -0.07442184 0.03418321 0.0745797 -0.017124854 -0.06298106 0.08274307
0.08661113 -0.078347325 0.04157686 0.0026853578 0.044994287 0.011123419 -0.0032283645 0.03358964
-0.05614892 -0.042514123 0.07058003 -0.03503187 0.039111815 0.090271555 0.024294928 -0.03598107
-0.08503165 -0.03442486 -0.060258146 0.08871148 -0.009908605 -0.08130801 0.06168358 0.09065529
-0.039711677 -0.08541169 0.029943816 -0.054473862 -0.02191919 0.00038942587 -0.0069811065 0.08484123
0.087580495 -0.075666755 -0.029747538 -0.011568375 0.043109726 -0.05766748 -0.07452942 -0.0134659745
-0.043012746 -0.04475489 -0.0015959446 0.022639155 -0.0375809 0.0034970092 -0.07266103 0.053863518
-0.044280425 -0.0750655 0.052811455 -0.076850586 0.03676694 -0.057200283 0.022587448 -0.019227244
0.07469662 -0.015130625 -0.064002395 0.042111896 -0.012667488 -0.046991676 0.083427824 -0.04162201
0.07899427 -0.0871499 0.08074906 -0.08971222 -0.030962203 -0.00058103725 0.033925243 0.050239913
-0.012190163 -0.0006750035 -0.019863233 0.054069616 0.08981616 -0.037500244 0.03573122 0.053765796
0.054662723 -0.080792986 0.06759205 -0.023505934 0.06076781 0.0006174234 0.05435323 0.025162846
0.010827519 0.045096017 0.07734334 -0.07090111 0.015694497 0.05855513 0.020295203 0.024335237
0.014276274 0.07690387 0.007567078 -0.076501116 0.04792548 0.011064936 0.07256205 0.008371718
-0.046679486 -0.0236592 0.066459574 0.007186126 0.06396575 -0.073016256 0.062239878 -0.07970069
0.03643433 -0.03293333 0.02855682 -0.07741222 -0.07787209 0.006266853 0.017957367 -0.02480261
-0.0072965976 -0.06105692 0.047541983 0.049304686 0.06688105 0.01662679 -0.05470878 0.08028344
-0.04145404 0.00017622137 0.0024331752 0.010706272 0.063203566 -0.072442174 -0.045269065 -0.07287653
0.08888883 -0.06761457 0.08697679 0.070486076 -0.074340105 -0.081104726 0.02544178 -0.076812156
0.07158414 -0.04092675 -0.07266861 -0.04530257 0.059510928 -0.01573421 -0.06447426 -0.07988118
-0.009541336 0.08205744 0.09114391 -0.051678926 -0.09168154 0.07311548 -0.026998326 -0.047849312
0.044234507 0.046146233 -0.059509497 -0.042241707 0.019281756 0.0025675595 0.07547691 -0.031189267
0.03424499 0.042918094 -0.03637212 -0.044054907 -0.06422482 0.05395717 0.07386281 0.0842468
0.08037531 0.006042149 -0.072141714 -0.087423906 -0.04379386 -0.03440827 -0.011454665 0.04481963
-0.025012374 0.0035247188 0.07575194 0.0048896037 -0.0070750695 0.07383769 0.09512022 -0.06464848
-0.046352167 0.083498776 0.019716471 0.06522434 -0.060036827 0.03231118 0.08808346 0.02487599
0.014938435 0.087145224 0.036617145 0.024477758 0.01125019 0.08242192 -0.049796622 0.04992551
-0.038819566 0.044480864 -0.08390493 0.066734634 -0.04221459 0.03718301 0.082837276 0.14009617
-0.030399349 -0.078106225 -0.06372787 0.0023299307 -0.0768597 0.034547053 -0.051960293 -0.027906196
00000000: 0ac1 98bd bebc 483d a5f7 973d 0864 323a
00000010: 902c acbd 7c65 93bd 82b2 e73d 2b62 c43c
00000020: a543 1abd bca2 ee3c c42b f4bb b55f 46bd
00000030: 88f9 fd3c 3a8b d7bc 4568 a3bd 57c0 2e3c
00000040: dae4 6c3d c867 92bd 6485 2c3c 7b5f 823d
00000050: a8cb 97bd 23dd b53d f745 b2bd 0fa4 63bd
00000060: f0d8 2dbd 5013 273a 7a6a 98bd b203 0c3d
00000070: 3ebd 983d 6c49 8cbc 37fc 80bd 3375 a93d
00000080: 2d61 b13d 9074 a0bd 7f4c 2a3d d4fc 2f3b
00000090: ee4b 383d 003f 363c f892 53bb 4a95 093d
000000a0: 69fc 65bd 4a23 2ebd 438c 903d 947d 0fbd
000000b0: b633 203d 4be0 b83d 2806 c73c e360 13bd
000000c0: 1325 aebd 1501 0dbd 3fd1 76bd 5dae b53d
000000d0: b457 22bc d084 a6bd eca7 7c3d 7ba9 b93d
000000e0: b6a8 22bd 53ec aebd bc4c f53c fc1f 5fbd
000000f0: e08f b3bc db2b cc39 c4c1 e4bb 3dc1 ad3d
00000100: 675d b33d 2cf7 9abd 1cb1 f3bc 4889 3dbc
00000110: d393 303d bc34 6cbd e1a2 98bd 64a0 5cbc
00000120: 222e 30bd e750 37bd 042f d1ba c075 b93c
00000130: 6eee 19bd 142e 653b 4ecf 94bd fe9f 5c3d
00000140: 645f 35bd f1bb 99bd d350 583d d763 9dbd
00000150: ee98 163d d84a 6abd 5009 b93c 7482 9dbc
00000160: 8bfa 983d 71e6 77bc b013 83bd 867d 2c3d
00000170: 4c8b 4fbc 587a 40bd 35dc aa3d d77b 2abd
00000180: bfc7 a13d a67b b2bd c35f a53d 0abb b7bd
00000190: 72a4 fdbc c050 18ba 32f5 0a3d 5ec8 4d3d
000001a0: 40b9 47bc b8f2 30ba 38b8 a2bc 1a78 5d3d
000001b0: 89f1 b73d db99 19bd e65a 123d 8639 5c3d
000001c0: 05e6 5f3d cb76 a5bd b36d 8a3d 848f c0bc
000001d0: abe7 783d 95da 213a 7ea1 5e3d 5022 ce3c
000001e0: e865 313c 9ab6 383d 2f66 9e3d 9a34 91bd
000001f0: bf91 803c 81d7 6f3d 2042 a63c b15a c73c
00000200: 08e7 693c c77f 9d3d 40f5 f73b 9eac 9cbd
00000210: 824d 443d b549 353c 699b 943d 8829 093c
00000220: fd32 3fbd f0d0 c1bc f51b 883d 9879 eb3b
00000230: 7a00 833d 8c89 95bd 3eef 7e3d 1e3a a3bd
00000240: 2a3c 153d 19e5 06bd feef e93c 4c8a 9ebd
00000250: 677b 9fbd 2c5a cd3b 541b 933c d82e cbbc
00000260: 4c18 efbb d216 7abd 62bb 423d b6f3 493d
00000270: eff8 883d e834 883c 5016 60bd a56b a43d
00000280: b6cb 29bd 10c8 3839 e875 1f3b 5c69 2f3c
00000290: df70 813d 905c 94bd 0e6c 39bd 4a40 95bd
000002a0: 590b b63d 8279 8abd e320 b23d 015b 903d
000002b0: a03f 98bd 3c1a a6bd 486b d03c b14f 9dbd
000002c0: b59a 923d cfa2 27bd 48d3 94bd 308f 39bd
000002d0: bbc1 733d 08e5 80bc 150b 84bd be98 a3bd
000002e0: 4453 1cbc bb0d a83d a9a9 ba3d 48ad 53bd
000002f0: 88c3 bbbd 92bd 953d 982b ddbc a4fd 43bd
00000300: 3e2f 353d d503 3d3d 3bc0 73bd a405 2dbd
00000310: c6f4 9d3c 8044 283b a393 9a3d a280 ffbc
00000320: 7a44 0c3d e2ca 2f3d effa 14bd eb72 34bd
00000330: 4d88 83bd 3202 5d3d 6345 973d 9689 ac3d
00000340: cf9b a43d 38fd c53b 09bf 93bd 4e0b b3bd
00000350: 3161 33bd b0ef 0cbd 59ac 3bbc ca94 373d
00000360: c0e6 ccbc f8fe 663b d523 9b3d f838 a03b
00000370: fcd5 e7bb 3738 973d 64ce c23d 6c66 84bd
00000380: c5db 3dbd 6801 ab3d 7084 a13c 5794 853d
00000390: 2de9 75bd ba58 043d 1a65 b43d bbc8 cb3c
000003a0: 56c0 743c 3279 b23d dcfb 153d 9485 c83c
000003b0: b852 383c d3cc a83d 8bf7 4bbd b17e 4c3d
000003c0: 4401 1fbd 9131 363d 59d6 abbd 2bac 883d
000003d0: 35e9 2cbd 364d 183d 97a6 a93d 5f75 0f3e
000003e0: 0e08 f9bc 28f6 9fbd c283 82bd c0b1 183b
000003f0: 9e68 9dbd 3681 0d3d 51d4 54bd 899b e4bc

pre_lin_list.0.bias f4 [170]
-0.0064394744 -0.019954609 0.000861867 0.017978173 0.018621478 0.086003706 -0.031859327 -0.08504867
-0.097784914 -0.040770195 0.066166 -0.05841307 0.02575941 -0.06753238 -0.024161555 -0.049431466
0.06260359 0.053874444 -0.067603834 -0.016012453 -0.0021978435 -0.0043817214 -0.08254695 0.0015414046
0.01470022 0.046352744 0.004640579 -0.03891261 -0.045278523 0.054661505 0.009201576 -0.012503116
0.05007481 0.08833011 -0.08889987 -0.0017118093 0.0516988 -0.069160804 0.08702978 -0.05167435
0.045367733 0.004758523 -0.031701166 0.05166245 -0.073621735 -0.059440885 -0.00050845253 0.050645575
-0.026580067 0.06028774 -0.0505834 -0.032974206 0.042029444 -0.011366979 -0.027589567 -0.06880796
0.03210727 -0.08035736 -0.017578203 -0.064090356 0.043112144 -0.020392029 -0.014624759 -0.08705967
0.04898555 -0.0150688635 -0.078010745 -0.06934438 -0.027725605 -0.0025196418 0.086846046 0.033530273
-0.051434875 0.04286351 -0.05758737 0.080617644 -0.0037859185 -0.060486637 0.017885933 0.043442752
0.06901303 -0.076075636 -0.056227747 -0.01917971 0.05926136 0.019138917 0.012782797 0.06884423
-0.014493599 0.058345992 -0.026882617 0.04584066 -0.058911804 -0.048266653 0.074601024 -0.061167575
0.038667608 0.06715291 -0.029633244 -0.0723838 -0.016299887 0.028255276 -0.036841817 -0.049140863
0.06803456 -0.038114157 -0.076231904 -0.031824287 0.041692253 -0.0014890429 -0.062964894 0.02061363
-0.056184202 0.0663851 0.014766423 0.059665192 -0.08255353 -0.046812262 -0.09046559 0.0054686167
0.0056600915 0.022063537 -0.0030185739 -0.024191247 0.066763416 -0.054255113 -0.015780808 -0.052229498
0.03996783 0.08169286 0.05621736 -0.041790105 -0.07021589 -0.034512803 0.047649886 0.028786104
0.059795458 -0.06407546 0.03630209 0.058270156 -0.07760214 -0.04339083 0.07507561 -0.08666643
-0.005953429 0.08600692 -0.07811896 0.07405032 0.03306064 0.034550004 0.031868003 0.061645
-0.033611 0.06758392 -0.008474457 0.07461391 -0.088586845 0.03825243 0.0008446151 -0.041960075
-0.0056587732 -0.033101264 0.02484595 -0.015778568 -0.042128053 0.05032083 0.029707778 -0.027167551
-0.04732508 -0.06371524
00000000: 3a02 d3bb d977 a3bc eaee 613a f646 933c
00000010: 128c 983c b622 b03d ed7e 02bd ff2d aebd
00000020: 7543 c8bd a6fe 26bd 0a82 873d 8b42 6fbd
00000030: 6605 d33c 6b4e 8abd 74ee c5bc a678 4abd
00000040: 5036 803d 73ab 5c3d e173 8abd 8c2c 83bc
00000050: b209 10bb 8b94 8fbb 600e a9bd f508 ca3a
00000060: 31d9 703c 60dc 3d3d 0010 983b d462 1fbd
00000070: f975 39bd bee4 5f3d 35c2 163c dfd9 4cbc
00000080: 3e1b 4d3d 6be6 b43d 2311 b6bd ca5e e0ba
00000090: 1fc2 533d 2ea4 8dbd ab3c b23d 7ca8 53bd
000000a0: 84d3 393d 62ed 9b3b 15d9 01bd 019c 533d
000000b0: fec6 96bd 4978 73bd ac49 05ba bc71 4f3d
000000c0: 71be d9bc 47f0 763d 8a30 4fbd f60f 07bd
000000d0: 1127 2c3d 913c 3abc 8403 e2bc 30eb 8cbd
000000e0: ea82 033d 6692 a4bd 2a00 90bc ce41 83bd
000000f0: 5c96 303d 2f0d a7bc af9c 6fbc 574c b2bd
00000100: 12a5 483d 65e3 76bc 19c4 9fbd 6d04 8ebd
00000110: cf20 e3bc 9320 25bb 57dc b13d 0a57 093d
00000120: 60ad 52bd a691 2f3d bce0 6bbd dd1a a53d
00000130: 2c1d 78bb d6c0 77bd 8585 923c 07f1 313d
00000140: b456 8d3d 8bcd 9bbd 114f 66bd c41e 9dbc
00000150: 0abc 723d 38c9 9c3c f06e 513c 34fe 8c3d
00000160: 8f76 6dbc 35fc 6e3d ef38 dcbc 6ac3 3b3d
00000170: 814d 71bd 41b3 45bd 6cc8 983d da8a 7abd
00000180: ed61 1e3d 7787 893d 6bc1 f2bc f53d 94bd
00000190: 5787 85bc 9c77 e73c 72e7 16bd ee47 49bd
000001a0: b455 8b3d 971d 1cbd 791f 9cbd 2f5a 02bd
000001b0: 7fc5 2a3d fd2b c3ba bdf3 80bd eadd a83c
000001c0: 6821 66bd e9f4 873d deee 713c 7d63 743d
000001d0: d311 a9bd 37be 3fbd 0646 b9bd 1532 b33b
000001e0: 4a78 b93b 97be b43c 44d3 45bb b92c c6bc
000001f0: 42bb 883d 9c3a 5ebd c146 81bc 99ee 55bd
00000200: 4fb5 233d 964e a73d 2d44 663d 1a2c 2bbd
00000210: 59cd 8fbd 4c5d 0dbd 872c 433d d6d0 eb3c
00000220: 15ec 743d ff39 83bd 80b1 143d b0ac 6e3d
00000230: dfed 9ebd 95ba 31bd 3ec1 993d 2b7e b1bd
00000240: fb14 c3bb 6524 b03d d5fc 9fbd b2a7 973d
00000250: 986a 073d 4e84 0d3d 0688 023d 787f 7c3d
00000260: b0ab 09bd 7069 8a3d 73d8 0abc 2dcf 983d
00000270: 056d b5bd 94ae 1c3d 2969 5d3a 54de 2bbd
00000280: 3b6d b9bb 3195 07bd bc89 cb3c 0e42 81bc
00000290: 778e 2cbd 371d 4e3d ba5d f33c 7c8e debc
000002a0: f1d7 41bd 237d 82bd

conv_list.0.bias f4 [170]
-0.012477586 -0.0026162162 -0.010089206 0.0010190451 -0.020530399 0.0065226066 0.0019403858 -0.013057918
-0.009607595 -0.03337877 0.010585916 -0.020175975 -0.0027456898 -0.0025227184 -0.004213836 0.01178184
-0.005810611 -0.008076233 0.0051526977 0.01904819 0.017917795 -0.006803755 -0.0015050034 0.010356811
0.0018548361 0.011499756 -0.017795444 -0.0033023718 -0.0010667488 -0.0027607463 0.0075030997 -0.02897919
-0.0054657003 0.0043376777 0.00466917 -0.0050096265 -0.0055103297 -0.0059636077 0.011901019 -0.005597298
0.0030663768 0.01265593 -0.0092065185 -0.0055270223 0.011049655 0.008417468 -0.01713866 0.00895479
0.014984417 -0.030434363 -0.0030183517 -0.011557506 -0.014314205 0.016665004 -0.022940664 0.0070199277
-0.01813713 -0.0017802013 0.009071548 -0.013140516 -0.004420849 0.008756406 0.014356427 -0.010916955
0.039607793 0.015720703 -0.0040158583 -0.011891462 0.025943328 -0.004272213 -0.008300201 -0.0004385085
0.0059362547 0.0019187543 -0.004792381 -0.0036222045 0.0028063918 0.005423091 0.0076926537 0.015267245
-0.009077202 0.00076369336 -0.011936948 0.0013075012 0.0018747555 0.002181344 -0.00032027965 -0.0070722266
-0.005346081 0.0012503235 -0.0035563603 0.009143404 0.0127618965 -0.008367449 0.003555226 -0.0040121623
0.0006630141 -0.026826866 0.0026106327 -0.0034730374 0.001577805 0.009295759 -0.003904013 0.0076386794
0.012720121 -0.04042027 -0.006047083 0.016793013 0.014571919 0.012255336 -0.025704462 0.007017914
0.010775145 0.0135947885 -0.001666916 0.007308715 0.0045988723 0.0068875705 0.006497863 0.021433271
0.022708151 -0.008903101 -0.00714566 -0.021287873 -0.007617687 0.010235683 0.004466545 0.018004399
0.009082633 -0.00807776 0.0026060832 -0.0008604154 0.020275276 -0.016954813 0.0013226211 0.008478356
0.014317518 -0.0043411595 -0.0108619025 -0.0034620648 -0.013733816 0.004119334 0.014169232 -0.0052634296
-0.0066791163 0.024584632 0.022563482 -0.0015863791 -0.0009530906 0.014667594 0.010803563 0.013947511
-0.023170607 -0.012600159 -0.004725158 0.0034703533 -0.015970983 0.0019660539 -0.0139389215 0.013809031
0.022999054 -0.002484003 -0.009915921 -0.011017525 -0.0011401053 -0.018264221 0.009987325 -0.02101621
-0.002539082 0.012803205
00000000: ca6e 4cbc d374 2bbb 324d 25bc 7b91 853a
00000010: 5e2f a8bc 97bb d53b 8b54 fe3a e1f0 55bc
00000020: 2d69 1dbc 2db8 08bd 8d70 2d3c 1648 a5bc
00000030: 08f1 33bb 3154 25bb 3814 8abb 9e08 413c
00000040: f066 bebb 2d52 04bc f6d7 a83b f30a 9c3c
00000050: 57c8 923c 09f2 debb 8943 c5ba 9daf 293c
00000060: f91d f33a 7969 3c3c c0c7 91bc 9b6c 58bb
00000070: 26d2 8bba a3ed 34bb 90dc f53b c465 edbc
00000080: 9e19 b3bb 1423 8e3b d6ff 983b cb27 a4bb
00000090: ff8f b4bb 5e6a c3bb 7efc 423c 8a69 b7bb
000000a0: 44f5 483b d15a 4f3c f0d6 16bc 061c b5bb
000000b0: 9d09 353c 6be9 093c 6066 8cbc 1db7 123c
000000c0: 3381 753c 7c51 f9bc 8acf 45bb b25b 3dbc
000000d0: 2186 6abc 0c85 883c 0fee bbbc 6c07 e63b
000000e0: 5294 94bc a555 e9ba d4a0 143c 524b 57bc
000000f0: c5dc 90bb 0777 0f3c 3837 6b3c 07dd 32bc
00000100: c83b 223d b4c8 803c 7697 83bb 68d4 42bc
00000110: 1a87 d43c ecfd 8bbb 91fd 07bc 9de7 e5b9
00000120: ea84 c23b b67e fb3a 6809 9dbb 8262 6dbb
00000130: 71eb 373b 2fb4 b13b a812 fc3b 7723 7a3c
00000140: 8bb8 14bc 9832 483a 3093 43bc 7660 ab3a
00000150: 5bba f53a e1f4 0e3b 35eb a7b9 23be e7bb
00000160: 2e2e afbb e5e1 a33a d311 69bb 37ce 153c
00000170: 4617 513c a017 09bc cbfe 683b 7578 83bb
00000180: 20ce 2d3a 04c4 dbbc 2617 2b3b e69b 63bb
00000190: 5ace ce3a 3d4d 183c 78da 7fbb e34d fa3b
000001a0: 0e68 503c ba8f 25bd 9c26 c6bb 8091 893c
000001b0: 0fbf 6e3c 9bca 483c 2a92 d2bc 88f6 e53b
000001c0: 3c8a 303c adbc 5e3c 6b7c daba f27d ef3b
000001d0: 23b2 963b 21b1 e13b 07ec d43b d494 af3c
000001e0: 7206 ba3c 50de 11bc 2426 eabb e863 aebc
000001f0: ca9d f9bb 91b3 273c 185c 923b f67d 933c
00000200: 53cf 143c 9558 04bc d2ca 2a3b 808d 61ba
00000210: 5618 a63c d2e4 8abc cd5b ad3a cde8 0a3c
00000220: 0694 6a3c 4940 8ebb 1ff6 31bc cfe3 62bb
00000230: cd03 61bc 7afb 863b 1126 683c d978 acbb
00000240: 7ddc dabb b665 c93c 0dd7 b83c 0dee cfba
00000250: d4d8 79ba 5950 703c 6d01 313c 1a84 643c
00000260: 49d0 bdbc e670 4ebc 80d5 9abb de6e 633b
00000270: 94d5 82bc e9d8 003b 1360 64bc 463f 623c
00000280: 8368 bc3c a8ca 22bb 6376 22bc d982 34bc
00000290: 966f 95ba d99e 95bc e1a1 233c 302a acbc
000002a0: ba66 26bb 89c4 513c

conv_list.0.lin.weight f4 [170, 170]
-0.038516525 0.049895916 -0.09960692 0.04491247 -0.14585501 -0.062135763 0.00032918676 -0.09787089
0.09571464 -0.08170091 0.018942377 -0.10298182 -0.096064724 -0.003329723 -0.05785137 0.0022630729
4.687197e-05 -0.047593426 0.078900576 -0.082002886 -0.1316015 0.010798025 0.056984812 0.059441872
-0.14170739 -0.13141796 0.01420546 -0.10791499 -0.025783436 0.075492 0.06854625 -0.093481205
-0.014839563 -0.11516393 -0.11175924 0.12176159 -0.05340487 0.01492608 -0.0856158 0.084672324
-0.08381476 -0.10100462 -0.12172343 0.06892891 0.093293756 0.08115447 0.07932009 -0.073925674
-0.10276734 -0.026757477 0.12874344 -0.15959549 -0.124130026 -0.03213578 0.091578126 0.0013072105
0.019428339 -0.01502778 -0.027127827 0.11417556 -0.08638595 -0.0978185 0.08456024 -0.05582976
0.06356864 -0.04967081 -0.066908665 0.034779206 -0.10629032 0.03848365 -0.01637954 0.06677312
-0.08852835 0.09446135 0.05346914 -0.092681065 -0.051197294 0.06378054 0.048944775 0.06889543
0.0584751 -0.1158376 0.049904548 -0.10549726 0.005348167 -0.044407096 -0.028106151 -0.1175152
-0.012050879 0.05572952 0.11616435 0.041045498 0.12789011 0.1078682 0.07330461 -0.0782204
-0.12486419 -0.058053315 -0.14110598 -0.035613276 -0.12304115 -0.013740273 0.0884957 -0.027358055
0.02158736 0.09896976 -0.016738433 0.09140942 0.08133774 0.10017335 -0.115572795 0.07514723
0.058965534 0.0575724 0.013468354 -0.0177057 0.05186517 0.100934006 0.089561895 0.04365072
-0.054011587 -0.15861066 0.014151408 -0.08698429 0.05695688 0.026683029 -0.060154956 0.08853533
-0.07770925 -0.01332468 -0.051558547 -0.06446233 0.0647434 -0.14486524 -0.111570194 -0.045530733
0.115076296 0.034504972 0.057916798 0.013280186 0.021898646 0.08297263 0.03576965 -0.04549251
-0.13356873 0.01360504 5.179215e-05 -0.0689906 0.030530386 -0.031957623 0.00727845 -0.091178045
-0.08333073 -0.07125436 -0.027493805 -0.04912302 -0.028409934 -0.07739842 0.007957133 0.16771558
-0.07816972 -0.090441816 -0.0273754 -0.008446324 0.029624216 -0.014069792 0.076518886 0.028553614
-0.04160647 0.06386559 0.006966134 0.05466483 0.024690669 0.10901454 0.10408743 -0.106689274
-0.036693558 0.045220107 -0.12084189 -0.04496321 -0.087016344 0.045058805 -0.061209016 -0.04545091
0.11193451 0.002540294 0.048006374 -0.045154147 0.12253402 0.05119259 -0.11266799 0.068688735
-0.055275783 0.030400911 0.027441941 -0.042475533 -0.10264636 0.10894943 0.055375196 0.06933074
0.098721385 0.10906043 0.09292308 0.1006072 0.07059871 -0.06254518 -0.011914482 -0.124404
0.006615221 0.036025602 0.10002072 0.07215449 -0.122505486 0.098989286 -0.07852062 -0.09194397
-0.13653816 0.00082974404 -0.048036 0.09453502 -0.093326196 0.015755996 0.080867805 0.117066115
-0.10237684 0.008904783 0.10523025 0.007821242 -0.0995388 -0.12674072 -0.11618562 -0.012842239
0.053349577 0.001146074 -0.08649304 -0.037269566 0.117034465 0.05582076 -0.14340854 -0.09841394
-0.025461204 -0.02453503 0.012787407 -0.06516847 -0.094931394 -0.028143931 0.053786468 0.023348117
0.05072776 -0.019784369 -0.1523646 -0.113759466 0.027415887 -0.082485765 -0.060188822 0.064688064
00000000: 81c3 1dbd a95f 4c3d b6fe cbbd 23f6 373d
00000010: 045b 15be 1282 7ebd b396 ac39 8870 c8bd
00000020: 0a06 c43d cf52 a7bd 0b2d 9b3c 22e8 d2bd
00000030: 95bd c4bd 7b37 5abb 8ff5 6cbd 1050 143b
00000040: 6598 4438 53f1 42bd a096 a13d 21f1 a7bd
00000050: 8bc2 06be 33ea 303c e868 693d 5279 733d
00000060: be1b 11be 6e92 06be 05be 683c 8902 ddbd
00000070: c937 d3bc 8d9b 9a3d fa61 8c3d 1373 bfbd
00000080: a321 73bc 11db ebbd 07e2 e4bd 245e f93d
00000090: 11bf 5abd 848c 743c 5657 afbd af68 ad3d
000000a0: 13a7 abbd 83db cebd 224a f9bd 9a2a 8d3d
000000b0: cc10 bf3d 5134 a63d 9272 a23d 5866 97bd
000000c0: af77 d2bd 7f32 dbbc 52d5 033e 006d 23be
000000d0: e237 febd cfa0 03bd 508d bb3d b556 ab3a
000000e0: 2e28 9f3c 1437 76bc 2d3b debc e0d4 e93d
000000f0: 1eeb b0bd 1155 c8bd eb2d ad3d bfad 64bd
00000100: 4630 823d 9f73 4bbd 6907 89bd a474 0e3d
00000110: bdae d9bd 08a1 1d3d 632e 86bc 58c0 883d
00000120: 5a4e b5bd f474 c13d 7502 5b3d 92cf bdbd
00000130: 41b4 51bd 5f9f 823d 517a 483d 0c19 8d3d
00000140: 9683 6f3d 433c edbd b668 4c3d f30e d8bd
00000150: ad3f af3b 37e4 35bd df3e e6bc cfab f0bd
00000160: 0d71 45bc a344 643d 93e7 ed3d 531f 283d
00000170: a0f5 023e 01ea dc3d ba20 963d 0432 a0bd
00000180: ccb8 ffbd 50c9 6dbd 167e 10be 3adf 11bd
00000190: 00fd fbbd e21e 61bc 3c3d b53d 001e e0bc
000001a0: fad7 b03c a8b0 ca3d 0a1f 89bc dd34 bb3d
000001b0: 6794 a63d af27 cd3d 6eb1 ecbd cae6 993d
000001c0: d885 713d 09d1 6b3d 5faa 5c3c 8b0b 91bc
000001d0: 9370 543d 7db6 ce3d 3a6c b73d 19cb 323d
000001e0: 413b 5dbd d56a 22be 4fdb 673c d224 b2bd
000001f0: 9e4b 693d 5e96 da3c 0b65 76bd 0352 b53d
00000200: 0726 9fbd c24f 5abc 0e2f 53bd d304 84bd
00000210: 3098 843d 8e57 14be ea7e e4bd 6f7e 3abd
00000220: 1fad eb3d 1655 0d3d 2a3a 6d3d 2395 593c
00000230: ca64 b33c 8eed a93d 3283 123d 5b56 3abd
00000240: 3ec6 08be ace7 5e3c 663b 5938 f24a 8dbd
00000250: dc1a fa3c ffe5 02bd 1080 ee3b 8ebb babd
00000260: 4da9 aabd ceed 91bd b03a e1bc 3835 49bd
00000270: f3bb e8bc 1083 9ebd a35e 023c a2bd 2b3e
00000280: 7217 a0bd 8f39 b9bd 6042 e0bc 7362 0abc
00000290: 7cae f23c fc84 66bc efb5 9c3d 45e9 e93c
000002a0: 8c6b 2abd f6cb 823d 2b44 e43b 3be8 5f3d
000002b0: 1644 ca3c 0443 df3d ca2b d53d e87f dabd
000002c0: fc4b 16bd b838 393d f47b f7bd 582b 38bd
000002d0: a035 b2bd 958f 383d 4eb6 7abd bc2a 3abd
000002e0: ec3d e53d 107b 263b 55a2 443d 8ef3 38bd
000002f0: 1ef3 fa3d 52af 513d 7abe e6bd aeac 8c3d
00000300: dc68 62bd 550b f93c eccd e03c d3fa 2dbd
00000310: 4138 d2bd e120 df3d 1ad1 623d 46fd 8d3d
00000320: 702e ca3d 135b df3d 754e be3d 260b ce3d
00000330: 0e96 903d b017 80bd f634 43bc 86c7 febd
00000340: 7fc4 d83b 958f 133d aad7 cc3d bcc5 933d
00000350: 28e4 fabd e5ba ca3d 6bcf a0bd 1f4d bcbd
00000360: a9d0 0bbe 2e83 593a 66c1 44bd 949b c13d
00000370: ce21 bfbd b812 813c 059e a53d 5cc0 ef3d
00000380: f3aa d1bd 5ee5 113c f582 d73d ab24 003c
00000390: 00db cbbd 52c8 01be baf2 edbd 4168 52bc
000003a0: 1685 5a3d dd37 963a 4323 b1bd f9a7 18bd
000003b0: c4af ef3d 4fa4 643d b0d9 12be 3f8d c9bd
000003c0: 0494 d0bc b0fd c8bc 4682 513c 0c77 85bd
000003d0: 646b c2bd 1a8e e6bc 334f 5c3d 8d44 bf3c
000003e0: e9c7 4f3d d412 a2bc 7705 1cbe b9fa e8bd
000003f0: 4897 e03c 4cee a8bd 8e88 76bd 2d7b 843d

bn_list.0.weight f4 [170]
0.9922397 1.0073422 0.99946433 1.0083464 0.9946254 0.9902812 1.0002896 0.98600096
1.009394 0.9880507 0.9888422 0.9893346 1.0013199 0.99139327 0.98793846 1.0150485
0.9937684 0.9890417 0.98687345 0.9972757 0.9954314 0.9980177 0.9928941 0.9898379
0.98220944 0.98928064 0.98386776 0.99030215 0.9817197 0.9886068 0.9908246 1.0018114
0.98069334 0.9799556 1.0059286 1.0039101 0.99099195 0.9846408 0.98048156 0.9875619
0.99290353 0.9861919 1.0078311 0.9654001 0.98723 0.97984654 0.99378335 0.99680895
1.0045298 0.98890036 1.0002539 0.98897827 0.98597157 1.0033804 0.9712689 0.99025965
0.98466486 1.0061493 0.9990499 1.0014129 0.9833566 0.9877552 0.9885006 0.9871956
0.9997231 0.9984594 0.9716913 0.9848394 0.97554135 0.98633957 1.0027993 1.0083197
0.99572116 0.9874727 0.99209327 1.023122 0.99091583 1.0042156 0.99584824 0.98295176
0.9755585 1.0161844 1.0210863 0.98979676 0.96390384 0.9933608 0.9927754 0.9917522
0.99365115 0.98276275 0.99295056 0.9877672 0.98357224 0.97620875 0.9712435 0.9761254
0.93021584 0.99908924 0.9980022 0.995058 0.96884567 0.9962674 0.9982934 0.99728507
1.0000267 1.0172234 0.9855866 0.98693466 1.0282465 0.9959822 0.98750025 0.98569655
0.9927762 1.0057962 0.99131584 0.98609775 0.9821488 0.9837712 0.98334235 0.9985479
0.99041724 0.9812816 0.9836584 1.0012481 1.0094552 0.9878638 0.9863013 0.99079627
0.99953705 0.9995267 0.9740073 1.0097855 0.99227434 1.0097754 0.98057353 0.9841383
0.9946362 0.9934998 0.98830634 0.99046624 0.99026835 0.98075515 1.0070163 0.99807364
0.9869932 0.98550737 0.97891694 1.0024669 0.99143416 0.9972042 0.9960854 1.0092735
0.99041486 1.0067265 0.98165905 1.0014938 0.98373336 1.0166085 0.98187035 0.9823834
0.9939164 1.0020003 0.9827402 0.98519176 0.9914484 1.005852 0.991369 0.98863673
0.9997832 0.9873586
00000000: 6c03 7e3f 97f0 803f e5dc 7f3f 7f11 813f
00000010: c59f 7e3f 1283 7d3f 7d09 803f 8f6a 7c3f
00000020: d333 813f e4f0 7c3f c324 7d3f 0845 7d3f
00000030: 402b 803f f3cb 7d3f 89e9 7c3f 1ced 813f
00000040: 9b67 7e3f d631 7d3f bda3 7c3f 764d 7f3f
00000050: 98d4 7e3f 177e 7f3f 4f2e 7e3f 0466 7d3f
00000060: 1472 7b3f 7f41 7d3f c2de 7b3f 7184 7d3f
00000070: fb51 7b3f 5615 7d3f aea6 7d3f 5b3b 803f
00000080: b80e 7b3f 5fde 7a3f 45c2 803f 2080 803f
00000090: a6b1 7d3f 6b11 7c3f d700 7b3f dbd0 7c3f
000000a0: ed2e 7e3f 1377 7c3f 9c00 813f 7624 773f
000000b0: 1bbb 7c3f 39d7 7a3f 9668 7e3f df2e 7f3f
000000c0: 6f94 803f 9328 7d3f 5208 803f ae2d 7d3f
000000d0: a268 7c3f c56e 803f 14a5 783f a881 7d3f
000000e0: ff12 7c3f 80c9 803f bcc1 7f3f 4c2e 803f
000000f0: 42bd 7b3f 86dd 7c3f 600e 7d3f dab8 7c3f
00000100: daed 7f3f 099b 7f3f c3c0 783f 6f1e 7c3f
00000110: 14bd 793f c080 7c3f ba5b 803f 9f10 813f
00000120: 95e7 7e3f 03cb 7c3f d3f9 7d3f a9f5 823f
00000130: a9ac 7d3f 238a 803f e9ef 7e3f baa2 7b3f
00000140: 34be 793f 5512 823f f5b2 823f 5263 7d3f
00000150: 67c2 763f e54c 7e3f 8726 7e3f 79e3 7d3f
00000160: ec5f 7e3f 5796 7b3f 0232 7e3f 50de 7c3f
00000170: 64cb 7b3f d1e8 793f 6aa3 783f 5be3 793f
00000180: a022 6e3f 50c4 7f3f 127d 7f3f 1fbc 7e3f
00000190: 4506 783f 610b 7f3f 2890 7f3f 134e 7f3f
000001a0: e000 803f 6034 823f 674f 7c3f c0a7 7c3f
000001b0: 959d 833f b1f8 7e3f d1cc 7c3f 9c56 7c3f
000001c0: 9526 7e3f eebd 803f e0c6 7d3f e770 7c3f
000001d0: 1b6e 7b3f 6ed8 7b3f 53bc 7b3f d6a0 7f3f
000001e0: fc8b 7d3f 4535 7b3f 09d1 7b3f e628 803f
000001f0: d435 813f a4e4 7c3f 3e7e 7c3f d3a4 7d3f
00000200: a9e1 7f3f fbe0 7f3f 8b58 793f a740 813f
00000210: b105 7e3f 5240 813f de06 7b3f 7df0 7b3f
00000220: 7aa0 7e3f 0156 7e3f a501 7d3f 328f 7d3f
00000230: 3a82 7d3f c512 7b3f e9e5 803f c181 7f3f
00000240: 96ab 7c3f 364a 7c3f 4d9a 7a3f d650 803f
00000250: a1ce 7d3f c648 7f3f 74ff 7e3f e02f 813f
00000260: d48b 7d3f 6adc 803f 024e 7b3f f330 803f
00000270: f3d5 7b3f 3a20 823f db5b 7b3f 7a7d 7b3f
00000280: 4e71 7e3f 8c41 803f dd94 7b3f 8735 7c3f
00000290: 90cf 7d3f c2bf 803f 5cca 7d3f 4c17 7d3f
000002a0: cbf1 7f3f 89c3 7c3f

bn_list.0.bias f4 [170]
0.037695643 0.038645323 0.0445508 0.05409159 -0.005497793 -0.0635557 0.04095002 0.031506617
0.058016967 -0.036678925 0.036309373 0.02019368 0.041061886 0.035768896 0.029675825 -0.024179786
-0.036432184 -0.07516764 0.040211953 0.035733595 -0.0350017 0.05093474 0.01839371 -0.06835478
0.02225515 -0.03739588 0.020735359 0.03909246 -0.028345287 0.033990055 0.031467065 0.055347122
0.015326337 0.019437453 -0.051811013 0.000169808 -0.039338283 -0.052941315 0.009596205 0.026648264
-0.03382514 -0.03811217 -0.023891406 0.015407514 0.04756318 -0.032201357 -0.02460601 0.0033935818
0.0015004327 0.04541763 -0.048953254 -0.050726745 -0.04147179 0.011301368 -0.06546719 -0.028050518
-0.046124324 0.036738526 -0.030099291 -0.050899442 0.0019692811 -0.035476074 -0.049724557 -0.05453128
-0.05733393 0.027081193 -0.020204388 -0.00030007403 0.0027196629 0.025153648 -0.038336717 0.056129135
0.04530888 0.032287456 -0.047515914 0.06296668 0.031304717 -0.040866237 -0.008669202 -0.04150135
-0.034800887 0.034487087 -0.019626755 -0.050426774 -0.023866272 0.027732622 0.04551602 -0.009484491
-0.0073868423 0.013575136 -0.013933605 0.036110606 -0.03409616 0.02711393 -0.037516214 0.031794693
-0.06659873 0.03307752 0.026227314 0.05328978 -0.035007227 -0.06850138 -0.01400279 0.0320582
-0.050336797 0.032218274 -0.06379223 0.036254954 0.035889935 -0.044325087 0.038926598 -0.043434817
0.025195124 -0.034607336 0.038694754 0.025072254 0.023315063 0.045678012 0.02861328 -0.054378178
0.040029563 0.043012984 0.016910363 -0.065010145 0.05759757 0.031036418 -0.045407932 -0.020926487
-0.067036666 0.03920877 0.029297166 -0.020305023 0.045005802 -0.06439224 0.043663297 0.03812857
0.0057939333 0.025690038 -0.044576652 0.028362527 -0.04340465 0.008335041 0.038273934 0.04835104
-0.036231328 0.024168061 -0.0005755414 0.03924354 -0.032740254 0.0071258 0.044846833 0.038677506
-0.05103069 -0.042864468 -0.07636914 0.04433673 -0.042506367 0.05862881 0.005115167 -0.029297521
-0.05113968 -0.056915723 -0.03946114 0.009954683 0.025216693 -0.036840513 -0.07188161 -0.07320004
-0.03817669 -0.0405594
00000000: bf66 1a3d 8f4a 1e3d e67a 363d 258f 5d3d
00000010: d526 b4bb 7e29 82bd 35bb 273d 150d 013d
00000020: 33a3 6d3d a43c 16bd 23b9 143d 376d a53c
00000030: 8230 283d 6882 123d b71a f33c b014 c6bc
00000040: ea39 15bd 7ef1 99bd 4ab5 243d 645d 123d
00000050: f15d 0fbd f2a0 503d 68ae 963c 97fd 8bbd
00000060: 6f50 b63c 6c2c 19bd 33dd a93c 6a1f 203d
00000070: 6034 e8bc 2839 0b3d 9ce3 003d aab3 623d
00000080: 511b 7b3c 4b3b 9f3c c937 54bd 7d0e 3239
00000090: 2e21 21bd fed8 58bd 6739 1d3c 764d da3c
000000a0: 3b8c 0abd 821b 1cbd e9b7 c3bc cc6f 7c3c
000000b0: 9cd1 423d 92e5 03bd 8b92 c9bc db66 5e3b
000000c0: 2baa c43a d607 3a3d 3583 48bd d9c6 4fbd
000000d0: 53de 29bd 5f29 393c aa13 86bd 33ca e5bc
000000e0: dcec 3cbd 237b 163d ca92 f6bc ef7b 50bd
000000f0: 0e0f 013b 5c4f 11bd faab 4bbd 315c 5fbd
00000100: fcd6 6abd 61d9 dd3c ac83 a5bc 4153 9db9
00000110: 5f3c 323b 060f ce3c f606 1dbd aae7 653d
00000120: ce95 393d da3f 043d 0ca0 42bd adf4 803d
00000130: 6039 003d 5b63 27bd 4509 0ebc 52fd 29bd
00000140: 608b 0ebd 5542 0d3d 4ac8 a0bc 4e8c 4ebd
00000150: 3383 c3bc 862f e33c 026f 3a3d d764 1bbc
00000160: 530d f2bb 3f6a 5e3c c649 64bc b7e8 133d
00000170: 6aa8 0bbd 081e de3c 9aaa 19bd 273b 023d
00000180: ea64 88bd 4b7c 073d aada d63c 6246 5a3d
00000190: bd63 0fbd 744a 8cbd f56b 65bc 764f 033d
000001a0: f52d 4ebd 4ff7 033d 80a5 82bd 1380 143d
000001b0: 5301 133d 398e 35bd 7f71 1f3d b5e8 31bd
000001c0: 0166 ce3c 6cc0 0dbd 647e 1e3d 5464 cd3c
000001d0: 3bff be3c de18 3b3d 6666 ea3c a7bb 5ebd
000001e0: 0af6 233d 622e 303d 9a87 8a3c 0a24 85bd
000001f0: 6eeb 6b3d 1640 fe3c abfd 39bd 066e abbc
00000200: 854a 89bd 6099 203d 9c00 f03c b856 a6bc
00000210: 0158 383d 14e0 83bd 49d8 323d b42c 1c3d
00000220: 09db bd3b ea73 d23c 0296 36bd 8858 e83c
00000230: 13c9 31bd b28f 083c 21c5 1c3d bd0b 463d
00000240: 4d67 14bd 19fc c53c eedf 16ba d6bd 203d
00000250: a51a 06bd 8b7f e93b 50b1 373d 4e6c 1e3d
00000260: 8f05 51bd a792 2fbd 6c67 9cbd 6e9a 353d
00000270: 281b 2ebd c324 703d 219d a73b 5b01 f0bc
00000280: d777 51bd 7620 69bd 01a2 21bd f718 233c
00000290: 3d93 ce3c 14e6 16bd aa36 93bd e7e9 95bd
000002a0: 295f 1cbd 9d21 26bd

bn_list.0.running_mean f4 [170]
-0.09957305 0.018361397 -0.004565618 0.010608926 -0.07124147 0.100381464 -0.097982645 -0.113435015
-0.0049967263 -0.03638333 -0.027058292 0.079932585 0.07196706 -0.08827481 -0.06872512 0.20010424
-0.04825216 0.09730523 -0.026886718 -0.061644167 0.020025643 -0.06375539 0.018993553 0.119223386
-0.096976966 -0.059090517 -0.12600315 0.05055052 -0.09279785 -0.14114794 -0.11480503 -0.017854014
0.06475666 -0.020419598 0.097704425 0.103327304 0.05313613 -0.043062594 0.0526186 0.087239526
0.054112308 -0.06345127 0.0949787 -0.07523311 -0.043406226 -0.021712841 -0.007640867 0.003339095
0.009548721 -0.070697196 0.034306377 -0.018828252 -0.07044955 -0.009855864 0.031207174 -0.051994894
-0.01876328 0.008134678 0.10362371 0.077975534 -0.048392244 -0.07683334 -0.014874811 0.049823325
0.043071058 -0.013404579 -0.073573165 -0.037631687 -0.023791285 0.013909668 -0.0021674442 0.0029695362
-0.06817066 -0.064502954 -0.013004052 0.010846849 -0.078912854 0.09350212 0.011184004 0.07436285
0.031364266 0.009351089 -0.010134602 0.076682754 -0.003673886 -0.015485261 -0.0671586 0.063025765
0.069782645 0.11774591 -0.016782673 -0.050382305 -0.07800569 -0.07223957 -0.1358061 -0.0877153
-0.005332638 -0.013994891 0.02391807 0.0058670705 -0.010071178 0.056957487 -0.005236371 0.029280549
0.09558758 -0.018203313 0.1274023 -0.1348541 0.022928923 0.07913457 0.018908229 0.07879781
-0.047035392 0.013300725 -0.069758944 -0.0794407 -0.0907162 -0.044830736 -0.048879694 0.019733338
0.10649359 -0.05962822 0.040208563 0.047882654 0.005216963 -0.07688134 0.06809787 -0.05500808
0.1768531 0.03183366 -0.026243493 -0.0038086623 0.041328706 0.08141857 -0.04940741 -0.047532756
-0.07470173 -0.12727937 -0.110701285 -0.035213433 -0.12235713 0.060610138 0.03617853 0.004668004
-0.06632752 -0.033662867 0.029805087 0.009360517 -0.070141934 -0.027569234 -0.051063582 0.049060035
0.043178555 -0.022250118 0.062165692 0.012617061 -0.1168574 0.008608002 -0.04222245 -0.047889836
0.0102691185 0.08719878 -0.07988077 0.04582832 0.018205341 0.05088132 0.11469812 0.03146776
0.0049511427 0.055717777
00000000: f5ec cbbd a46a 963c 2e9b 95bb 10d1 2d3c
00000010: 0ce7 91bd cc94 cd3d 20ab c8bd 9e50 e8bd
00000020: 94bb a3bb b006 15bd 5aa9 ddbc b2b3 a33d
00000030: 7763 933d 6cc9 b4bd c1bf 8cbd 20e8 4c3e
00000040: 0fa4 45bd f747 c73d 8941 dcbc 987e 7cbd
00000050: d10c a43c 3092 82bd 5e98 9b3c 642b f43d
00000060: dc9b c6bd e608 72bd f806 01be 100e 4f3d
00000070: cd0c bebd 1689 10be e61e ebbd 9542 92bc
00000080: 249f 843d 0047 a7bc 4219 c83d 449d d33d
00000090: 45a5 593d 6762 30bd 9a86 573d a3aa b23d
000000a0: dea4 5d3d bdf2 81bd 3184 c23d d113 9abd
000000b0: baca 31bd 21df b1bc 3d60 fabb b8d4 5a3b
000000c0: 3d72 1c3c b1c9 90bd d884 0c3d b53d 9abc
000000d0: db47 90bd 7d7a 21bc 30a6 ff3c 99f8 54bd
000000e0: 73b5 99bc 5047 053c ab38 d43d a3b1 9f3d
000000f0: f236 46bd cc5a 9dbd 7bb5 73bc 8b13 4c3d
00000100: 476b 303d e19e 5bbc 87ad 96bd af23 1abd
00000110: f1e5 c2bc 60e5 633c ae0b 0ebb 8d9c 423b
00000120: 0f9d 8bbd 201a 84bd f30e 55bc fbb6 313c
00000130: 109d a1bd 0a7e bf3d 1d3d 373c 8d4b 983d
00000140: d177 003d 4f35 193c 9a0b 26bc d90b 9d3d
00000150: 94c5 70bb e4b5 7dbc 738a 89bd a713 813d
00000160: 34ea 8e3d c524 f13d d17b 89bc ad5d 4ebd
00000170: 72c1 9fbd 57f2 93bd c110 0bbe 14a4 b3bd
00000180: 69bd aebb d44a 65bc d4ef c33c 8e40 c03b
00000190: 9501 25bc 414c 693d dd95 abbb c3dd ef3c
000001a0: 6cc3 c33d 1d1f 95bc c075 023e 3117 0abe
000001b0: 70d5 bb3c 4e11 a23d 6ee5 9a3c bf60 a13d
000001c0: 2fa8 40bd 49eb 593c c7dd 8ebd ceb1 a2bd
000001d0: 6ac9 b9bd 6fa0 37bd 1336 48bd cfa7 a13c
000001e0: 5019 da3d b83c 74bd bcb1 243d 9a20 443d
000001f0: 0ff3 aa3b f773 9dbd e576 8b3d 2750 61bd
00000200: fb18 353e 0364 023d 98fc d6bc c09a 79bb
00000210: 4a48 293d c7be a63d 6d5f 4abd b5b1 42bd
00000220: 38fd 98bd 8655 02be 5bb7 e2bd f63b 10bd
00000230: 6096 fabd 5642 783d f02f 143d 0ef6 983b
00000240: b9d6 87bd 13e2 09bd cc29 f43c db5c 193c
00000250: 93a6 8fbd e0d8 e1bc 0c28 51bd 2df3 483d
00000260: ffdb 303d e145 b6bc 74a1 7e3d cab7 4e3c
00000270: ef52 efbd 9408 0d3c 73f1 2cbd 2228 44bd
00000280: ce3f 283c 4695 b23d 8798 a3bd 7ab6 3b3d
00000290: 5e23 953c ee68 503d d9e6 ea3d 57e4 003d
000002a0: 323d a23b 5338 643d

bn_list.0.running_var f4 [170]
0.00057364325 0.00018399264 0.00026848714 0.00025437845 0.0002041542 0.000576941 0.00072992756 0.0008034614
0.00030042627 6.592401e-05 0.00016993603 0.0008177879 0.0003745029 0.0005006197 0.0003976163 0.0023439971
0.0001760986 0.00072022364 0.00016547741 0.0005350588 6.5086264e-05 0.0003041659 0.00014298433 0.00076359033
0.000633659 0.0004603989 0.00092258304 0.0003954194 0.00058414583 0.0015228855 0.0010106299 0.0002775395
0.00031683545 0.00017140353 0.0006109034 0.00076700846 0.00023748678 0.00010068072 0.00018799027 0.0006120657
0.00022734304 0.00038445255 0.0006969651 0.00045190178 0.000297927 0.00010087537 3.9721333e-05 7.7749064e-05
6.6994304e-05 0.00021914308 9.7646865e-05 2.9462195e-05 0.0002478923 9.674972e-05 0.00020038478 0.00025946565
5.7760633e-05 0.00022680781 0.0006144479 0.00055807293 0.00016505613 0.0004742061 8.903594e-05 0.0002627231
4.3001124e-05 9.1352056e-05 0.00035046088 0.00011346316 0.0002065422 9.377954e-05 6.313514e-05 0.00027215242
0.00046229074 0.00033582558 5.132191e-05 0.00021104705 0.0004984926 0.0005198476 7.80235e-05 0.0002635902
0.00018138863 0.000102216305 9.354469e-05 0.0003682519 3.6997226e-05 0.00013130695 0.0003871418 0.00040769347
0.00044106055 0.0008741107 0.00010214243 0.00037948063 0.00054967037 0.00030942503 0.0013947071 0.00055490626
3.9311388e-05 0.00014247133 8.744461e-05 0.00041381293 0.00010001647 0.0001694824 3.7831178e-05 0.00026143756
0.00046600404 9.788921e-05 0.001181326 0.0015532785 0.00018332884 0.00034880458 0.00023711518 0.00035722324
0.00029162524 9.217601e-05 0.00045797336 0.0005289184 0.0009405834 0.00028089975 0.000249065 5.153381e-05
0.00051157747 0.00027600036 0.0003070476 0.00030411602 0.0002212406 0.00055794406 0.0002935689 0.0004056841
0.0017815745 0.00013615943 0.00023820123 5.5831886e-05 0.00031608666 0.0006161161 0.00023334038 0.0003369327
0.0006058037 0.0009783446 0.0007224455 0.00019938976 0.0009023271 0.00023422268 0.00028625477 0.00024269702
0.00023457798 0.0002759617 9.3250004e-05 0.00014572355 0.00034418234 0.00020575138 0.0003259735 0.00022259595
0.0003665179 6.2158135e-05 0.00029889485 0.0002674566 0.00081032066 0.00020768441 0.00010253324 0.00026618672
7.59933e-05 0.0005694909 0.00040235088 0.00027920006 0.00015190913 0.00034748387 0.0007160901 0.00018254585
7.661625e-05 0.00013143239
00000000: 8c60 163a 26ee 4039 bcc3 8c39 195e 8539
00000010: 3a12 5639 db3d 173a 9c58 3f3a 629f 523a
00000020: 8882 9d39 af40 8a38 db30 3239 d160 563a
00000030: ee58 c439 053c 033a 2877 d039 bf9d 193b
00000040: 1ca7 3839 64cd 3c3a 0184 2d39 3043 0c3a
00000050: ec7e 8838 7578 9f39 10ee 1539 ae2b 483a
00000060: 231c 263a b261 f139 80d9 713a 4b50 cf39
00000070: 5d21 193a 8f9b c73a 1d77 843a b982 9139
00000080: ef1c a639 c9ba 3339 0825 203a 1111 493a
00000090: df05 7939 8d24 d338 411f 4539 0973 203a
000000a0: ef62 6e39 5990 c939 89b4 363a 3bed ec39
000000b0: 1633 9c39 0d8d d338 759a 2638 360d a338
000000c0: 4b7f 8c38 c6c9 6539 c3c7 cc38 9525 f737
000000d0: 8bf7 8139 1ce6 ca38 611e 5239 e408 8839
000000e0: 0244 7238 42d3 6d39 e712 213a a44b 123a
000000f0: eb12 2d39 de9e f839 ceb8 ba38 19be 8939
00000100: 1b5c 3438 4394 bf38 10be b739 12f3 ed38
00000110: 4093 5839 82ab c438 6c67 8438 aeaf 8e39
00000120: 9d5f f239 bf11 b039 7b42 5738 834c 5d39
00000130: 46ad 023a 6246 083a 8ca0 a338 7a32 8a39
00000140: 2433 3e39 f65c d638 6c2d c438 ef11 c139
00000150: 782d 1b38 71af 0939 4bf9 ca39 b1bf d539
00000160: 253e e739 9324 653a 4d35 d638 07f5 c639
00000170: c117 103a 533a a239 9bce b63a 2177 113a
00000180: 48e2 2438 5b64 1539 7862 b738 08f5 d839
00000190: efbf d138 16b7 3139 ebac 1e38 8e11 8939
000001a0: 0152 f439 df49 cd38 b9d6 9a3a 6197 cb3a
000001b0: f63b 4039 c2df b639 1fa2 7839 b149 bb39
000001c0: 47e5 9839 9e4e c138 251c f039 1da7 0a3a
000001d0: 7c91 763a ba45 9339 f094 8239 0226 5838
000001e0: 621b 063a 24b4 9039 3bfb a039 c371 9f39
000001f0: d2fc 6739 fe42 123a 27ea 9939 00b2 d439
00000200: b883 e93a 05c6 0e39 a8c5 7939 082d 6a38
00000210: 6fb8 a539 da82 213a d5ac 7439 57a6 b039
00000220: ccce 1e3a cc3b 803a 7f62 3d3a 4813 5139
00000230: 268a 6c3a ac99 7539 7714 9639 7c7c 7e39
00000240: 0cf9 7539 f4ae 9039 378f c338 5ecd 1839
00000250: 5f73 b439 f7be 5739 6ce7 aa39 a568 6939
00000260: 3329 c039 e55a 8238 fdb4 9c39 6b39 8c39
00000270: b36b 543a dcc5 5939 1d07 d738 fa8e 8b39
00000280: 985e 9f38 e349 153a 9ff2 d239 9961 9239
00000290: cc49 1f39 7f2e b639 feb7 3b3a c769 3f39
000002a0: 09ad a038 1dd1 0939

post_lin_list.0.weight f4 [40, 170]
-0.06216897 -0.07257894 -0.03725763 -0.00853431 -0.012994063 0.05134242 -0.043303046 -0.021467626
-0.054566637 0.07086927 0.04654322 -0.006672612 -0.018527364 0.008495262 -0.06842566 0.033122987
0.041434128 -0.057500944 -0.06309393 0.06375438 -0.042860065 -0.012652552 0.0032733837 0.02055511
0.06599121 0.03039299 0.05462951 -0.07542775 -0.055453006 -0.040660296 -0.021169057 -0.034664754
0.016135428 -0.013859446 -0.047466677 -0.047063984 0.056436446 -0.0060874657 -0.050508562 0.040031552
-0.046371028 -0.058892965 0.00038484656 -0.05356297 -0.014449572 -0.0020837528 -0.013481913 0.009401651
-0.044257652 0.011036641 -0.07632138 -0.017703779 0.061694138 -0.051404312 -0.04875598 0.0009326976
-0.014912384 -0.071346864 0.024118973 0.06933974 -0.060514744 -0.06677067 0.06744413 0.0529898
-0.029590359 -0.032888904 -0.054768477 0.05104336 0.0658956 -0.016604982 0.07232708 0.033537168
0.049924698 0.009064523 -0.03394794 0.0073041073 -0.022147333 0.04072013 -0.017838536 -0.04807918
-0.020038728 -0.059751794 -0.05179338 -0.06373951 -0.037467286 0.038205087 0.0458631 0.018542936
-0.06184268 -0.04875677 0.012423928 -0.041791778 -0.061802622 -0.06801402 0.025601525 -0.044088118
-0.0038352879 -0.054951314 -0.010412639 -0.009469219 0.04576193 0.033395983 0.0030744295 -0.0142345745
-0.07759064 0.01342152 -0.019398598 0.04158518 -0.06416251 0.042728502 -0.06544262 0.052130617
-0.07228168 -0.012310518 -0.055753242 0.04467531 0.03859669 -0.07506197 0.004234111 -0.011851795
0.05882473 0.06677657 -0.05065088 -0.030562226 -0.027798243 0.057876203 0.027248003 -0.04970036
0.048928387 -0.06252936 0.00038369323 -0.069677666 -0.048395913 0.0587472 0.015050402 -0.04708233
0.065737255 0.06560926 -0.0062726 0.046057623 -0.06208773 0.017684683 -0.016629 -0.00638755
-0.020779803 -0.015988968 -0.031113265 0.016983882 0.015133655 0.0041293968 -0.013031652 -0.037795823
-0.006146976 -0.017026206 0.037175562 0.012989108 0.023327181 -0.0012474797 0.01606059 -0.06568053
-0.043238185 0.024616238 -0.06366572 -0.041999146 -0.0786276 0.023080816 -0.0139387995 -0.03644843
0.032305885 0.015824843 0.011027967 -0.029831013 -0.040864054 0.007959294 -0.0026580803 -0.028256828
0.038747888 -0.06067057 -0.052357126 0.03356304 -0.011363508 0.01793869 0.027815068 0.0053476687
0.058483776 -0.03351297 -0.06634125 0.009834601 -0.051124595 -0.04545313 -0.03757546 -0.03654218
-0.05105811 0.033863474 0.052387122 -0.08179717 0.05878964 -0.033541407 0.02849148 -0.06835299
0.052639764 0.055685263 0.032360684 0.004817823 -0.013770148 0.05187812 -0.03112518 0.04987782
0.01938435 -0.05785099 0.049676217 0.05848875 -0.07008713 0.036255043 -0.068002075 0.033382256
-0.006815891 -0.0049469024 -0.04692283 0.056061022 0.042422604 -0.019999625 -0.049826927 -0.019655183
0.016463382 0.033057295 0.02129953 -0.04942173 0.050420877 0.015382888 0.018569063 -0.043743372
-0.08832781 0.04594054 0.014197846 -0.0336762 0.0023166405 0.04975428 0.057951972 -0.03576404
0.035910048 0.054218974 0.042348463 -0.07415319 -0.018554427 -0.04539429 0.008244509 -0.06870059
0.022137042 0.015631305 -0.019036636 -0.0103510255 -0.0736319 0.019247185 0.054574404 -0.06688835
00000000: e4a4 7ebd 44a4 94bd 759b 18bd 7ed3 0bbc
00000010: 0de5 54bc 6e4c 523d 895e 31bd e0dc afbc
00000020: 4481 5fbd e823 913d 1aa4 3e3d eda5 dabb
00000030: b3c6 97bc b62f 0b3c c122 8cbd f8ab 073d
00000040: d5b6 293d 1c86 6bbd 6437 81bd a891 823d
00000050: 098e 2fbd a64c 4fbc 4486 563b 3163 a83c
00000060: 6626 873d b8fa f83c 31c3 5f3d dd79 9abd
00000070: b122 63bd 698b 26bd bb6a adbc a1fc 0dbd
00000080: 722e 843c bb12 63bc 6b6c 42bd 2ac6 40bd
00000090: e729 673d 5d79 c7bb 11e2 4ebd 20f8 233d
000000a0: 8cef 3dbd c039 71bd 3bc5 c939 d864 5bbd
000000b0: e6bd 6cbc 928f 08bb 3ee3 5cbc 6209 1a3c
000000c0: 8347 35bd 07d3 343c 624e 9cbd 8407 91bc
000000d0: feb2 7c3d 548d 52bd 5ab4 47bd 4780 743a
000000e0: 1253 74bc 4e1e 92bd 2795 c53c fe01 8e3d
000000f0: 4fde 77bd 10bf 88bd 2620 8a3d d50b 593d
00000100: 7b67 f2bc 84b6 06bd e954 60bd d812 513d
00000110: 46f4 863d 2c07 88bc 3820 943d 455e 093d
00000120: d77d 4c3d 5d83 143c ff0c 0bbd 4b57 ef3b
00000130: 536e b5bc 27ca 263d 1f22 92bc adee 44bd
00000140: 4228 a4bc 4cbe 74bd 4c25 54bd dc89 82bd
00000150: 4c77 19bd f07c 1c3d f2da 3b3d 5be7 973c
00000160: c04e 7dbd 2eb5 47bd bb8d 4b3c db2d 2bbd
00000170: bf24 7dbd ef4a 8bbd 4aba d13c be95 34bd
00000180: 7459 7bbb a114 61bd c699 2abc c824 1bbc
00000190: dd70 3b3d 3aca 083d 5e7c 493b 2238 69bc
000001a0: d7e7 9ebd efe5 5b3c cfe9 9ebc 3955 2a3d
000001b0: a267 83bd 1504 2f3d c806 86bd ea86 553d
000001c0: 6b08 94bd 0eb2 49bc 835d 64bd 75fd 363d
000001d0: 9017 1e3d 17ba 99bd 4cbe 8a3b 082e 42bc
000001e0: 33f2 703d 28c2 883d 4c77 4fbd a25d fabc
000001f0: 24b9 e3bc 990f 6d3d 3437 df3c 9b92 4bbd
00000200: 2269 483d 650f 80bd 6f2a c939 2ab3 8ebd
00000210: cb3a 46bd e7a0 703d f695 763c 67d9 40bd
00000220: 41a1 863d 265e 863d 628a cdbb eba6 3c3d
00000230: b44f 7ebd 78df 903c 8a39 88bc a74e d1bb
00000240: 683a aabc 4cfb 82bc 3fe1 febc c821 8b3c
00000250: 26f3 773c e44f 873b b682 55bc cbcf 1abd
00000260: 926c c9bb 8b7a 8bbc 6745 183d 45d0 543c
00000270: a518 bf3c 7982 a3ba 8091 833c 8483 86bd
00000280: 861a 31bd fea7 c93c 2c63 82bd 4c07 2cbd
00000290: 8207 a1bd fb13 bd3c 905f 64bc f34a 15bd
000002a0: 2d53 043d 1aa3 813c a5ae 343c 2b60 f4bc
000002b0: 1161 27bd b367 023c 3033 2ebb dd7a e7bc
000002c0: 1bb6 1e3d b481 78bd 6d74 56bd 6679 093d
000002d0: 022e 3abc 29f4 923c 6ddc e33c 7f3b af3b
000002e0: af8c 6f3d e544 09bd ecdd 87bd 4e21 213c
000002f0: 0668 51bd 102d 3abd bae8 19bd 41ad 15bd
00000300: 4f22 51bd 6db4 0a3d e193 563d 4685 a7bd
00000310: 68cd 703d b762 09bd f766 e93c a7fc 8bbd
00000320: cb9c 573d 3b16 643d a38c 043d d4de 9d3b
00000330: 309c 61bc 277e 543d 3cfa febc af4c 4c3d
00000340: eecb 9e3c 29f5 6cbd 4a79 4b3d e691 6f3d
00000350: d789 8fbd 2b80 143d ac44 8bbd d5bb 083d
00000360: d657 dfbb a019 a2bb 2732 40bd 3ea0 653d
00000370: 53c3 2d3d 41d6 a3bc 5217 4cbd e803 a1bc
00000380: 37de 863c 1667 073d 5a7c ae3c 716e 4abd
00000390: 1f86 4e3d 8208 7c3c 261e 983c 402c 33bd
000003a0: 36e5 b4bd 262c 3c3d 159e 683c 0ef0 09bd
000003b0: c7d2 173b 25cb 4b3d 0c5f 6d3d 507d 12bd
000003c0: 6a16 133d b714 5e3d 9575 2d3d a1dd 97bd
000003d0: 74ff 97bc 5def 39bd fa13 073c e5b2 8cbd
000003e0: be58 b53c 390d 803c b8f2 9bbc 5997 29bc
000003f0: 52cc 96bd 46ac 9d3c 6989 5f3d c2fc 88bd

post_lin_list.0.bias f4 [40]
-0.060940657 0.049335074 0.063281275 -0.10816537 0.04890044 0.091035046 0.11967938 0.052954365
-0.173603 -0.125205 0.073601745 -0.07123847 0.04062754 -0.22064812 0.14988299 0.12653708
-0.055643026 0.022685342 0.20036592 0.028711487 -0.024679713 0.010029968 0.11206419 0.045418642
-0.17532137 -0.037628375 0.11069195 -0.08789668 -0.21477991 0.0046087913 0.066574216 -0.19078678
0.06564791 -0.08991568 0.0760052 0.11833601 -0.12978609 -0.21236002 0.07916474 -0.22046302
00000000: e99c 79bd 9313 4a3d 9d99 813d ce85 ddbd
00000010: d44b 483d 9570 ba3d 761a f53d ade6 583d
00000020: fcc4 31be bd35 00be 83bc 963d 7ae5 91bd
00000030: 1069 263d 95f1 61be ed7a 193e f092 013e
00000040: f1e9 63bd 9cd6 b93c b92c 4d3e 5a34 eb3c
00000050: 1c2d cabc bc54 243c e981 e53d e608 3a3d
00000060: 7287 33be 3620 1abd 76b2 e23d 2d03 b4bd
00000070: 44ef 5bbe 5805 973b 1058 883d 9c5d 43be
00000080: 6972 863d b625 b8bd 9da8 9b3d 265a f23d
00000090: a5e6 04be e874 59be 2021 a23d 0fc1 61be

lin_out.weight f4 [1, 40]
0.002734413 -0.04818871 -0.0056065596 0.123070404 -0.01135807 -0.009176109 -0.062602796 -0.07104604
0.06343751 0.13754117 -0.1647125 -0.065651245 -0.021853697 0.09660599 -0.12577641 -0.03002381
0.032126516 -0.046819557 -0.0855417 0.118977346 0.07587445 0.027690865 -0.0810979 -0.021900356
0.067213975 -0.09897388 -0.13830756 0.11547665 0.011321128 -0.03907416 0.062337432 0.034938607
0.0954142 0.08357891 -0.11545921 -0.0951539 0.14468437 0.13617107 -0.104958534 0.06410784
00000000: d633 333b 8661 45bd 3bb7 b7bb 560c fc3d
00000010: 3317 3abc 6457 16bc e535 80bd 9680 91bd
00000020: 86eb 813d 98d7 0c3e 65aa 28be 2974 86bd
00000030: 8606 b3bc 5cd9 c53d 88cb 00be 7ef4 f5bc
00000040: 1897 033d ddc5 3fbd 7d30 afbd 65aa f33d
00000050: 1064 9b3d f4d7 e23c a816 a6bd 6068 b3bc
00000060: 7ba7 893d d1b2 cabd 7fa0 0dbe 067f ec3d
00000070: 417c 393c 3a0c 20bd 8955 7f3d c91b 0f3d
00000080: 8568 c33d 6b2b ab3d e175 ecbd 0ce0 c2bd
00000090: 2428 143e 6e70 0b3e 80f4 d6bd f94a 833d
